reinforcement_learning/results/EndToEnd_critic2(test).pt (torch, 62114 bytes, 5 tensors)

weight f4 [100, 43]
000000 7d 28 a5 3b 39 74 b4 bc 69 bd 6f 3d 85 62 72 be
       0.005040227 -0.022028076 0.058530245 -0.23670395
000010 a8 ee 3d be 7c a4 13 3c 22 c3 2d 3d a8 79 dd bd
       -0.18548071 0.009011384 0.04242242 -0.1081422
000020 9e 7e eb bd 03 39 93 bd 65 c0 ae 3c c9 e0 f2 bc
       -0.1149876 -0.071886085 0.021331975 -0.029648202
000030 be ab b9 3d 14 e3 9e be 4e 15 77 bd eb 23 17 3e
       0.0906596 -0.31032622 -0.060323052 0.14759795
000040 e4 4c 97 3b 36 bb 82 3e 4c 29 b4 be 38 f5 16 bf
       0.0046173204 0.25533456 -0.35187757 -0.58967924
000050 4a 90 1a 3e 70 6d 25 3e a4 16 85 be 2d ac c8 3c
       0.15094104 0.16155028 -0.25993836 0.024496162
000060 26 40 2b 3d 79 55 1b bd cd ca 31 bd 7f d0 8d bd
       0.041809224 -0.03792331 -0.043406297 -0.06924533
000070 f8 db 12 be 5c 95 42 3d 42 9b 5b be c4 1d 87 be
       -0.14341724 0.04750572 -0.21445945 -0.26389897
000080 09 63 1e be af 5b 20 3e f5 22 8d bd 65 12 81 3d
       -0.15467466 0.15659975 -0.06891433 0.063023366
000090 a8 bf 15 3d 4a e3 0c bf 94 5f 44 bf 95 b8 8b be
       0.03655973 -0.55034316 -0.7670834 -0.27289262
0000a0 b2 f6 ff 3c 61 38 99 3e 47 76 ef bd 96 c2 11 3f
       0.031245563 0.29925826 -0.116924815 0.5693754
0000b0 f9 ff 3b 3d 64 59 3e 3e d0 80 8a 3d 49 d0 f5 bd
       0.04589841 0.18588787 0.0676285 -0.12002618
0000c0 0f 18 09 be 6e de d5 be 43 25 ea be e3 f3 f3 be
       -0.13388084 -0.41771263 -0.45731553 -0.47647008
0000d0 4d 83 cd be 49 eb 19 bf ee e5 20 bf b3 b1 aa bd
       -0.40139237 -0.6012464 -0.62850845 -0.08334675
0000e0 56 7f 65 3e f3 1d bd 3e 86 eb d9 bd d6 ba f0 bd
       0.22411856 0.36936912 -0.10640626 -0.11754386
0000f0 11 b8 e5 3e ce 4a 5a be a5 7e cd bd c9 28 31 3e
       0.44866994 -0.21317598 -0.10033921 0.17300715
000100 40 89 4e bd 14 e4 1a be d6 ef 26 be 73 a5 40 bd
       -0.05042386 -0.15126067 -0.16302428 -0.047032785
000110 45 79 e9 3d d9 64 54 be 40 ff 02 3c 54 b7 af 3d
       0.114000835 -0.20741595 0.007995427 0.08579889
000120 0c f1 b2 3e 89 37 63 be ea 26 49 bc c6 7c 04 bd
       0.3494953 -0.22189154 -0.012277344 -0.032345556
000130 6d dd 21 be 0b 44 50 bd 69 d2 74 be af 23 05 bf
       -0.15807123 -0.05084614 -0.2390839 -0.52007574
000140 73 e6 55 be 4f 9d 04 3d 9e 4a d7 bd 41 5e 01 3f
       -0.2088869 0.032376584 -0.10512279 0.50534445
000150 7e b7 68 be 68 1f 94 3c e3 06 be be 70 e5 36 be
       -0.22726247 0.018081382 -0.3711463 -0.17860961
000160 9e 95 09 3e 4a 00 bb 3e 6a b2 b7 3e ce bf 58 3e
       0.1343598 0.36523658 0.35878307 0.21166918
000170 e6 52 81 3e df f4 30 3e b2 d8 84 be e7 1f 3c bf
       0.2525856 0.17280911 -0.25946575 -0.7348618
000180 9d dc 6a be 01 82 72 3e e9 17 62 3e 2b 74 81 3e
       -0.2293572 0.23682405 0.22079434 0.25283942
000190 60 da 9d be 98 64 e0 be b8 e9 04 bf 7b 79 e8 3d
       -0.3083067 -0.43826747 -0.51919127 0.113512956
0001a0 3b 87 1d bd 81 19 5a 3d bf 65 c8 be 9a 9b 92 be
       -0.038459044 0.05324698 -0.39140126 -0.2863434
0001b0 d2 99 c5 bd 21 1b 3b bd 47 c4 7c 3d ff 28 ca 3e
       -0.096484795 -0.04568017 0.061710622 0.39484403
0001c0 0c 49 03 3e e1 42 14 3e 88 b4 16 be 4f 65 1f be
       0.12820834 0.14478637 -0.14717305 -0.1556599
0001d0 7a ee 81 be 8c f1 f3 be 50 db 88 3d 0e 86 1f bd
       -0.25377256 -0.47645223 0.066824555 -0.038946204
0001e0 95 d0 13 3d 47 0f 0e be fc 60 08 bd db f6 c0 3d
       0.03608759 -0.13873015 -0.033295617 0.09422084
0001f0 4f 95 d4 bd 2d 78 7d be eb a1 3a be f2 ab 3f bf
       -0.10380041 -0.24752875 -0.1822583 -0.7487174
000200 a8 1a bf be 28 73 06 be 5b 0e 9c 3d 93 aa 40 bd
       -0.37325025 -0.13129866 0.076199256 -0.047037672
000210 2a 63 15 be 68 9d ef 3c 46 f1 95 bd 73 54 db 3b
       -0.1458861 0.029249862 -0.0732141 0.0066934167
000220 32 65 a7 bd df ce 1a bc 3b 7c 63 3c 86 1a e9 3a
       -0.08173598 -0.009448736 0.013884599 0.0017784394
000230 78 3c 50 bc 31 5b 5a 3c 9c 7d bb 3d 92 1e 5f 3c
       -0.012709729 0.013327406 0.091548175 0.013618128
000240 87 ec 0f 3e 32 85 69 bc 73 28 3f 3d b7 1c 12 bd
       0.14055072 -0.014252948 0.046669435 -0.035671916
000250 49 9d c2 3d 5a 37 05 3e 9b 30 5d 3d 3a 2b 02 3c
       0.09502656 0.13009396 0.054001432 0.007944876
000260 8c 81 b0 3d 31 d6 15 be fd 6c b4 3d d0 3c 6e 3d
       0.08618459 -0.14632489 0.0880985 0.058163464
000270 ce 8d c2 3d 49 a5 f0 3d 9d c3 e5 bc d0 26 e0 bd
       0.09499703 0.11750276 -0.028047377 -0.10944903
000280 9b 5f 05 be 18 0b 1a be ee 0c 10 be 17 6d c7 bd
       -0.13024752 -0.15043294 -0.14067432 -0.09737604
000290 32 e2 15 be 8b 36 9b bd 05 b4 44 3c 12 57 5f bc
       -0.14637068 -0.075787626 0.012005811 -0.013631599
0002a0 a7 7e c9 3d cd f0 a2 bd 6a 00 6a 3d ee 52 07 3e
       0.0983861 -0.07956085 0.0571293 0.13215229
0002b0 95 be 7a bf 66 9f 44 bf 0e e7 5f bf 3d bd 37 bf
       -0.97947055 -0.7680572 -0.87461936 -0.7177313
0002c0 d5 44 ff be 34 dd 69 bf 52 08 3e bf 8a d8 82 bf
       -0.49857202 -0.91353154 -0.74231446 -1.0222332
0002d0 8b b6 27 bf 0e d3 25 bf a1 0d ec bc 75 b5 ba 3d
       -0.65512913 -0.6477517 -0.028815093 0.091166414
0002e0 de 1a 12 3f 6c 87 20 be e0 fb 8e 3d c0 03 a0 3d
       0.57072246 -0.1567666 0.06981635 0.07813215
0002f0 f8 73 d3 3d ff 46 d7 3e 51 0b 97 3e 63 70 fd bc
       0.10324854 0.42046353 0.2950082 -0.03093738
000300 b8 70 5b bf e7 2b 4c bf 2d df db be 80 16 fb be
       -0.8571887 -0.7975449 -0.42943707 -0.49040604
000310 ad a5 61 bf 7d 1d 45 bf f6 42 2f bf dd 45 34 bf
       -0.88143426 -0.7699812 -0.6846155 -0.704191
000320 43 71 39 bf 6f 51 c3 be bc a5 b4 bd 97 4d 05 3e
       -0.7243845 -0.38148066 -0.08820674 0.1301788
000330 85 0d cb 3d 5f 2b 83 3e ea 75 5a bd 49 67 07 3d
       0.09914688 0.25619027 -0.053335108 0.033057485
000340 7f 4f 3d 3e 0b ef 03 3f 64 c2 67 3e de f3 ae bb
       0.18487357 0.51536626 0.22632748 -0.00533913
000350 ec c5 29 3e 78 21 2f ba 5d f8 db be b8 1e a7 be
       0.16579407 -0.00066807074 -0.42962924 -0.32640624
000360 ff 38 b9 be 21 10 6a be 33 71 38 be 73 fc a7 be
       -0.36176297 -0.22857715 -0.18011932 -0.3280979
000370 d2 94 3a be f0 15 59 bd 0d 7b 08 bd 3f d0 9c bd
       -0.18220833 -0.052999437 -0.033320475 -0.07656907
000380 46 2e f8 3e a4 84 08 3e 53 ba ad 3e 8e 3b 04 3f
       0.48472804 0.13331848 0.33931217 0.51653373
000390 ff c4 ab 3e 7c 9c bc 3e 39 5a 68 3d 22 5e 7e be
       0.33548734 0.36838138 0.056726668 -0.24840596
0003a0 21 78 11 be f9 f6 24 bd a2 a0 38 3d 52 59 07 bd
       -0.14205982 -0.040274594 0.045075066 -0.033044167
0003b0 14 d7 06 be a3 66 55 bd 42 f6 84 bd ba 46 13 3c
       -0.13167983 -0.052099835 -0.064922825 0.0089890305
0003c0 c4 68 e5 be e5 8f a3 be 98 91 97 bd d9 20 13 3e
       -0.44806492 -0.3194572 -0.07400817 0.14367999
0003d0 e5 26 94 3e 87 9a 87 3d 8b c0 94 3d 65 bd 99 3d
       0.28935924 0.066212706 0.07263287 0.07506827
0003e0 06 3c 04 be 8a 4e 1c be d5 96 e4 3c 00 cc fb bd
       -0.12913522 -0.15264335 0.027903954 -0.12294769
0003f0 19 0a 4b be 08 a2 00 be 6a 45 96 ba 63 e7 42 bf
       -0.1982807 -0.1256181 -0.0011464779 -0.7613432

bias f4 [100]
000000 82 f8 3b bd 7d 4f b7 3e 19 5d bb 3e ad 7e bc bd
       -0.045891292 0.35802832 0.36594465 -0.09203849
000010 52 0b cd bd b2 7e 98 3c e3 1f 89 3e 0c d4 b0 3e
       -0.10011925 0.0186151 0.2678214 0.3453678
000020 f5 84 24 3e 0f 37 15 3f 31 5a 05 be 97 13 1d 3d
       0.16066344 0.5828714 -0.13022687 0.03834876
000030 99 9b 9d 3e c9 3a 3c bd 3c d3 0d bf 7e 11 91 3d
       0.30782774 -0.0459545 -0.55400443 0.070834145
000040 d0 a2 18 3f 85 c8 96 3e 0d 12 b3 3e b5 db dd bb
       0.5962343 0.2944986 0.3497471 -0.006770576
000050 3c e8 bb bd 88 31 17 bf a9 23 b9 bd ce 83 90 bb
       -0.091751546 -0.59059954 -0.09040005 -0.0044102436
000060 4a dd bd be f9 85 b1 3c 68 ca 35 3e b3 30 f6 be
       -0.37082893 0.021670328 0.17752993 -0.4808403
000070 a3 f5 30 be 6b ce 1c 3f 1b da b5 3e 86 9c d9 3d
       -0.17281203 0.6125247 0.35517964 0.106255576
000080 b1 06 91 be 88 b7 1f 3e 7c ad fb 3e 7c 45 e0 3e
       -0.28325418 0.15597355 0.49155796 0.43803012
000090 b9 c3 00 be 5a 55 75 bd f0 11 02 3f 3b 58 87 be
       -0.12574662 -0.05989585 0.5080862 -0.26434502
0000a0 c7 af c7 3e cf ec 4b 3c c0 61 19 be 13 26 a3 3e
       0.39001295 0.012446596 -0.14978695 0.31864986
0000b0 ec 02 dc 3e 35 de 24 3f b8 60 ae bd c5 fb 3e bc
       0.4297098 0.6440156 -0.085145414 -0.011656706
0000c0 e6 b5 70 3d 18 03 99 3e 7a e9 3c 3f dc 52 59 3e
       0.058767222 0.29885173 0.73793757 0.21223015
0000d0 16 a7 c1 bd 41 12 82 3e a1 a3 5c be bb 09 fa be
       -0.09455697 0.25404552 -0.21546794 -0.4883555
0000e0 52 ce c8 3c 9a f0 2a be 43 0d 82 3d d9 50 90 bd
       0.024512444 -0.16693345 0.06350186 -0.070466705
0000f0 7e 6b 68 3d 5f c3 17 3f dd 80 c9 bc a9 89 5b 3e
       0.056743138 0.5928249 -0.02459758 0.21439232
000100 9b 97 53 3e 16 18 f6 be 6f 9b 11 3e a4 28 1d 3e
       0.20663302 -0.4806525 0.1421945 0.15347534
000110 6d af 6a 3c 21 dc a1 3d 79 36 04 3f c2 83 5f 3d
       0.014324051 0.079033144 0.5164562 0.054569013
000120 cd 74 17 be 00 83 9c bd 30 4a 25 3f 28 89 ca 3e
       -0.1479065 -0.07642174 0.64566326 0.39557767
000130 f9 db 09 be 9e 34 ab be a9 af 25 bf 6e 5b f8 3e
       -0.13462819 -0.3343858 -0.6472116 0.48507255
000140 0a ca 36 bd 48 b5 e7 3d d7 74 fb 3e a7 04 f9 bd
       -0.044626273 0.113138735 0.4911258 -0.121590905
000150 81 f4 d5 3e cc 00 1b 3c 13 d5 f1 3e c8 0b be bd
       0.41788104 0.009460639 0.47232875 -0.09279591
000160 cf a2 28 3e 32 8f 1f 3d af c8 bc 3e 62 87 00 be
       0.16468357 0.03895492 0.3687186 -0.12551644
000170 31 82 d9 3d 3c 1c 7f be 1d e3 37 bf a7 f7 c5 3e
       0.10620535 -0.24913114 -0.7183092 0.38665506
000180 81 04 1a be 5e 79 f7 bd f9 7c 1c bf f7 33 75 3e
       -0.1504078 -0.12083696 -0.61128193 0.23945604

weight f4 [100, 100]
000000 07 89 29 3e 17 2e 55 3e eb 85 a3 3d b3 26 24 3c
       0.16556178 0.20818363 0.07984527 0.010018992
000010 16 ce 09 be 31 a5 53 3d 58 f5 ce 3d 90 48 01 3e
       -0.13457522 0.05167121 0.10105389 0.12625337
000020 07 f6 be 3d e8 d4 a3 be f9 f1 b5 bd 49 e7 9b bd
       0.0932427 -0.31998372 -0.08884043 -0.076124735
000030 8d 1b 9d bf 94 b2 2a bc aa 9c 11 3e c1 d6 fc 3d
       -1.2274033 -0.010418553 0.14219919 0.123456486
000040 f8 0c 05 3e 06 c0 cd 3e e4 71 23 bf 4a 35 80 bd
       0.12993228 0.40185565 -0.6384566 -0.06260164
000050 94 b0 09 3e 05 87 0a 3e 62 dd 6d 3d 77 ce cc 3d
       0.13446265 0.13528068 0.058072455 0.100003175
000060 e7 9d a5 bd aa ef 9e 3d 04 bc 3c be 4e 92 5b 3e
       -0.08086758 0.07760556 -0.18431097 0.2144253
000070 0e e5 d0 bc 63 56 a2 bc 05 26 b3 3c eb b3 32 bd
       -0.025499847 -0.019816583 0.021868715 -0.043628614
000080 97 71 18 3e f3 51 07 3e d3 e4 be be 5f f5 ef 3d
       0.14887081 0.13214855 -0.37283954 0.11716723
000090 4c 90 f4 bd 56 4d 2c 3d 63 01 4f be 59 e6 0f 3e
       -0.11941585 0.04206594 -0.20215373 0.14052714
0000a0 b0 6a 08 3e 18 2f cb 3c 37 0c eb bd f7 f5 49 3d
       0.13321948 0.02480273 -0.11476939 0.049306836
0000b0 42 0f 6b bd 93 5f 06 be ca ea a2 bc 08 04 1f 3d
       -0.057387598 -0.13122396 -0.019887347 0.038822204
0000c0 33 1e c9 3d 69 f6 47 3e 25 5f 40 bf 70 30 28 3e
       0.09820213 0.19527592 -0.7514518 0.16424727
0000d0 a7 58 b3 bd 8a 7d 75 3d d0 dd d2 3c 83 12 3a 3e
       -0.087571435 0.059934177 0.025740534 0.18171124
0000e0 6b 8e 95 bd 76 a5 85 bd 74 6d 45 bd d1 30 87 3d
       -0.07302555 -0.065257 -0.048200086 0.06601108
0000f0 a1 68 0e be 18 04 c7 3d a7 64 e9 3d 24 1e 03 3e
       -0.139071 0.09717578 0.11396151 0.12804466
000100 b7 d0 99 3c 53 9b 8c bb d4 da 94 3d 1a 93 90 bd
       0.01877628 -0.004290977 0.07268301 -0.070593074
000110 f5 b7 58 3d b8 dc c1 bd ea c4 34 3d 3c 09 2d be
       0.05290981 -0.09465927 0.044133104 -0.16898054
000120 00 e9 9d 3d 05 f9 ce 3d e8 37 4a bf 0f 1e 63 bf
       0.07710457 0.101060905 -0.78991556 -0.8871774
000130 73 6a 56 bc 6c 87 0c 3e ff 47 79 bd 0c 4d 9c bf
       -0.013086903 0.13723534 -0.060859676 -1.2211013
000140 ce 49 59 bf c1 6b 3f bf 17 bc 48 3b 23 4f 5d bd
       -0.8487824 -0.74773794 0.0030629688 -0.05403055
000150 89 c8 8f be ec 8a 82 3d 61 e4 12 3e cc 7e 77 bd
       -0.28082684 0.063741535 0.14344932 -0.060423657
000160 e8 ff fe bc 77 85 41 3d bb 2c 1f bf 9c b8 a0 3e
       -0.031127885 0.047246423 -0.6217763 0.31390846
000170 b4 40 22 3b be b6 33 bd 5e b5 f7 3b 80 97 a6 be
       0.0024757804 -0.04387545 0.0075594625 -0.3253746
000180 e4 53 a9 bd 26 ff 34 bd 3b 59 ce 3d ed 2e 90 be
       -0.08267954 -0.04418864 0.10075613 -0.28160802
000190 62 e1 81 3d ac b4 c4 be 14 3a e4 3d 72 cc 84 3d
       0.063418165 -0.38419092 0.1114389 0.06484307
0001a0 41 70 36 be 01 4f f9 bc 6b a7 58 3d 39 a9 20 bd
       -0.17816259 -0.03043318 0.052894037 -0.039223883
0001b0 dd 6b e0 bd 32 5e c7 be c0 23 10 3a 64 7b 18 3d
       -0.10958073 -0.38939053 0.0005498491 0.03722705
0001c0 ef 9c aa 3e 7c ea 91 bd 9e 8d 19 bc da a0 55 bb
       0.33322856 -0.071248025 -0.009372143 -0.0032597096
0001d0 08 73 7a 3c b7 c3 39 bf c8 4f 5c be c3 2e 92 bd
       0.015286215 -0.7256426 -0.21514809 -0.07137825
0001e0 e5 e8 8c bd 23 ea 39 be 04 36 ba 3c 41 68 d6 3d
       -0.068803586 -0.18155722 0.022730835 0.104691036
0001f0 18 a8 f7 3a 3c 76 c3 3d dc 42 d6 be d2 dd 43 bc
       0.00188947 0.09544036 -0.41847885 -0.011954742
000200 12 67 a9 3d d9 a4 5e 3e a0 98 c8 bd f1 b6 93 be
       0.08271612 0.21742572 -0.09794736 -0.2885051
000210 02 e6 65 bd b3 1c 20 3e 5e 5e 02 bf d2 2c 8f 3d
       -0.056127556 0.15635948 -0.5092524 0.06990971
000220 7f ef 79 3d a6 78 b6 3d 62 88 cb be df 56 d4 be
       0.061019417 0.089097306 -0.3975249 -0.41472527
000230 80 4f 2a be 5d 64 15 3e 04 0e df 3c fd 22 da 3d
       -0.1663189 0.14589067 0.027228363 0.10651205
000240 d8 7d 1c bf 93 55 89 bd 93 0e 91 bc c3 6f 05 3d
       -0.6112952 -0.06705775 -0.017707145 0.032577287
000250 92 a7 02 be 64 d0 34 3e ee 56 3b bf ca 54 4e bc
       -0.12759236 0.1765762 -0.7317952 -0.0125934575
000260 a0 5f 5c bf c5 ed ae 3b 0d 0f 93 bc 08 a7 c8 bc
       -0.8608341 0.005338403 -0.017951513 -0.02449371
000270 52 cf 5f bd 4f aa a8 bd d5 b1 d5 be ad b6 25 bd
       -0.054641075 -0.08235609 -0.41737238 -0.040457416
000280 7a a1 88 3d c4 6f 28 be f0 3b 41 be 2f d9 d4 bc
       0.06671424 -0.16448885 -0.1887052 -0.025982467
000290 a8 e2 ca 3d 0f 83 a3 3c 51 8d c1 3d 60 2c 13 bf
       0.099065125 0.019959955 0.09450782 -0.57489586
0002a0 df 2d ae 3c 15 c4 f0 bd 54 e6 0b 3e c0 ec 84 3d
       0.021262107 -0.1175615 0.13662082 0.06490469
0002b0 b6 15 11 3c e9 8e 24 3e c5 bb 1d bf da 19 ee be
       0.008855274 0.16070141 -0.6161464 -0.46504098
0002c0 db ba 8f bd a0 cc 8f 3d cd 3c 18 bd d1 b3 79 bf
       -0.07018062 0.07021451 -0.03716736 -0.97540003
0002d0 1b 86 eb bf 6f 14 2b bf f9 8a a2 3d 1f e6 70 3d
       -1.8400301 -0.66828054 0.07936663 0.05881321
0002e0 cb 6a 73 bf 3b cb d5 3d ec 95 16 3d 51 37 95 ba
       -0.9508483 0.10439154 0.03676407 -0.0011384283
0002f0 c1 53 97 bb 46 fb 9c bc 32 d5 9c bf 0f 46 55 3d
       -0.0046181385 -0.019162785 -1.2252562 0.052068766
000300 c7 b1 f3 3d 2d 16 ad 3d d4 d1 03 3d 24 2e a7 bf
       0.11899143 0.08451495 0.03218253 -1.3060956
000310 d8 00 c4 3c fd 9c fc 3d c2 da 1d bd e0 35 1c bf
       0.023926184 0.12334631 -0.0385387 -0.61019707
000320 99 8a 9f bd fd e6 18 be c9 b1 9d 3d 63 24 8a 3d
       -0.07790107 -0.14931865 0.076999255 0.067452215
000330 ff 9b b9 be db 8d 01 3e 8c d3 0e 3e 50 e7 27 bc
       -0.36251828 0.1265177 0.13947886 -0.01024802
000340 12 52 af bd 4b ce d2 be f8 9b bc 3d 1b 7d 85 3d
       -0.085605755 -0.41173014 0.09209436 0.065180026
000350 2c 31 8b be 43 01 29 be 56 31 cb 3d 97 6e 01 be
       -0.27185953 -0.16504388 0.099215195 -0.12639843
000360 05 de 1e 3d 23 8a 2c bf e8 fa fd be cf ab 13 be
       0.038785953 -0.6739828 -0.4960549 -0.14421009
000370 70 29 4b bc af 9c f8 3c 07 83 1c bd c0 77 41 3d
       -0.012400016 0.03034815 -0.038210895 0.047233343
000380 9d 1f b1 3c 87 66 e3 bd a2 b9 9e be f3 38 d6 3d
       0.02162152 -0.1110354 -0.31001002 0.10460081
000390 6e ff 33 bd 3c d6 8a 3d f7 a0 53 bd 90 4c 38 be
       -0.04394477 0.06779143 -0.05166718 -0.17997956
0003a0 7b c5 ca 3d 3b 9c 18 3e 0c 1e 80 bd 0b dc bd 3d
       0.09900948 0.14903347 -0.06255731 0.092704855
0003b0 a3 ce dd bc ec 84 a5 3d 4b a7 9b be 37 6d f5 be
       -0.027076071 0.080819935 -0.30401072 -0.47934887
0003c0 35 38 5e bd 10 48 16 3e 2d e0 f1 bc 83 dd 3e 3d
       -0.054252822 0.14675927 -0.02952584 0.04659797
0003d0 b5 bf 1a bf 0d 02 41 be e3 02 86 3d 1d 62 98 bc
       -0.6044877 -0.18848439 0.06543519 -0.018601472
0003e0 2e b4 15 bb 00 fb 67 3e 0f 7f 21 bf 2e 60 a1 bd
       -0.0022842991 0.22654343 -0.630845 -0.07879673
0003f0 ca 6f c4 bd 0d 13 45 3d bf 8c f6 3d 4a f3 95 3d
       -0.095916346 0.04811387 0.12038564 0.07321794

bias f4 [100]
000000 00 45 08 3f 11 1c 2e 3f 39 c9 21 3f 93 ef 42 3f
       0.53230286 0.68011576 0.63197666 0.7614681
000010 63 8f 57 bd 85 cc 06 3f 4d d8 d9 3e fa 29 cc bd
       -0.05262698 0.5265582 0.42547837 -0.09968944
000020 7f 7d a7 be 29 26 90 3e 38 9c 21 bf 49 7e 21 3f
       -0.32712933 0.28154114 -0.63128996 0.6308332
000030 f3 3e 1a 3f 90 a8 15 3f c8 b7 2a 3f 8e f6 86 be
       0.602523 0.5846033 0.6668668 -0.2635998
000040 f6 06 ee bd ba bf d9 bd 96 5e e6 3d 76 f0 23 3f
       -0.116224214 -0.10632272 0.112485096 0.6403879
000050 82 6f b5 bd a6 b8 68 bd 1e a2 96 bd 92 e2 2a bd
       -0.08859159 -0.05681672 -0.0735514 -0.04171998
000060 0a 18 fa 3e bd 36 dc bd 73 2c 27 3f a7 b1 4e be
       0.48846465 -0.10752628 0.653022 -0.20184956
000070 dd 85 02 be 1d 6d 24 3f 2b b0 33 3f 21 6e 90 3e
       -0.12746377 0.64228994 0.70190686 0.28209022
000080 6c 63 8e bd 0c 75 3a 3f be 43 0e 3f 63 73 8a bd
       -0.06952557 0.7283485 0.55572116 -0.067602895
000090 d7 46 d7 3d 6f f9 16 be 46 48 1b 3f f6 f0 89 bd
       0.105115585 -0.14743589 0.60657156 -0.06735413
0000a0 30 6b c2 bd 9d 79 4c 3e 65 8d 2e 3f f9 30 aa bd
       -0.09493101 0.19968267 0.681845 -0.08310122
0000b0 44 36 17 3f 43 ab c0 bd a2 f7 45 3e 81 2c 39 3f
       0.5906718 -0.094076656 0.19332746 0.7233353
0000c0 f4 b7 3a 3f 60 0d 1b bf 40 40 d7 bd 7b 01 a0 bd
       0.7293694 -0.60567284 -0.105103016 -0.078127824
0000d0 04 ef c5 be ff e6 d4 bc 8c 13 27 3f 9e 55 c4 be
       -0.38658917 -0.025989054 0.652642 -0.3834657
0000e0 c1 e7 db 3e b4 f2 f0 3d 5a 7a 99 be 52 e1 a2 3e
       0.42950252 0.11765042 -0.2997616 0.3181253
0000f0 c5 f8 00 be e7 2c ab bd 28 56 2b 3f 9a e5 78 be
       -0.12594898 -0.08358174 0.6692834 -0.24306336
000100 b2 c8 bb 3e 89 40 5f 3e 4f e8 20 3f 8d 82 23 3e
       0.36676556 0.21801962 0.62854475 0.1596777
000110 74 92 34 3d 23 3d 83 3e 95 9d 89 3d 46 2c e4 bd
       0.04408498 0.2563258 0.067195095 -0.11141257
000120 c5 f8 03 bd 65 7b 16 3e 25 50 d1 be d3 f7 0e be
       -0.032219667 0.14695509 -0.40881458 -0.13961725
000130 23 af 0e 3f 9d 66 74 bd 26 70 cd 3e f2 d0 30 3e
       0.5573599 -0.059668172 0.40124625 0.17267206
000140 49 6e a1 3d 50 44 4e 3e a1 bc 2f 3f 20 25 aa be
       0.07882363 0.20143247 0.686472 -0.3323145
000150 c7 26 f5 be ca f2 af be 58 bd 24 be b3 38 8c 3d
       -0.47881147 -0.3436492 -0.16087854 0.06846752
000160 03 4e 9a 3e d7 93 07 3f 82 1b 2b 3f cd f4 da be
       0.30137643 0.5295996 0.6683885 -0.42764893
000170 65 44 cc bd 8e d4 01 3f 6f c5 62 be c2 93 58 bc
       -0.09973983 0.5071496 -0.22145627 -0.013218822
000180 c4 f5 ae bd 20 45 90 3d db b0 0a 3f 9b cc 06 3f
       -0.0854297 0.070444345 0.5417611 0.52655953

weight f4 [1, 100]
000000 1a af 55 3e 76 8f b0 3e 57 c3 96 3e b2 4b c9 3e
       0.20867577 0.34484452 0.29445907 0.39315563
000010 08 02 96 bf 29 cd a9 3e ef 65 3e 3f b1 b0 ba bb
       -1.171937 0.33164337 0.7437429 -0.005697333
000020 27 43 c3 be 07 41 10 c0 72 aa 06 bf de d4 a8 3e
       -0.3813717 -2.253969 -0.5260383 0.32974905
000030 e4 6f b0 3e 88 28 97 3e b1 9b c7 3e 58 88 16 bf
       0.34460366 0.2952311 0.3898597 -0.58801794
000040 06 08 b4 ba 06 80 16 be 48 80 ca bf f7 70 b6 3e
       -0.0013735301 -0.14697275 -1.5820398 0.3563306
000050 1b 50 4f 3c 7e 09 91 be 47 05 9b bf c9 c8 89 bc
       0.012653376 -0.28327554 -1.2110986 -0.016819375
000060 32 08 32 3e 75 55 f6 3c 9c c5 a6 3e d1 f6 93 3c
       0.17385939 0.030070046 0.3257264 0.018062027
000070 d8 75 e8 3c c1 80 98 3e 47 87 bf 3e 68 c9 1e c0
       0.028376505 0.2978573 0.37407896 -2.4810429
000080 e8 04 72 3f c1 77 00 3f f4 e5 70 3e 4b a6 04 bf
       0.94538736 0.5018273 0.2352522 -0.5181624
000090 0d 12 9b be 14 cb 87 be 84 d1 8e 3e e3 06 d1 bf
       -0.3028721 -0.26522124 0.27894223 -1.6330227
0000a0 9f 12 74 3f 0a 91 01 c0 92 64 cf 3e 6f 69 3d 3d
       0.95340914 -2.0244775 0.40506417 0.046243127
0000b0 d7 ae 1a 3e 07 0a 3a 3d c1 40 94 bf 3a 7e e4 3e
       0.15105759 0.04541972 -1.1582261 0.44627553
0000c0 d6 03 ca 3e ae cf 9f be 67 2d 17 3e 41 86 a5 bf
       0.39456052 -0.31213135 0.14763413 -1.2931596
0000d0 36 ae 30 bf 21 2a 85 3b db bc 96 3e d0 80 7d be
       -0.69015825 0.00406386 0.2944096 -0.2475617
0000e0 46 1d ee 3e 8a a9 1c bf 4c f0 8f be da b7 f5 3e
       0.4650671 -0.61196196 -0.2811302 0.4799183
0000f0 fd b5 7f b8 1b f6 62 bd 0f 2e da 3e 44 14 d1 be
       -6.0966227e-05 -0.055410486 0.42613265 -0.40835774
000100 38 40 d3 3e 7e 5e 3b 3f 35 61 6c 3e 8e 5e d0 be
       0.41259933 0.7319106 0.23083957 -0.4069714
000110 23 9b 64 bf 86 b5 7a bf 74 8e 35 be 8a df 5d 3d
       -0.8929922 -0.9793323 -0.17730123 0.05416826
000120 af 24 1b bc 79 59 02 bf d4 51 b0 be 83 74 92 bb
       -0.009469195 -0.50917774 -0.3443743 -0.0044694557
000130 bc 79 34 3f 9e 24 70 bd e2 8f ca 3e b9 be 85 bf
       0.7049825 -0.05862867 0.395629 -1.0448829
000140 df 41 22 bf be 6d 4f bf 65 cb 9e 3e 25 6a 94 be
       -0.6338176 -0.8102683 0.31014553 -0.28987232
000150 6c b2 09 bf a1 3c cc be bc a7 7c bd e4 11 fc 3e
       -0.53787875 -0.39890006 -0.0616834 0.492324
000160 cb d1 1d 3f c0 06 17 3f f7 49 8f 3e a5 3f bb be
       0.61648244 0.58994675 0.27986118 -0.36571994
000170 15 cf ed 3c 35 ba 44 3e d8 2a 99 be c2 f7 87 bf
       0.029029408 0.19211657 -0.299155 -1.0622485
000180 e8 b6 1d bf c6 9c 32 be b2 4c 66 3e 15 de 3f 3e
       -0.6160722 -0.17442617 0.22490194 0.18737061
