reinforcement_learning/results/EndToEnd_actor_optimal.pt (torch, 61774 bytes, 6 tensors)

weight f4 [100, 41]
00000000: 9eef 0e3e dc48 45be 4e6a 23bd 46c5 be3e
00000010: 6766 2a3c f544 4fbe d62c 843e 9491 06bf
00000020: 937f 873e 15d0 3dbe 1a40 a6bd 7872 623e
00000030: 764f 433f b7ba 0fbd a987 11bf 16bb b3bf
00000040: a27f 88bd 8cf6 283c 906d af3e 1320 f83d
00000050: 1f31 cb3d 869a fbbe 9e58 c1be c030 d33e
00000060: ef2d 803d b212 46be b3e0 88be b29a 2bbe
00000070: 0b90 383c ddef 0d3e 96b8 0dbf 07a3 173e
00000080: 2699 8e3e 8471 44be 1742 8dbe 983a 833d
00000090: 2fb8 413d bcbb 5c3c 4c00 8fbe f0d9 c63d
000000a0: 04a7 393e 7873 133e 77e2 d9bd 527c e53d
000000b0: 5825 b53e b82c 57be 04d5 c03c 0d72 98be
000000c0: e398 893e f855 c43d f77b 01be 661b b13e
000000d0: 4175 05bc a987 43bf 9d1a 59bd 78cf 3ebd
000000e0: 1332 bf3d 7d90 9c3e 807c e9bb 1775 263f
000000f0: 3984 023f 42e6 1e3e 3a3a 603e bdb8 393e
00000100: 8156 8dbd f9c7 0abf 7eb2 85be d47e 613e
00000110: f0c2 923d f7b2 1abe 65b9 32bf dcb8 00bf
00000120: 3ab4 bebd db7a 50bf 6685 19bf c9a7 103e
00000130: d231 12be 3b18 dc3e 170b 3bbe ae41 453f
00000140: 0325 af3e fb20 013d 89f6 753d 86cc 47be
00000150: 7599 0dbe 4e97 8f3d c587 35bd 5970 223f
00000160: 8fa1 7f3e b479 163e 9a26 f9bd 6d90 713e
00000170: cb6b 38be b28d f5be a5b4 f23e 3c73 273e
00000180: 087c a8be bd58 c0bd 6504 43bf 6e17 453e
00000190: d167 18bf 61b8 763e df42 6d3e bba5 2fbf
000001a0: aa6e 38bd 30c2 af3d eabc 8f3e e4c9 a63e
000001b0: 4650 033e 3e67 7ebe 6b8f b03e 274d e5bc
000001c0: 7b2d f9bd 2ae1 efbe 4ea3 e83e ef10 44bc
000001d0: 68d0 16bf 8fd0 b73e 1daa 7fbe ec32 233f
000001e0: e598 87be 8871 26be 3899 d13e 209f 3b3e
000001f0: cf22 6a3e 57fd 39bf 195f 18bf 4378 173f
00000200: 2fcf f53d 1125 c23c 1ec1 99bc b1ba 313f
00000210: 52b6 cdbc dd22 2d3e 9d66 87be 87d4 75be
00000220: 18c0 f9be 4e6a 0c3e 34e5 253d abf2 9e3e
00000230: ac2c 34bd 0d3d 22be 8dc8 763f 2aee d73e
00000240: 9c6f d03e 197d 8b3d 8119 5cba 0d01 22be
00000250: 1f31 45be 7e48 05bf 6112 9ebe e4b8 cf3e
00000260: de65 84be 4543 2ebe 6af0 1abc 70a9 f2bd
00000270: e579 afbe c774 993b 43e9 b0bc 1cf7 d83d
00000280: 2551 f53d f90d febd 5a2b 0a3f 3c7a 2fbe
00000290: 401a 2cbf 7a99 7bbe 1e50 d3bd bc6d 1c3e
000002a0: 7bfd 2fbd 94d8 bf3c 3d4d 023f 109a 1b3f
000002b0: 30e5 aa3e 8858 f5bd 7145 f63e c61f 51bf
000002c0: b4b4 913e 35e0 c4bc cad8 1b3f a57d 2cbe
000002d0: e5fb 5fbd 555c 78bc dff6 b13e 18cf ca3e
000002e0: eefc f6be ec86 f53d dc88 7c3d 8c05 9b3e
000002f0: 5eb9 ca3d 5d9b b5bc 0dcf be3e 8866 753e
00000300: 5896 493b 3fe5 62be f9ae 133f 8951 aebe
00000310: 2767 d5be 0e5f 11be b744 073e e08d 783e
00000320: 1f43 f8be 31be 3ebd 8c4f 9ebc 0bbb e13d
00000330: 3be5 3fbd dfad 15be 4f38 76be 65c8 823e
00000340: a56b 3abd 7039 a3be effd 663d a5cb 36bd
00000350: 9ab7 ce3e d2f3 423f d92b 19bf 2946 e7be
00000360: b5df d7be 3626 2d3f 7cc7 903d 2f81 79bd
00000370: 0d74 153e 307c 993d 2bc6 70bf e218 d0be
00000380: 3bd9 093c 6750 9abe 1c2e 54bf 3b55 93be
00000390: f5a9 a03e eb4d b63e c78d 733e 60be b3be
000003a0: fd2e 1138 b089 343f e646 adbe 39bc e2be
000003b0: 14f4 80be e6bf 8b3e e081 303e 56ed 993d
000003c0: 22de 8dbc 550f 98be 5443 b4be 424e 023d
000003d0: 2268 6bbd 27ad d93d 610a 113d 0767 b6be
000003e0: 2ca8 1cbf fef3 8dbe 826a a23e f64c c43e
000003f0: 307b a93e 67c3 eb3d a4bd 103f d515 abbd
0.13958594 -0.19266075 -0.039896302 0.37259883 0.010400391 -0.20241149 0.25815457 -0.52565885
0.2646452 -0.18536408 -0.08117695 0.22113979 0.7629312 -0.035090175 -0.56847626 -1.4041469
-0.06664969 0.010312688 0.34263277 0.12115493 0.099214785 -0.4914133 -0.37762922 0.4124813
0.06258761 -0.19343069 -0.26733932 -0.1675823 0.011264811 0.13861032 -0.5535978 0.14808284
0.27851218 -0.19183928 -0.27589485 0.0640766 0.04729479 0.013472494 -0.27929914 0.09709537
0.18130118 0.14399517 -0.10638898 0.11205353 0.35380054 -0.21013153 0.023539074 -0.29774514
0.26874456 0.0958671 -0.12644945 0.34591216 -0.008145631 -0.76378876 -0.053003896 -0.046584576
0.09335723 0.30578986 -0.0071254373 0.65022415 0.50983006 0.15517524 0.21897212 0.18136878
-0.06901265 -0.54211384 -0.2611274 0.22021037 0.071660876 -0.15107332 -0.6981414 -0.50282073
-0.09311719 -0.8143746 -0.59969175 0.14126505 -0.14276817 0.42987236 -0.18265949 0.77053344
0.34207925 0.031525593 0.060049567 -0.19511613 -0.1382807 0.07011281 -0.044318933 0.6345268
0.24963973 0.14694864 -0.12165566 0.2359025 -0.1800987 -0.47959667 0.47403446 0.16352552
-0.32907128 -0.093919255 -0.7617858 0.19247219 -0.5953341 0.24093772 0.2317004 -0.6861226
-0.045027412 0.0858196 0.28073817 0.32575905 0.1282359 -0.24844071 0.3448442 -0.02799089
-0.12166878 -0.46851474 0.45437092 -0.011966928 -0.5891175 0.35901305 -0.24967237 0.63749576
-0.26483837 -0.16254246 0.4093721 0.1832242 0.22864841 -0.7265219 -0.5952011 0.5916788
0.12002408 0.023699315 -0.018768843 0.69425493 -0.025111351 0.1690783 -0.26445475 -0.24006854
-0.48779368 0.13712427 0.04050179 0.31044516 -0.043987915 -0.15843602 0.96399766 0.42173892
0.4071015 0.0681097 -0.00083961344 -0.15820713 -0.1925702 -0.5206374 -0.30873397 0.40570748
-0.25858968 -0.17017849 -0.009456733 -0.11848724 -0.34272686 0.0046831104 -0.021595603 0.105940074
0.11978368 -0.12405009 0.539724 -0.17136472 -0.67227554 -0.24570265 -0.103180155 0.15276235
-0.042966347 0.023418702 0.50899106 0.60781956 0.3337798 -0.119797766 0.48099855 -0.8168911
0.28458178 -0.024032691 0.6087767 -0.16844805 -0.054683585 -0.015158732 0.3475866 0.39611125
-0.48239845 0.11988625 0.061653957 0.3027767 0.09898637 -0.02216881 0.37267342 0.23964894
0.0030759778 -0.22157763 0.5768886 -0.3404658 -0.41680261 -0.14196417 0.13209806 0.24272871
-0.4848871 -0.0465681 -0.01932504 0.11022004 -0.04684947 -0.14617108 -0.24044918 0.25543514
-0.045512814 -0.3187976 0.056394514 -0.044627804 0.40374452 0.7615329 -0.5983253 -0.45170715
-0.42162862 0.6763643 0.070692986 -0.060914215 0.14595051 0.0749439 -0.9405238 -0.40643984
0.008413608 -0.30139467 -0.8288286 -0.28775963 0.31379667 0.35606322 0.23784553 -0.35106182
3.4614455e-05 0.70522594 -0.33843154 -0.44284227 -0.25186217 0.27294844 0.17237043 0.07515971
-0.017317835 -0.29699197 -0.35207617 0.031812914 -0.057472356 0.10628729 0.03541029 -0.3562548
-0.6119411 -0.27725214 0.31721884 0.38339967 0.33101797 0.115118794 0.5653937 -0.083537735

bias f4 [100]
00000000: f779 d33e 371e f13d 5127 a93d d623 1fbd
00000010: 0f24 02bf c3c5 bf3e d24c c3bc 9e65 0fbe
00000020: 9c3b b8bd f5c2 50be 0188 233e 4d11 0ebe
00000030: 9ced 933e a161 f9bd eace 163f f7d9 8c3d
00000040: c983 d83e 9813 b73e a299 e8be 7b82 b4be
00000050: 6d86 94bd 8556 a8be 6cc3 f4be d795 15bf
00000060: f5eb 6fbe dc7f 643d 10da 53bf f7d9 e5bc
00000070: 4778 6cbe cdeb fabc d7cb 343e 6745 82bf
00000080: 414b adbe 4a77 13bf bac1 38be 5cd3 ec3e
00000090: 2d0e 363e 3c75 cc3d dfaa 963e f6da 4bbe
000000a0: a0f7 2fbe f52d 053f d518 98be 76dd b8be
000000b0: 6773 f63e 2a7b 8cbd 1a97 013f b723 c9bd
000000c0: fb73 953e e4dd 44be 310c 8bbe 6481 143f
000000d0: 2ebf 74bd 426b 10bf 1812 433e 1ddb 133e
000000e0: 8774 16be 01af 71bc 48eb 74be 195f 673e
000000f0: 4932 303e eee4 8e3e 531a 533e 7798 c73d
00000100: 8c32 11bf 4ff5 77be 19a9 6bbe be1a 2cbe
00000110: 3b30 663e b92b 773e b378 fc3e 96d6 223f
00000120: bf04 0cbe e713 9d3e e713 31be a1fb 753d
00000130: 521d 4d3e 2551 c7bd c002 efbd d127 0dbe
00000140: 7544 1a3f e530 9fbd d3b1 b03d 1cec c03d
00000150: 44fc 6b3d 39e3 983d 8ad6 903e f233 83be
00000160: dc96 26bf a432 56bf dca4 55be 2f92 0fbe
00000170: bc64 39bf bdba 803e e7c6 89be 5c8c 93bc
00000180: 0c7a b03e a67b 5c3e 81d4 b5be c90c c2be
0.4130399 0.11773341 0.08259452 -0.038852535 -0.5083627 0.37455568 -0.023840342 -0.14003608
-0.089957446 -0.2038687 0.1596985 -0.13873787 0.2889222 -0.12176824 0.58909476 0.06877511
0.42288044 0.35757136 -0.45429713 -0.352558 -0.07252202 -0.3287851 -0.47805345 -0.5843176
-0.23429854 0.055786 -0.8275461 -0.028058035 -0.23092757 -0.030630017 0.17655884 -1.017743
-0.33846477 -0.57603896 -0.18042651 0.46255004 0.17778845 0.09983298 0.2942724 -0.19907746
-0.17184305 0.5202325 -0.29706445 -0.3610646 0.4813492 -0.06859429 0.5062119 -0.09821265
0.2919005 -0.1922527 -0.2715774 0.58009934 -0.059752636 -0.5641366 0.19049871 0.14439054
-0.14692889 -0.014751197 -0.23917878 0.2259487 0.17206682 0.27909034 0.2061551 0.09745877
-0.56717753 -0.24214672 -0.23013724 -0.16807076 0.22479336 0.24137773 0.49310836 0.6360868
-0.13673685 0.30679247 -0.17292748 0.060054425 0.20030716 -0.09732274 -0.116704464 -0.1378472
0.6026071 -0.07772998 0.08627667 0.09420034 0.057613626 0.07465214 0.2828868 -0.2562557
-0.65073943 -0.8367102 -0.2086367 -0.14020608 -0.72419333 0.2514247 -0.26909563 -0.018011265
0.34468114 0.21531543 -0.3551369 -0.3790038

weight f4 [100, 100]
00000000: 1550 27bf ec1a 223f d872 3b3e 8620 b03e
00000010: ed6e 303e 7a47 c7bc 7453 6d3d 5abe 14bd
00000020: edfa 67bd 61ea 57bd 552b 44bf eba4 773e
00000030: 0ec0 c4bf d922 debe d7a3 18be ede7 d0be
00000040: bd1f 533e 4426 863e fb53 8c3d b7dc d7be
00000050: 1c9c 853f 1e74 823e ca34 44be 1937 0dbf
00000060: c93f eb3e 8ea8 0dbe a778 ce3e 5041 533e
00000070: d22c a43d ac1a 9fbc bc29 003d 635d 083f
00000080: a81f 2d3e 48fd 65be 7e06 8a3d 7e8a e2bd
00000090: ad75 383f 390a bdbe 62f6 e2bf 5545 e93e
000000a0: ce62 72be 9fa6 6fbe 7a6a 613e b4e4 ccbe
000000b0: b9cc 36bf 2ef2 f3bd 17fa babe ad03 ef3e
000000c0: 44b4 19bb dee6 debe 9687 113f 54fe 73be
000000d0: 97e1 81be e23b 0dbf 8580 43be ab1b 97be
000000e0: a200 9fbe 94d6 133d ff40 a4be 61ce 59be
000000f0: 3776 8f3e 56b7 79be cb53 903e d82c 493f
00000100: afd2 99be 9b4d 583e a99b 963e e8b6 aabd
00000110: c953 9d3e 12fd dd3d d34c c6be 626d fcbd
00000120: cbab a3bd 453e b03d f639 6b3c 92e6 05bd
00000130: f659 9c3e bb69 983d 3c9c f83c 6dd3 36bc
00000140: a563 adbe 0933 02bd 7d29 66be fd2c 2f3f
00000150: ae4f d23e 7243 073e 56ea e03d 51b7 ef3e
00000160: 685e 9a3e 5e83 8ebd 5aad 533c 7a51 c63d
00000170: 9700 1a3d 4f46 4c3e 6b30 2cbd ddf6 223f
00000180: eb66 3b3f 2d77 383d 485d d73d 5246 4d3e
00000190: 7440 25bf 004a 1abf ddf7 4fbe 5e19 fcbe
000001a0: ed44 603e 3480 a6bf d3b8 f0be 0b1a 79bc
000001b0: 4e27 cfbc 6390 bd3d 2577 13bf 4523 f2be
000001c0: c2ff bdbd 8360 183f ea2a 11bf 54b2 093e
000001d0: 2bcb 3ebe 9b12 34bf 5cdb c53d fd13 bf3d
000001e0: f4a0 6fbf 0cdf 0dbe 7c67 70be 245d 5a3e
000001f0: 404a 9ebe 35c7 c33e cf08 103f 6a01 89be
00000200: 63f5 c0be 95cb 90bf 7b3a b2be 4c40 273f
00000210: 63da b93b 1cff b63e 44ad 3cbf 9d07 c13e
00000220: d97a 83be 38a8 5dbd f583 59bf 5ff2 05bf
00000230: bde7 68bf 8bb6 973d 1aec 013f 0fa5 313e
00000240: eb2f 1dbf ee06 b4bd 0b20 5cbf d612 43bf
00000250: 5c8e 61bc 5c9e ebbd 4312 a93d e0bb 18be
00000260: 5f2c 73be 5771 fe3d d6ba 55bf 7e9c 7ebf
00000270: 43ee 333d 83dc 513d f601 e33e 0af5 edbe
00000280: d4d3 53be 8d9c bcbe 00ac 39bf 9321 62bd
00000290: ab77 923e 6098 493e beec 043f 84f4 c73e
000002a0: 5c32 88be a698 04be 82ae d5be 2d8f debb
000002b0: aa6f 813d ddbc 843d 21fa 2f3e 6431 3abe
000002c0: 2a55 26bd 3353 febd 96c3 783c 3562 80bd
000002d0: 38bc a8bf b048 ce3c a1c7 32bf 9a57 a03e
000002e0: 50a3 71bf 3052 3a3f 2246 7ebf ebb4 843c
000002f0: 05a0 263e 3673 193e feb4 ffbe b020 6fbd
00000300: 9243 b0bd c22f ec3e 5acf a33b 300e d23e
00000310: 76c9 dabf 79fd 1bbe beac 9f3d b201 f13d
00000320: 7ad0 20c0 41a3 08be 989c 8e3e e3ff 9bbe
00000330: 6d9a 9cbf 0b6b 97be 96cb 1ebf e077 acbd
00000340: 3e35 993d 0f7d 94bb 1c68 babf 5c6f f53e
00000350: c128 61bf 397c 373f ddba 3cbf 114e d7bc
00000360: 6e3e 733e f158 5ebf b6a4 4e3e eb99 cd3e
00000370: af43 273f e904 09bd f3e5 6e3d 61cd c6bf
00000380: aa04 033f 0518 163f 2c69 d43d 9ea3 cc3d
00000390: 5437 65bd 2467 d33c d869 c93d 9033 e3be
000003a0: 46b0 b53e b659 c73d a633 acbe 9d4f 093e
000003b0: 1c31 05c0 0c61 0f3f 63f5 9c3e 8b45 363c
000003c0: 8143 e93e c21d 9ebf 1fe6 f13e 6512 043e
000003d0: d544 ef3c 149e 273e 2b55 91bf fbbf 76be
000003e0: 4810 dabe a23c aebe 47cd cebe 3807 ebbd
000003f0: 7753 9d3e b271 9cbe 1b68 e43e 2233 2ebf
-0.6535657 0.6332233 0.18305528 0.34399813 0.17229815 -0.024326075 0.057940915 -0.036314346
-0.056635786 -0.052713756 -0.7662862 0.24184005 -1.537111 -0.43385962 -0.1490625 -0.40801945
0.20617576 0.2620107 0.068519555 -0.4216058 1.0438266 0.25479215 -0.19160762 -0.551622
0.45947102 -0.1383383 0.40326425 0.20630383 0.08016361 -0.019421898 0.0312898 0.53267497
0.16906607 -0.224599 0.067395195 -0.110615715 0.7205456 -0.36921862 -1.773144 0.4556071
-0.23670503 -0.23403405 0.22013274 -0.40018237 -0.7140613 -0.119114265 -0.36518928 0.46682492
-0.0023453394 -0.43535513 0.5684751 -0.23827487 -0.25367424 -0.551695 -0.19091995 -0.29513296
-0.3105517 0.03609331 -0.32080838 -0.21270134 0.28019878 -0.24386343 0.2818893 0.7858405
-0.3004355 0.21123354 0.29415634 -0.08335668 0.30727986 0.10839285 -0.38730487 -0.123255506
-0.07991751 0.08605627 0.014357081 -0.032690592 0.30537385 0.074420415 0.030347936 -0.011158806
-0.33865085 -0.031786952 -0.22476764 0.6842802 0.41076416 0.13209322 0.10982196 0.46819547
0.3015015 -0.0695865 0.012919748 0.09683509 0.03759822 0.19948696 -0.042038362 0.63657933
0.73203915 0.04503553 0.10515839 0.20046356 -0.6455147 -0.60269165 -0.20309396 -0.49238104
0.21901293 -1.3007874 -0.4701601 -0.015203963 -0.025287297 0.09256055 -0.57603675 -0.47292534
-0.092772976 0.59522265 -0.56706107 0.13446933 -0.1863219 -0.7034089 0.0966098 0.09329984
-0.9360497 -0.13854617 -0.23476976 0.21324593 -0.30916023 0.3823792 0.5626344 -0.2675889
-0.37687215 -1.1312128 -0.34810242 0.65332484 0.0056717857 0.35741508 -0.7370188 0.3770112
-0.25679663 -0.054115504 -0.84966975 -0.52322954 -0.90978605 0.07407864 0.5075089 0.17348121
-0.6140124 -0.08790384 -0.85986394 -0.76200616 -0.013766851 -0.11504814 0.08255436 -0.14915419
-0.23747395 0.124239616 -0.83488214 -0.9945754 0.043928396 0.051235687 0.44337434 -0.46476012
-0.20686275 -0.3683819 -0.72528076 -0.0552078 0.28606924 0.19687033 0.5192374 0.39053738
-0.2660092 -0.12948856 -0.417347 -0.00679197 0.06320126 0.06481335 0.1718526 -0.18182904
-0.040608563 -0.12418213 0.01518335 -0.062687315 -1.318244 0.025181144 -0.6983586 0.31316835
-0.9438982 0.7278166 -0.99325764 0.01619955 0.1627198 0.14985356 -0.49942774 -0.058380783
-0.08606638 0.46130186 0.0049990835 0.4102645 -1.7092731 -0.15233411 0.0779662 0.117679015
-2.5127244 -0.13343526 0.27853847 -0.30468664 -1.2234627 -0.29573855 -0.620294 -0.08421302
0.07480858 -0.0045315097 -1.4563022 0.47936523 -0.8795281 0.71673924 -0.7372263 -0.026282342
0.23754284 -0.86854464 0.2018002 0.40156493 0.6533765 -0.03345195 0.058324765 -1.5531427
0.5117899 0.586304 0.103716224 0.09992145 -0.055960968 0.025806017 0.09834641 -0.44375277
0.35486048 0.09733908 -0.33633155 0.13409276 -2.0811224 0.56007457 0.30655965 0.011124979
0.45559314 -1.2352831 0.4724588 0.12897642 0.029207626 0.16368896 -1.1354116 -0.24096672
-0.42590547 -0.34030634 -0.4039099 -0.11475986 0.3072774 -0.30555493 0.44610676 -0.6804677

bias f4 [100]
00000000: 6438 6dbe 1069 01bf a824 e5be 4d77 c1be
00000010: e64d f0bd 58e9 b7be 1350 313e 8b37 b8be
00000020: 0693 c4bd f5d1 44be f4bf f23d 639d 9bbe
00000030: ae2c c1be 4a95 933d ef5d 1ebe 9d47 a93e
00000040: 4960 fbbd 2011 d23e 62c0 673e f8ad d2bd
00000050: 110b fdbd 141b 30bf 2859 c5be 30d4 62bd
00000060: fc7a b9be 2899 f03d 3b69 22be 111e 91bd
00000070: e808 65bd 2a12 58be c30d 3dbd 55b4 f93e
00000080: 9928 203e f6e5 823e 53a3 10be 3a0b afbe
00000090: 4645 f1bd 7244 a3be f5bf ffbd 11ea 0dbe
000000a0: 1eed 9bbe c700 65bf 939b febd 9ecd 8a3e
000000b0: 2f82 dbbe e179 07be c6b6 1cbe 8b11 063e
000000c0: 1cc9 da3e c734 a0bc 5723 5bbd 96df cc3c
000000d0: 10c0 2fbe 830e 573d f57f 03be 8fe4 f23d
000000e0: cadc a5be e792 a7bd b4a3 babe f270 d1be
000000f0: 043f 53bd 9a66 c13d 65af 03bf d8f2 43bf
00000100: eadf ee3d a4ca 50bd e8f7 48be 38d6 813d
00000110: 9a75 e3be dc1f 753e 259e 803c fb51 dabd
00000120: 9b01 7dbd 3125 9abe 97d0 98bd fd59 25be
00000130: da11 63be f550 8cbe 02e8 8cbd 01fd 6ebd
00000140: 04fa 09be 2cca d1bc dbc0 493e 71a5 aebe
00000150: 30d4 06be 2cb4 eebe 98f8 aabe 7a47 883b
00000160: d1cf 92be 078a b4be 490a b7be daa3 10be
00000170: 6952 9dbe 4baa 8fbe 440a 953c 2e2a 813e
00000180: 7009 91be 9b25 2f3f 50ef 25bc a639 d2bc
-0.23166043 -0.5055094 -0.4475453 -0.37786332 -0.11733608 -0.35920215 0.17315702 -0.35979876
-0.09598355 -0.19220717 0.118530184 -0.30393514 -0.377294 0.07206209 -0.1546552 0.3306245
-0.12274224 0.4102869 0.22631982 -0.10287088 -0.123556264 -0.6879132 -0.38544583 -0.05537814
-0.36226642 0.11747962 -0.15860455 -0.07085813 -0.055916697 -0.21100679 -0.046155702 0.48770395
0.15640487 0.2556607 -0.14124803 -0.34188253 -0.11780791 -0.31888157 -0.12487785 -0.1385882
-0.30454344 -0.8945431 -0.12432017 0.27109998 -0.4287276 -0.13230087 -0.15304098 0.1309263
0.4273156 -0.019556416 -0.0535005 0.025008958 -0.1716311 0.052504074 -0.1284178 0.1186
-0.3239501 -0.08182316 -0.3645302 -0.40906483 -0.05157377 0.09443398 -0.51439506 -0.76542425
0.11663802 -0.050974503 -0.19625819 0.06339687 -0.4442566 0.23937935 0.01570041 -0.10660168
-0.06176911 -0.301065 -0.0746166 -0.16147609 -0.22174779 -0.27405515 -0.068801895 -0.058346752
-0.1347428 -0.025609098 0.19702475 -0.34110597 -0.1316688 -0.46621835 -0.33392787 0.0041589113
-0.28674176 -0.35261557 -0.35750034 -0.14125004 -0.30726936 -0.2805961 0.018193372 0.25227493
-0.28327513 0.68416756 -0.010127857 -0.025662255

weight f4 [2, 100]
00000000: fe25 e0be f66a d53f eb76 d1bf 939c a43f
00000010: b68a d2be 538f fe3d cbce 63bf 4d29 d03f
00000020: eae1 3e3f 5f5a c7bc 07d2 81bf 6e05 183a
00000030: 4e71 9d3f 217f e6be 13ef 77bd a042 6f3c
00000040: 6869 c2be 046a bb3e 98b8 1e3f fb5a 883d
00000050: 79c3 873e 07c9 883f 0f57 8bbb 8152 ba3e
00000060: 9fbe 3fbf 2d06 b93f fee2 353f 5129 ad3e
00000070: c93e 1040 6cc3 99be b6e8 34bd 989e 04be
00000080: 5b63 9e3e 404a abbe 8996 6a3f a43c a6bf
00000090: 5762 223d 2185 c0be 845b a63f d976 333e
000000a0: 465e 52bd b604 0d40 de2d bb3d 2d78 553e
000000b0: e570 393f ddd8 c63f 5502 343f d6b4 61bd
000000c0: 20b7 3bbf ad5b ae3c 6107 6abe adc8 0abf
000000d0: 0ae1 30bb de4e 303e 4e4f 1e3f 8ce6 08bd
000000e0: 508a c33e 9f35 073f 33db 0340 c9a5 3f3f
000000f0: 4c23 1fbf 26ec 69bf ef32 1f40 7658 7c3f
00000100: 9863 c13d 79b3 2a3d 203f a0be bf1b cf3d
00000110: 5bdc 35bf 959a 543f 1639 a03e 3825 f63f
00000120: 64e4 8f3e 423b 7a3e 0667 5abe fe22 9fbf
00000130: 54a0 a33e 2e0d 22be 4392 62bf 9111 66bf
00000140: 1984 193c 8a37 133d 7174 be3e 161e 8a3e
00000150: 2c94 bebd dd84 1ebf 39ae e7bf 4873 ab3e
00000160: f847 8bbe 02f8 bbbf c5c3 1ac0 55ec f2be
00000170: b2c9 713e 4ffe 213f 2836 063e 696e 99bf
00000180: 05c1 f03e 5009 123f 42a6 593e 348b c33e
00000190: fee0 7cbd f5ca 583e 644b f1c0 c436 eabe
000001a0: 08c3 943e 1e0f 4dbf 2f71 b1be d4c2 1cbe
000001b0: e5c1 ae3c aa1d 3dbc 0bd1 adbe 5f52 cabe
000001c0: d25d 4ebf fea6 9a3e 3803 613c a11e ea3e
000001d0: e757 6c3f d365 45be cbc7 813e 901b 8bbf
000001e0: 1677 b6be fa34 903e e965 05bf 8715 ae3d
000001f0: c1f9 793f 50bd 603e 8b0c de3d ef42 85be
00000200: 1ea8 8ebd 97a1 f7bf 7aed 3e3c 4028 78be
00000210: 23a8 723d ee10 4abf 0df9 303f 39d5 bd3e
00000220: bbe0 963d bc0b 293f cf6c bebe e30e fe3e
00000230: 18c4 ddbf 0d3a 80be 785d 843d 6d72 cfbe
00000240: 898c 213d 4d8a 5a3f 0170 c03e fd4a b53e
00000250: 620d bcbd 811e 253d 308b 8abe 2a3b c5bc
00000260: 1655 d7b9 9038 e63e 1036 963c 87d7 06bf
00000270: e9f3 fbbe 24ab 923e b053 30bd eb7e 173f
00000280: c72d 82be 4584 5e3e 43a6 72bb a465 aabe
00000290: 5c31 d63e 4e08 af3b 84e4 39bf d13f 15bf
000002a0: 6ff8 283e 0bb3 a83e fee4 f6bf d768 803e
000002b0: 5934 f9be c37c b5be 0c7a 1c3f a6c6 863f
000002c0: 3d88 ccbe b99c e03e ba60 9bbe 5fb8 303e
000002d0: 00a8 503d 2f0a e53e 4b20 aabe e11f 2e3f
000002e0: 3b66 c6be 33d6 64bd d2e8 97bd 6aa4 c5bd
000002f0: 0ebf d4be 6870 773e cc9b db3e 378b ccbe
00000300: dd92 93bf df0b 34bf a9f6 bc3e b557 9cbf
00000310: ed71 673e 8552 733e 5a36 2f3f e654 8b3e
-0.43778986 1.6673267 -1.6364416 1.2860283 -0.41121453 0.12429681 -0.88987416 1.6262604
0.7456347 -0.024335084 -1.014222 0.0005799149 1.2300203 -0.45018867 -0.060530733 0.014603287
-0.37971044 0.3660432 0.6200042 0.06657978 0.2651632 1.0686349 -0.0042523216 0.3639107
-0.7490024 1.445501 0.7104949 0.33820584 2.253832 -0.30031908 -0.044167243 -0.12951124
0.30935177 -0.33455086 0.9163595 -1.2987256 0.039644565 -0.3760157 1.2996678 0.17525806
-0.051359437 2.2034125 0.09139608 0.20846625 0.7243789 1.5534931 0.7031606 -0.0551041
-0.733263 0.021283949 -0.22854377 -0.54212457 -0.0026989602 0.17217585 0.6183976 -0.03342299
0.38191462 0.52816194 2.0602539 0.74862343 -0.62163234 -0.9137596 2.4874837 0.9857248
0.09442824 0.041675065 -0.3129816 0.10112714 -0.7103936 0.83048373 0.31293553 1.9230108
0.28103936 0.24436668 -0.21328363 -1.2432554 0.31958258 -0.1582534 -0.8850443 -0.89870554
0.009369873 0.035941638 0.37198213 0.2697608 -0.09305605 -0.61921483 -1.8100044 0.3348639
-0.27203345 -1.4685061 -2.4181988 -0.47445932 0.23612097 0.6327867 0.13106596 -1.198682
0.47022262 0.5704546 0.21254829 0.3819214 -0.061738007 0.21171172 -7.540453 -0.45744908
0.29055047 -0.8010119 -0.34656665 -0.15308696 0.02133269 -0.011542717 -0.3394855 -0.3951597
-0.8061191 0.3020553 0.013733678 0.45726493 0.9232163 -0.19277124 0.25347742 -1.0867786
-0.3563773 0.28165418 -0.5210863 0.085002 0.9764672 0.21947217 0.10842236 -0.2602763
-0.069656596 -1.9346188 0.0116532985 -0.24234104 0.05924238 -0.7893208 0.6913002 0.37076738
0.07367083 0.6603353 -0.3719239 0.49620733 -1.7325468 -0.2504429 0.0646314 -0.40516987
0.039440665 0.8536728 0.37585452 0.35408774 -0.0918224 0.040312294 -0.27059317 -0.024076063
-0.0004107139 0.4496503 0.018336326 -0.5267262 -0.49209526 0.28646195 -0.04304856 0.59178036
-0.2542555 0.21730144 -0.003702537 -0.3328067 0.41834533 0.005341566 -0.7261431 -0.583005
0.1650102 0.329491 -1.9288633 0.25079986 -0.4867275 -0.35446748 0.6112373 1.0529373
-0.39947692 0.4386957 -0.30347234 0.17257832 0.050941467 0.44734332 -0.33227763 0.68017393
-0.3874987 -0.05586834 -0.07417454 -0.096505 -0.41552013 0.24163973 0.428923 -0.39949962
-1.1529194 -0.70330614 0.36906937 -1.2214266 0.22602053 0.23761947 0.6844231 0.2721321

bias f4 [2]
00000000: 71e2 37bc 3a28 45be
-0.011223421 -0.19253626
