reinforcement_learning/results/EndToEnd_critic1.pt (torch, 62178 bytes, 5 tensors)

weight f4 [100, 43]
000000 a5 34 c2 be 8b 51 a5 be 41 3c c3 be ea 46 1e bf
       -0.3793079 -0.32288775 -0.38131908 -0.61826956
000010 ed 7d ff be 61 b8 63 bf 9c 02 85 bf ef c4 44 bf
       -0.4990076 -0.88953215 -1.0391421 -0.76862997
000020 dd 91 86 bf de 10 b1 bf db 89 d8 bf 98 8b 08 bf
       -1.0513264 -1.3833272 -1.691707 -0.53338003
000030 93 e6 0e 3f 78 b2 19 3e bd e6 55 3e b8 58 25 be
       0.5582058 0.15009487 0.20888801 -0.16147125
000040 aa 9b 47 bd 66 6b 38 be 0e 2c 66 bf 97 3e b6 3e
       -0.048732437 -0.18009719 -0.8991097 0.35594627
000050 0e 45 80 be b4 4a 07 bf f4 d2 ed be e4 26 17 be
       -0.25052685 -0.5284836 -0.46450007 -0.1476093
000060 86 3c d2 be 3e 7d 12 bf bd 3c e6 be 7a d5 33 bf
       -0.410618 -0.57222354 -0.44968215 -0.70247614
000070 4e e8 2a bf 26 15 44 bf ce e9 54 bf 16 18 93 be
       -0.6676072 -0.7659477 -0.8316926 -0.28729314
000080 5e 35 cc 3e d9 9b cf 3e 11 11 e5 3c 71 de a0 be
       0.39884466 0.4054859 0.02796224 -0.3141971
000090 e8 c2 7e bd a3 89 9d 3d e6 b3 03 bf 50 f6 84 be
       -0.062197596 0.07692268 -0.5144638 -0.25969172
0000a0 5f 26 4c be 29 13 0a bd c0 e2 23 be cc 1d 40 be
       -0.19936512 -0.03370968 -0.16004467 -0.18761367
0000b0 4f 9a 87 3d 59 88 9b bc 7f f5 90 3c 19 8b fa bd
       0.06621229 -0.018985914 0.017695187 -0.12233562
0000c0 4b 29 1b bd 11 30 71 bd 30 4f 0d be 43 65 b3 3d
       -0.037881177 -0.05888373 -0.13799739 0.087595485
0000d0 41 ce 41 3c 20 62 87 3d 71 91 c0 3d 37 2d 8c 3d
       0.01182896 0.06610513 0.09402741 0.068445615
0000e0 b8 d7 fe bc 2a 99 ba 3d 9d e0 03 bd 67 56 10 be
       -0.031108722 0.09111245 -0.03219663 -0.1409546
0000f0 b3 49 92 bd fc b2 23 be af 2d 11 be 1b 0f 07 be
       -0.07142963 -0.15986246 -0.14177583 -0.13189356
000100 d3 89 d0 bc b0 3d 66 bd b0 ad 4b 3d b3 fe 91 3d
       -0.025456345 -0.056211174 0.04972619 0.07128658
000110 92 86 bc bd f5 5e 41 be fc 6d 12 be ed a6 14 bc
       -0.09205355 -0.1888388 -0.14299768 -0.009073001
000120 f7 37 04 be 66 6e 29 be 31 a7 75 bd 7d 83 6f bd
       -0.12911974 -0.1654602 -0.0599739 -0.058475006
000130 ba 63 dc bc 24 9a b1 bd a1 e1 11 be fb ad 2d be
       -0.026903022 -0.08671978 -0.14246227 -0.169609
000140 0a da 25 bd 1c dd ee 3c e0 6c 15 be 78 af 0d be
       -0.04049114 0.029158168 -0.14592314 -0.13836467
000150 28 fb bd 3d 5f 88 fa 3d 8f 2d 14 be 55 19 81 bd
       0.0927642 0.12233042 -0.14470504 -0.0630366
000160 02 fd 6a 3d 69 bb 57 bc c8 8b 43 bd 7f 37 8d bc
       0.057370193 -0.013167241 -0.047740728 -0.017238377
000170 6d b5 1a 3c b8 1f e0 3d bc 9d ab 3d be 42 40 3c
       0.009442669 0.1094355 0.08379695 0.011734663
000180 ab a5 2d be 58 90 c2 3d 58 23 97 bd db 82 04 be
       -0.16957729 0.09500188 -0.07379788 -0.12940542
000190 fb 21 91 3c 07 11 99 bd df 6d 01 be 7e 4a b7 bd
       0.017716398 -0.07473951 -0.12639569 -0.08949755
0001a0 ee 5c 04 3e 2f df 06 be fe 8b f7 bd ef 9b 4c bd
       0.12926075 -0.13171075 -0.12087248 -0.049953397
0001b0 be cc 8a bd 99 1b 9b bd 0d a4 a5 3c 39 d4 f1 3b
       -0.06777333 -0.07573623 0.020219827 0.0073800352
0001c0 8a 29 5c 3d 6f f3 25 be f8 83 ec bd 85 5c 5d 3d
       0.053750552 -0.16206144 -0.115486085 0.05404331
0001d0 7d 87 88 3d f8 51 c1 3d 03 39 ab bd 82 6c f9 bc
       0.06666467 0.094394624 -0.083604835 -0.030447248
0001e0 f8 2b 83 3d 3a 02 b9 3d 9c 21 fa 3c 6d ef 1a bb
       0.06404871 0.09033628 0.030533604 -0.0023641244
0001f0 a7 31 dd bc 47 7c 0d 3d b2 9f f4 bd 77 ac 93 bc
       -0.027001215 0.03454235 -0.11944522 -0.018026574
000200 81 79 48 bd f9 9c a6 be 8b a6 26 bd a7 24 72 bc
       -0.048944 -0.32541636 -0.04068617 -0.014779246
000210 74 6f c0 be dc 36 65 be 2c 9c d3 be 5b 1d 02 bf
       -0.37585032 -0.22384208 -0.41330087 -0.5082604
000220 ce 33 30 bf 81 78 67 bf 29 69 15 3f c9 9c c0 3e
       -0.6882905 -0.9041825 0.58363587 0.37619618
000230 31 1b d7 3e a5 e7 0d bf c7 15 81 be 0f 8e 25 be
       0.42012933 -0.55431587 -0.25211927 -0.16167472
000240 24 a4 bb 3d 95 96 22 bf da e8 a9 bd 75 e7 9b be
       0.09162167 -0.6351102 -0.08296366 -0.30450025
000250 c3 4f b1 3e 42 24 b1 bc 0b 47 1f 3e 8c 5b c6 bd
       0.34631166 -0.021623734 0.15554444 -0.0968543
000260 66 1b 8d be e5 75 99 be 0f 21 89 3d db c2 04 be
       -0.27559966 -0.2997276 0.066957586 -0.12964956
000270 b6 ed 8e be b3 40 f0 ba 26 c8 4d 3d 08 a9 89 3e
       -0.27915734 -0.0018329829 0.050239705 0.26886773
000280 ff 7d 9e bf b8 32 5d bf 26 f8 32 bf af 2d 30 bf
       -1.2382201 -0.86405516 -0.69909894 -0.6881971
000290 a2 ab 6f be f2 c0 14 bf 56 e0 25 bf 6f 33 b5 bd
       -0.23405316 -0.5810691 -0.64795434 -0.08847701
0002a0 1c 4a 17 3f f7 3d 9c 3b ff bf fb be 68 fd c3 be
       0.59097457 0.004768129 -0.4916992 -0.3827927
0002b0 fe 90 03 bf 2d 98 70 3d 38 6d 7c be ac 41 1b be
       -0.51393116 0.058738876 -0.24651039 -0.1516177
0002c0 67 91 e8 be 2d 45 de 3d 52 86 0d 3e ea 87 90 be
       -0.45423433 0.10853038 0.1382077 -0.28228694
0002d0 2d 4d a6 be 03 34 67 3e 10 47 9d 3f 72 31 3c bf
       -0.32480755 0.22578435 1.2287312 -0.7351295
0002e0 fd 93 49 be 1c fa 6f bc c7 22 34 3f 52 1a 18 3f
       -0.1968536 -0.014647033 0.70365566 0.5941516
0002f0 34 ed f3 3e 62 05 5b be 94 3a 46 bf 19 9f 48 bf
       0.4764191 -0.21388772 -0.77433133 -0.78367764
000300 c7 26 03 3e 67 cb e3 3d 26 3f 2d 3e e0 f1 b8 3e
       0.12807761 0.1112278 0.1691862 0.36122036
000310 8f c1 77 be 88 fe 16 be 4e 1c b0 be ed c6 a2 be
       -0.2419493 -0.14745533 -0.34396595 -0.31792393
000320 32 a2 9b bc 3d 59 c4 3d 4e 6d 45 be 5a 3a 55 3e
       -0.01899824 0.09587333 -0.19279978 0.2082304
000330 38 c2 a8 be 73 c5 51 bd 0a bc 2b be 4d 71 8f bd
       -0.32960677 -0.051213693 -0.1677095 -0.07004032
000340 d6 7b 27 3e f0 7b 44 3e c8 85 0f bf 86 0f 5c bd
       0.16355833 0.19187903 -0.5606351 -0.05372574
000350 e3 e8 fb 3d 69 1e 80 bd 5a c4 23 3d 8a 2d 0c 3f
       0.12300279 -0.062558 0.039982177 0.5475699
000360 1f 28 0b 3f 01 46 d4 3e 1f d6 84 3e 2c ab 29 3e
       0.54358095 0.4145966 0.2594461 0.16569203
000370 b2 29 ff 3e 3b f3 b2 3e 0b ef 26 3f 67 23 01 bf
       0.49836498 0.34951195 0.652085 -0.50444645
000380 1a 53 8b bc ff ec fc bc d3 d4 1a 3f bf 7f 95 be
       -0.0170074 -0.030874727 0.60480994 -0.29199025
000390 ff 92 ae 3d 7d 43 3a 3c 24 5c 8a bf 6b f7 e4 bb
       0.08524131 0.0113686295 -1.0809369 -0.0069875023
0003a0 6d 09 15 bd aa 95 6c be 66 98 cd bc 2b af a0 3e
       -0.036385942 -0.23103967 -0.025097083 0.31383643
0003b0 2c 2b f9 3c fc ff 04 3f bc 44 ba 3d 8d 2f 13 3e
       0.030416094 0.519531 0.09095141 0.14373608
0003c0 a6 25 34 bd 12 a9 7a 3d a2 ae 0d bf 64 5a 1f bf
       -0.043981217 0.061196394 -0.55344594 -0.622473
0003d0 52 01 81 bf 7f 55 8b bf ed 86 e0 bf f0 c6 84 bf
       -1.0078528 -1.0885466 -1.7541176 -1.0373211
0003e0 61 7b 5c bf fe 89 81 bf 75 c0 5b bf f2 92 db be
       -0.8612576 -1.0120237 -0.8584054 -0.42885548
0003f0 8e 82 85 be f6 c0 08 3e 72 84 fd 3e 57 a8 77 bd
       -0.26076168 0.13354859 0.4951511 -0.060463276

bias f4 [100]
000000 26 cf e3 3e c2 50 35 be 27 aa 32 be 66 f1 45 3e
       0.4449398 -0.17706588 -0.1744772 0.19330367
000010 59 27 97 bd f0 21 bc 3b cb 2f 3c 3f 01 ba 86 be
       -0.07380552 0.0057413504 0.73510426 -0.26313785
000020 57 67 fe 3d 0f 37 a8 bd 1f 72 40 3f 1d 19 21 bf
       0.12422054 -0.082136266 0.75174135 -0.62928945
000030 c5 32 49 3e ec 0a 16 be 5a 73 e6 3e 3b 66 4a be
       0.19648273 -0.14652604 0.4500988 -0.1976556
000040 27 31 e4 bd 4a 0d 83 3e 43 07 c4 be cb ca 25 3f
       -0.111421876 0.25596076 -0.3828679 0.6476256
000050 38 bf 23 bd d2 8a 4d 3f 0a a5 77 3e d5 9f 3d 3e
       -0.039977282 0.8028995 0.24184051 0.18518002
000060 71 1d 75 bf 93 a8 8d 3c 94 c2 6a 3e 3f fb 05 be
       -0.9574805 0.017292297 0.22925788 -0.13084124
000070 20 7d b9 3e e6 2d 04 3e 9a bd aa bd 58 25 36 3f
       0.36228275 0.12908134 -0.08336945 0.7115073
000080 27 41 95 3e 4f e8 e0 bb 49 0a 09 be a3 c8 96 bd
       0.2915127 -0.006863631 -0.1338283 -0.07362487
000090 ea fd 7c 3e 4d 4d 41 3f ee b7 63 3f f7 86 2e 3f
       0.24706236 0.75508577 0.8895253 0.6817469
0000a0 76 9c 2f 3f e6 a3 e4 be 6f e0 42 3f aa ae 6c 3e
       0.68598115 -0.44656295 0.7612371 0.23113504
0000b0 ea 18 71 3f 22 56 81 bd 50 86 c9 bd 0b b7 ba 3d
       0.9417864 -0.06315257 -0.09840071 0.09116944
0000c0 a2 5a e0 be 21 2b f6 3e 2a aa e4 3e d7 89 8e be
       -0.43819147 0.4807978 0.44661075 -0.27839538
0000d0 94 b4 16 be 2b b2 59 3f 9e df d8 bd 7a db 31 3d
       -0.14717323 0.8503749 -0.105895266 0.0434222
0000e0 1e 5c 70 bd 44 1d ad 3d 2a 88 9a bf d9 45 08 3f
       -0.0586816 0.084528476 -1.2072804 0.5323158
0000f0 f4 84 25 bf 4b 70 05 3f 5c 9a 96 3d f1 50 7c bd
       -0.64655995 0.5212447 0.073536605 -0.06160063
000100 a7 84 ea 3e 89 6d 92 be 96 c6 d9 be e5 2d 62 be
       0.4580433 -0.28599194 -0.42534322 -0.2208782
000110 a0 90 3e 3f 0c 11 9f be d0 46 2e 3f a3 36 25 3f
       0.7443943 -0.31067693 0.680768 0.64536494
000120 45 ef 46 be 7b 7c ba 3e e0 6b 91 ba de 7d de be
       -0.19427212 0.36423096 -0.0011094771 -0.43455404
000130 0a ca 38 3f 54 c9 84 bd 64 a1 14 3f 44 ef 70 3f
       0.7218329 -0.06483713 0.5805876 0.9411509
000140 95 78 11 3e b4 9a 1b 3f 8d 34 50 bf 68 f0 7c 3c
       0.14206155 0.60782933 -0.81330186 0.015438177
000150 96 5d e5 3e fb bf 7d be 5f b7 ff 3d 5f 5d 6b bd
       0.44797963 -0.24780266 0.12486147 -0.057462092
000160 c5 b7 f9 3e 16 70 f4 be 74 c5 30 be 19 6e 3e bf
       0.48773018 -0.47741765 -0.17262822 -0.74386746
000170 a2 1f b1 3e b1 9b e6 bd 75 83 42 be 43 b7 b4 3e
       0.34594446 -0.112601645 -0.1899546 0.35296068
000180 6b c1 38 3e c0 a3 15 be fd 4b 22 3d 71 3e f7 bd
       0.18042533 -0.14613247 0.03962325 -0.12072457

weight f4 [100, 100]
000000 5e e8 8a 3e 3f 80 a1 3d ff cd b6 bb dd ba db bf
       0.27130407 0.07885789 -0.005578756 -1.7166401
000010 4f df 39 bd 00 cd bb bd 63 c0 5c be cb c0 4e 3e
       -0.04537898 -0.0916996 -0.21557765 0.20190732
000020 bc 31 a3 3e 2d ca a0 be cd 74 85 be cc ea 28 bf
       0.31873882 -0.31404248 -0.26065674 -0.6598327
000030 20 ca 09 bf f2 3a 0f bf 2f 06 28 bf 30 57 38 3f
       -0.53824043 -0.5594932 -0.65634435 0.7200804
000040 ab af 98 bd 68 19 ac 3d 76 f1 c0 be 7f 5b 70 bf
       -0.07455381 0.08403283 -0.3768422 -0.9388961
000050 80 08 9c be 6e a6 fd bd 44 7a 1b bc 0f f5 e8 3e
       -0.30475235 -0.123852596 -0.0094896 0.45499465
000060 d8 55 31 bf 83 0a 39 bf 7b 65 ba 3f 4b a1 28 bf
       -0.6927161 -0.72281665 1.4562219 -0.65871114
000070 db c3 d3 bf be 7c 0e 3d b7 fb b4 be ed 0b 89 3e
       -1.6544145 0.034786932 -0.35348293 0.2676691
000080 80 f3 19 bf 53 9f 31 bd f9 b8 37 bd cb 7a 4c bf
       -0.60137177 -0.043364834 -0.044854138 -0.7987487
000090 42 3a 8e bf 04 9c a8 be 8e 5b a3 be 01 39 57 bd
       -1.1111529 -0.3293153 -0.31905788 -0.052544598
0000a0 49 39 ce bf 85 84 de bf d5 cb a4 bf c0 df 1a 3e
       -1.6111232 -1.7384192 -1.2874705 0.15124416
0000b0 9b 61 ee be ce 7b 80 bf e0 94 20 bf 11 02 25 be
       -0.46558842 -1.0037782 -0.62727165 -0.1611407
0000c0 b9 d2 00 be b8 e8 82 bf 00 a3 e9 be 65 2b 20 bd
       -0.12580384 -1.022727 -0.45632172 -0.039103884
0000d0 2e d0 72 bd 0a ef 32 be c3 02 53 bd 5b ea 6d bd
       -0.059280567 -0.17473999 -0.051516306 -0.058084827
0000e0 43 e8 d6 be f1 a2 2e be d1 a7 00 c0 a3 02 b7 3e
       -0.41974077 -0.17054345 -2.0102427 0.357442
0000f0 ca 39 75 bf 88 10 90 bf c4 4f 8c bd 85 2f b9 3e
       -0.95791304 -1.1255045 -0.068511516 0.36169067
000100 31 4f 8a be 65 38 2e be 70 ce a0 be de 2c da 3d
       -0.27013543 -0.170137 -0.314075 0.10653089
000110 bf d1 bb be 03 f8 2a be 12 72 a9 be 2e 9a 00 3f
       -0.3668346 -0.16696171 -0.3309484 0.5023526
000120 96 40 4f 3b e5 87 e4 bc 6b e5 b4 3e 81 59 42 3e
       0.003162419 -0.02789683 0.35331282 0.18979456
000130 fd 5e ff be 5e cf bc 3d 9d 07 ed be 38 47 3b be
       -0.49877158 0.0921924 -0.4629487 -0.18288887
000140 d1 d8 46 be c0 99 fd bf 30 5d 40 bf 28 44 6c 3d
       -0.19418646 -1.9812546 -0.7514219 0.057682186
000150 e6 ba 02 c0 17 55 a1 bf cf 05 31 bf 73 7e dc be
       -2.0426574 -1.2604092 -0.6914949 -0.43065223
000160 10 8d 49 3e ed 06 12 bf 23 c2 87 bf 31 31 c1 bf
       0.19682717 -0.5704182 -1.0606121 -1.5093137
000170 e6 d0 14 c0 91 fa 56 be 63 45 15 3e 57 da 95 3d
       -2.3252501 -0.20994021 0.1457725 0.07317036
000180 3b ba a8 be 84 9f 57 3e 69 dd 8c bf 3e 01 c3 be
       -0.32954583 0.21056944 -1.1005069 -0.38086885
000190 51 41 8a bf f6 07 c1 3c d9 e6 74 bd dd e8 c5 3e
       -1.0801183 0.023563366 -0.059790466 0.38654223
0001a0 1f 9d 1a 3e 4e 8c d1 bf 11 4a 86 bf 78 60 40 3d
       0.15099 -1.6370943 -1.0491353 0.046967
0001b0 2a c4 c0 3d 3c 97 46 bd 34 3c 64 bf b0 f7 ec be
       0.09412415 -0.048484072 -0.8915436 -0.4628272
0001c0 64 82 84 bf 73 5c 49 be 7b 90 54 bf 88 8b 9c 3e
       -1.0352292 -0.19664173 -0.8303296 0.30575204
0001d0 5f 45 30 3d 13 69 16 3d 02 31 9d bd 73 bc 91 bd
       0.043034907 0.0367213 -0.07675363 -0.07116022
0001e0 85 3a 7c 3e 0a 72 a2 3d a4 6e e5 bf ff 23 bc 3d
       0.24631698 0.079319075 -1.792439 0.09186553
0001f0 a7 81 77 be e1 d4 d5 bd 2b e2 7c be ee 8e b3 be
       -0.24170552 -0.10440994 -0.24695651 -0.35069984
000200 30 e3 9f 3e 80 fe 24 3f b5 57 9d 3e 0f 6a 40 3e
       0.31228018 0.64450836 0.30730978 0.18790458
000210 dc 07 3a be a2 5c f6 be 5e 26 57 3d a6 82 b4 3d
       -0.1816706 -0.48117548 0.052526824 0.08813982
000220 26 d9 e3 3b da d3 74 bf ae 90 a0 bd e7 40 2b 3d
       0.0069533763 -0.9563576 -0.078400955 0.041809943
000230 46 b3 4a 3e 90 30 c1 3b e7 a7 6d 3d 60 8d b8 be
       0.1979495 0.0058956817 0.058021452 -0.3604536
000240 0f 75 91 bf 5f 34 d7 3d 20 9a 94 bf 3a 94 01 be
       -1.1363848 0.10508036 -1.1609535 -0.126542
000250 d0 ab ad bf ae c3 a9 3e b4 ca 0c bf cb 07 28 3e
       -1.3568058 0.33157104 -0.549968 0.16409223
000260 d4 e5 d3 bb 1b 84 79 be 65 1a 27 bf 61 44 97 3e
       -0.0064666066 -0.243668 -0.6527465 0.29544356
000270 c4 c7 f3 bd e8 2d d9 bc 9a 91 b2 be 3e 22 81 be
       -0.11903337 -0.026511148 -0.3487671 -0.25221437
000280 5d 0f f9 3e 0d ba 03 3f 23 1b 6f 3d e3 d3 6e bf
       0.48644534 0.51455766 0.05837549 -0.93292063
000290 ac b6 fc be b3 84 a1 3e 9c 86 95 bc 0f 12 ce be
       -0.49358118 0.31546554 -0.018252663 -0.40248153
0002a0 6a 46 ce bf bc 48 51 3e 50 04 25 bf 1e cc be be
       -1.6115239 0.20437902 -0.64459705 -0.37265104
0002b0 a0 27 0e 3e 1b 24 56 3e 73 15 ec 3e 0c 39 03 bc
       0.13882303 0.2091221 0.46110114 -0.0080092065
0002c0 03 49 2a bf 86 e8 33 bf aa 5d aa 3e 23 fa 8f bf
       -0.6651766 -0.7027668 0.33274585 -1.1248211
0002d0 3e ee e4 bf e9 66 a0 bd 24 e4 c5 be db 54 7b 3d
       -1.7885206 -0.078321286 -0.3865062 0.06136022
0002e0 e2 9e 11 be 0f 90 99 3d 7e 49 20 3e 5f 32 84 bd
       -0.14220765 0.0749818 0.15653035 -0.0645492
0002f0 cc 1f d2 be bf fc f2 3e 98 9d 1b 3e 12 29 ad bc
       -0.41039884 0.47458455 0.15196836 -0.021137748
000300 05 2f 7c 3e 6a 5c a1 bf 79 e5 ac 3d 56 17 8c be
       0.24627312 -1.2606328 0.08442206 -0.27361554
000310 af 2c f2 3c ba 05 71 bf cd 88 bd be 99 27 72 3e
       0.029562322 -0.94149363 -0.37018433 0.23647918
000320 66 bb 0b c0 5b 97 9b bd 2f 1c 8a bd c3 02 46 be
       -2.183313 -0.07597228 -0.06743657 -0.19336991
000330 dd 43 85 bd 88 40 a5 be ab 56 fa bf ce c7 af 3e
       -0.065070845 -0.32275796 -1.9557699 0.34332126
000340 de 57 5a 3e 23 34 ec bd 57 f3 dc bf 65 80 a9 3e
       0.21322581 -0.11533382 -1.7261761 0.3310577
000350 ad f1 03 c0 76 d5 f7 bd 98 60 dd bf 1b 72 02 3d
       -2.0616257 -0.12101261 -1.7295103 0.0318471
000360 60 a8 bf bc de a3 03 3d 6a 89 22 3e 48 15 67 be
       -0.023395717 0.032138698 0.15872732 -0.22566712
000370 65 13 fc be 48 97 e6 3e d1 b1 33 bf bf 9f 9d bd
       -0.49233547 0.45037293 -0.701932 -0.07696485
000380 d7 29 dd 3e 20 ba f4 bd 6e 30 a4 3f b2 e0 2b 3c
       0.43195984 -0.11949563 1.282728 0.010490583
000390 4e 5d 61 3e 66 73 c8 be c4 8d 17 bf 66 b6 d7 be
       0.22008249 -0.39150542 -0.5920069 -0.42131346
0003a0 1e 74 98 be cd aa 4a be 49 cb 0e bd 80 89 7c ba
       -0.2977609 -0.19791718 -0.034861837 -0.0009633526
0003b0 96 68 ec 3d 90 2d 8b c0 51 90 3c c0 0c 28 63 be
       0.11543386 -4.349312 -2.9463084 -0.22183245
0003c0 39 55 f7 3e 5a 10 68 3d 25 60 b8 be e9 4e 8b bf
       0.48307207 0.05665622 -0.36010852 -1.0883456
0003d0 10 e9 51 c0 b0 79 d5 bd 13 46 b6 bf 97 40 f3 bd
       -3.27985 -0.10423601 -1.4240135 -0.11877554
0003e0 92 33 1d be 8d c7 3c 3c fe a0 36 bf e2 7d c2 bd
       -0.15351704 0.011522186 -0.71339405 -0.094966665
0003f0 70 6b 1e bd c9 d1 d7 3d 94 28 db bf 2c b6 e9 3e
       -0.03867668 0.1053806 -1.7121758 0.456468

bias f4 [100]
000000 c0 b9 a0 bd 36 b5 65 3f 8b 37 37 bf 44 5c ae bd
       -0.07847929 0.8972963 -0.71569127 -0.08513692
000010 01 78 24 be a1 09 3e 3f 49 b8 4b 3f 47 94 8f bd
       -0.16061403 0.7423344 0.7957807 -0.070107035
000020 5c cf 0c bf a9 27 23 bf 9e d1 a8 3e 11 e8 55 3f
       -0.55003905 -0.6373239 0.32972425 0.8355723
000030 97 d3 bf bd bb 1b 2b 3f 63 63 d2 3e 2d 25 44 3f
       -0.093665294 0.6683919 0.4109145 0.76619226
000040 0f e9 93 bd f1 e5 80 3f f5 a3 29 3e 10 34 03 be
       -0.07222187 1.0070173 0.16566451 -0.12812829
000050 32 26 99 be 39 8b 54 bd 71 e2 35 be ff a7 9b bd
       -0.29911953 -0.051890586 -0.17762162 -0.07600402
000060 bf af 4f 3f 3c 7a 41 3f 5e 8c 60 3f 62 42 21 bf
       0.8112754 0.7557714 0.87714183 -0.6299192
000070 e2 79 d3 be cb dc 04 3f 01 9c ea be 40 89 4f 3f
       -0.41303927 0.51899403 -0.45822147 0.810688
000080 d2 70 23 3f 45 f4 28 3f c3 67 d7 3e 69 f6 f5 3e
       0.63844025 0.65997726 0.4207135 0.4803956
000090 2f 06 44 3f 11 c7 8f 3e 9d cf 49 be 10 43 ad bf
       0.76571935 0.28081563 -0.19708104 -1.3536091
0000a0 9a 8c 3d bf bb ac 59 3f 0f a7 97 3e ce b4 f1 bc
       -0.74042666 0.8502919 0.29619643 -0.02950516
0000b0 1e f1 a5 be 95 db 7e 3d 73 b6 3c be 96 c7 89 be
       -0.3241052 0.06222113 -0.18428974 -0.26910084
0000c0 b6 a7 9a be b4 1c 90 bd 75 d0 54 3f 52 4e 3c 3f
       -0.30206078 -0.07036725 0.8313058 0.7355701
0000d0 36 64 4a 3f cd a1 f2 3e e1 e5 4d 3f b0 0c 50 3c
       0.7905916 0.4738907 0.8042889 0.012698337
0000e0 b5 05 1c 3f 97 e5 d8 3e 71 7d 52 3f 46 a8 8e 3d
       0.6094621 0.42362663 0.8222266 0.06965689
0000f0 0e dc 6a 3e e4 b9 99 3d a4 8d b2 be 44 ec 9a 3e
       0.22935507 0.07506159 -0.34873688 0.3025838
000100 d6 79 39 3f a6 ed 3f bf 2b 57 1a 3f 9f c4 92 3e
       0.7245153 -0.74972 0.6028926 0.28665635
000110 4e 46 c2 3e 39 9d d4 be 78 6a 9f 3e d0 33 6b 3f
       0.37944263 -0.415262 0.31135917 0.91875935
000120 68 34 1d be ef 1d 4e 3f 22 f5 6e 3f e4 5d fd 3e
       -0.15352023 0.80514425 0.93342793 0.49485695
000130 2b a8 39 3f 4b 0d 14 3f e3 6a e8 be 11 81 0d be
       0.7252223 0.57832783 -0.45394048 -0.13818766
000140 fd db 1e 3f 63 9e 49 3f 4e d7 05 be 1e 29 b1 3e
       0.62054425 0.78757304 -0.13070413 0.34601682
000150 64 00 42 be 55 a3 e1 bd 62 8a 5c 3d 77 d4 1a bf
       -0.18945462 -0.11017481 0.05384291 -0.60480446
000160 27 9c 6c 3f cf 75 d5 3c e7 e5 1d 3f 57 e2 ee be
       0.9242577 0.026057152 0.6167893 -0.4665706
000170 f9 5a 1c 3f 07 48 59 be ac c1 2e be c2 cf 57 bf
       0.61076313 -0.21218883 -0.17066067 -0.8430139
000180 04 01 57 3f 1b 7c b1 be 00 e5 03 be 2c 94 d6 bd
       0.83985925 -0.34664997 -0.12880325 -0.1047748

weight f4 [1, 100]
000000 8d 10 e3 bf 90 b8 e8 3e 2c 80 49 bf 4f d7 3b 3c
       -1.7739426 0.4545331 -0.787112 0.011464908
000010 71 45 d0 3f 45 fe 2f 3e 9b bf 1f 3e 99 ea 9b 3c
       1.6271192 0.1718684 0.15600435 0.019032763
000020 0e 77 d0 bf a4 0f 34 3f 48 45 58 c0 7b 4d 58 bf
       -1.6286333 0.70336366 -3.3792286 -0.84493226
000030 e7 57 46 bc d2 68 42 3e 59 14 bc 3c 39 b9 46 3e
       -0.0121059185 0.18985298 0.022958921 0.19406594
000040 65 bc 31 3d 29 c4 7d 3f f4 12 ae bf ef e5 20 bc
       0.043392558 0.9912744 -1.3599534 -0.009820445
000050 25 cf a4 bf da 25 ea 3a 6c ae ca be 2a 17 d5 bb
       -1.2875715 0.0017864064 -0.39586198 -0.0065030055
000060 67 13 83 3e ec 76 81 3e ad f0 a8 3e b5 a5 cd be
       0.2560074 0.25286043 0.3299612 -0.40165487
000070 9c c6 2e c0 52 ff a0 bf 37 8c 0f c0 d7 cc b9 3e
       -2.7308722 -1.2577918 -2.242933 0.36289093
000080 b4 02 fb bf f4 7b fa 3d 31 fe 1b bf 03 0a 29 3f
       -1.96102 0.122306734 -0.6093474 0.660309
000090 65 ce 35 3e c6 6b 84 be 9a 38 95 3f b4 f4 9b bf
       0.17754515 -0.25863475 1.1657898 -1.2184052
0000a0 2a 19 f0 be a8 0a 95 3e 8e 90 65 3f de 5b 94 bd
       -0.468942 0.29109693 0.896737 -0.07244085
0000b0 b3 2b 52 c0 42 35 49 3f ca fe 47 3c fd 1f 87 be
       -3.2839172 0.7859689 0.012206743 -0.26391593
0000c0 9d 91 5c be 8a b7 b0 3f 37 66 ad 3e 00 2f dd 3e
       -0.21539922 1.3806012 0.33867046 0.4319992
0000d0 25 7c 03 3f 25 9d 3c bf 3e 59 83 3e c7 64 39 bc
       0.51361305 -0.73677284 0.25654024 -0.011315531
0000e0 ce 82 2f 3f d2 fd 0d c0 62 29 5e 3e 35 26 3e c0
       0.6855897 -2.218617 0.21695474 -2.971082
0000f0 32 74 0c c0 e7 29 4d c0 a6 53 24 bf d7 e5 13 c0
       -2.194592 -3.2056825 -0.6419014 -2.3109033
000100 94 a1 46 3e 71 ff 5a c0 79 95 0f 3f 54 a3 99 3c
       0.19397575 -3.421841 0.5608745 0.018754639
000110 bf 0b cb 3e bd 3a b5 bf b1 58 30 bf 3e 15 bc 3e
       0.396574 -1.415855 -0.6888533 0.36734957
000120 9c 59 33 bc 64 97 c3 3e 8d 14 dc 3e cc 60 82 bf
       -0.0109466575 0.3820144 0.4298443 -1.018579
000130 1b db ad 3e b3 9e d3 3e 49 41 1a c0 8b 18 fb bc
       0.33956227 0.41332015 -2.4102347 -0.030651351
000140 3f 85 9f bf c8 3d 81 3e ba 7d 45 bb 52 ac 8b 3e
       -1.2462538 0.25242448 -0.0030134753 0.27279907
000150 08 e1 90 bd 83 e4 6b 3c c0 5c 1d c0 da ef 7d c0
       -0.07074171 0.014397743 -2.458786 -3.9677644
000160 08 a1 08 3f 7d 17 db bf 88 60 05 3e fb 64 a1 be
       0.53370714 -1.7116543 0.13025105 -0.31522354
000170 a4 28 4e bf 6d 4a de be 05 bb 7d 3c d4 b8 fc be
       -0.8053076 -0.43416157 0.015486483 -0.49359763
000180 f8 5f b5 3e bd d2 f0 bf 2b 87 a9 bc df 45 b6 bb
       0.3542478 -1.8814312 -0.020694336 -0.0055625285
