reinforcement_learning/results/EndToEnd_critic2_optimal.pt (torch, 62114 bytes, 5 tensors)

weight f4 [100, 43]
000000 46 2f 29 bf b9 8b bf be 35 53 9d 3c c8 f7 b1 be
       -0.6608776 -0.37411287 0.019204715 -0.34759355
000010 02 e0 d9 3d 5a 9b c6 3e 8f ca 37 bf b5 20 6c 3e
       0.10638429 0.387904 -0.71793455 0.23059352
000020 00 3d a0 3e 8f 22 76 3e c4 2b 15 bf fb 9f 37 be
       0.3129654 0.2403662 -0.58269906 -0.17932121
000030 f5 65 1c bf 33 f5 5f be b8 2b 7f 3f 6f 1f 3a be
       -0.61093074 -0.2187088 0.99676085 -0.18176053
000040 30 1e ed 3e 2e 4c a1 bf 37 9b 33 bf 5d cf 86 be
       0.46312094 -1.2601373 -0.70158714 -0.2633008
000050 44 89 6c bf 1f 31 09 be 1a 97 7f bf 22 5d 6c bf
       -0.9239695 -0.13397644 -0.9983994 -0.9232961
000060 f1 83 92 3e 5f 69 23 bf a8 d1 1e bf 4d b7 83 bf
       0.28616288 -0.6383266 -0.6203866 -1.0290314
000070 e2 22 47 bf c4 7c 83 bf 67 45 41 bd f3 ab 53 bd
       -0.777876 -1.027245 -0.047185328 -0.051677655
000080 c6 33 ea be e1 38 7c bf a2 f0 85 be 83 1e 6d 3e
       -0.45742625 -0.9852429 -0.2616015 0.2315617
000090 53 cb 17 be a4 9e 4f 3e 89 99 3a 3e 87 bc a4 3e
       -0.14823656 0.2027536 0.18222632 0.32175085
0000a0 0e 3d f6 b9 76 18 cc 3b a4 71 37 be 62 37 be 3e
       -0.00046966266 0.006228502 -0.17914444 0.3715163
0000b0 8c 5a cf 3e 76 34 5d 3e 2b 81 78 3e 87 41 db bb
       0.4049877 0.21602044 0.24268024 -0.006691161
0000c0 15 38 f9 3c 9f 38 ed be ad ad 99 bf 7e 64 61 bf
       0.03042225 -0.4633226 -1.2006127 -0.88043964
0000d0 db e2 54 bf e1 bd 53 bd d9 a3 38 bb 90 4a 43 3e
       -0.83158654 -0.051694755 -0.0028173833 0.19071412
0000e0 0a 1c d8 be eb 77 d2 be 2a 34 eb bd 50 f7 c9 3e
       -0.42208892 -0.41107115 -0.11484559 0.39446497
0000f0 ac 9f 90 3d e0 cb 91 3d 0c 78 39 3f aa 4d 2b 3f
       0.07061705 0.07118964 0.724488 0.6691538
000100 ae 56 d2 be 06 50 13 be 13 b6 fb be e8 99 8c be
       -0.41081756 -0.14385995 -0.4916235 -0.2746117
000110 07 02 26 3e 4f b1 89 3e 40 0b b8 be 62 00 65 be
       0.16211711 0.26893088 -0.35946083 -0.22363427
000120 10 20 f7 be 29 ec 3a 3f 6d 98 f3 3e 1e d9 2f 3e
       -0.4826665 0.730166 0.4757723 0.17172667
000130 37 5c 5e 3e 07 79 b5 be ca 2e 92 3d 64 20 1c bf
       0.21714865 -0.354439 0.071378306 -0.60986924
000140 2b 36 fc be 60 ad bc 3c 8c b2 a1 be 2f e2 ed 3c
       -0.49260077 0.02303189 -0.31581533 0.029038517
000150 28 71 45 be 37 5e 82 be fb bc 07 3e 0b d6 2c 3e
       -0.19281447 -0.25462505 0.13255684 0.16878526
000160 a6 ea 27 be 5e 03 44 3f 76 6c b3 bd 2c 3e 54 bf
       -0.16398105 0.7656764 -0.08760922 -0.82907367
000170 77 82 77 bf 67 21 ea 3d 05 8e c3 3e 6f f7 46 bf
       -0.9668345 0.11432152 0.3819429 -0.77721304
000180 e5 2a 64 3d f9 b0 0f bf 85 fe 04 3f 77 c3 0d bf
       0.05570497 -0.56129414 0.51950866 -0.5537638
000190 ed f7 17 3d 4f 5d ca 3e 60 71 c6 3c f8 ed c1 be
       0.037101675 0.39524314 0.024223983 -0.37876868
0001a0 e8 a8 7e 3d be b3 34 3e 8c 46 ad 3e ce 8f 86 3e
       0.0621728 0.17646691 0.33842885 0.2628159
0001b0 28 32 3f 3d 89 6f d1 be 7b 30 08 be 62 42 e2 be
       0.046678692 -0.40905407 -0.13299744 -0.4419127
0001c0 d7 d4 a2 bd 5f b0 88 3e 50 65 a0 be ab f2 05 3f
       -0.07950752 0.2669706 -0.31327295 0.52323407
0001d0 cf 07 ac be e1 2b 56 3e 0d 88 19 bf 92 c4 05 3f
       -0.33599707 0.20915176 -0.5997322 0.5225307
0001e0 19 ea ae 3e ba 2f d1 3d 13 2e 1f be 4a 9e cb 3e
       0.34162977 0.10214181 -0.1554492 0.39769202
0001f0 b6 f6 31 3e d6 00 4d bf f8 47 1d 3f 08 96 08 bf
       0.17379269 -0.800794 0.6143794 -0.5335393
000200 5a 33 95 be ba 41 c6 be 57 92 2d be 79 ac 21 be
       -0.2914074 -0.3872202 -0.16950355 -0.1578845
000210 18 05 87 3e 67 ee f5 3c a8 ed c7 bf d0 c4 7f 3f
       0.26371074 0.030020906 -1.5619402 0.9990969
000220 94 af 49 3e 79 ac 3f 3f 2a 0d 97 be f4 1e c1 be
       0.19695884 0.7487255 -0.2950223 -0.37718928
000230 88 19 3c bf af b0 64 be f5 9b 3d 3e 97 18 d5 be
       -0.7347646 -0.22333024 0.18516524 -0.41620323
000240 11 a2 2e 3f a7 f6 75 be 9f c7 e2 bb 41 9b 90 be
       0.68216044 -0.24019872 -0.0069207693 -0.2824345
000250 02 ab 58 3f 58 cc 09 bf 1e cd de bb 13 30 43 bd
       0.8463594 -0.5382743 -0.006799354 -0.04765327
000260 87 65 8e 3e 6a 31 6d 3c 38 6c d8 3e 21 19 f3 3d
       0.27811834 0.014477113 0.42270064 0.11870027
000270 27 df 25 be ab 12 61 bd 3f ea 20 bf 08 ab c8 bd
       -0.16198407 -0.054949444 -0.6285743 -0.097982466
000280 73 f0 7d be 49 f6 01 bf 00 2f 7c be 1c b4 f2 3e
       -0.24798755 -0.50766426 -0.24627304 0.47403038
000290 05 a3 61 3f 1d c9 3f 3f a1 2d 15 bd 77 b2 8d be
       0.88139373 0.7491625 -0.03642047 -0.2767522
0002a0 54 f0 eb 3e ae 53 00 3f 39 5a 42 3e f8 c0 21 3e
       0.46081793 0.50127685 0.1897973 0.15796268
0002b0 bc cf a3 3e 1a 60 ae be f0 21 94 3f f0 39 81 be
       0.31994426 -0.34057695 1.1572857 -0.25239515
0002c0 6f 1f 85 be e4 a2 c3 be 0e c5 01 3f b2 96 22 bf
       -0.26000544 -0.38210213 0.50691307 -0.6351119
0002d0 4d 1e 95 bf d5 29 76 bf 64 62 e0 be 35 e4 cf be
       -1.1649872 -0.9615758 -0.43825066 -0.40603796
0002e0 90 df 9d be 5e a1 3e 3e 09 4e ba be ba 04 1b be
       -0.30834627 0.18616244 -0.3638766 -0.15138522
0002f0 35 db 64 3d 3a 33 be be c1 60 49 3e 2f f4 eb 3e
       0.055873115 -0.37148458 0.19665815 0.46084735
000300 e8 0d ae bf fc 35 9e bd fe cc b8 3c 20 e5 21 be
       -1.3597994 -0.077251405 0.022558685 -0.1581006
000310 09 d1 3a bf 0a 3d 52 bf 1a 73 43 3c bb de 89 be
       -0.7297521 -0.8212439 0.011929298 -0.26927742
000320 ed ce 07 3f cf ca 61 3e 73 20 70 3e 5c 0e 3b be
       0.5305012 0.22050022 0.23449878 -0.18267196
000330 02 ba c8 be a4 b9 f0 be 8d 9f 42 3e 4b 40 a8 3e
       -0.39204413 -0.47016633 0.19006176 0.32861552
000340 5d 29 76 3d 1f 35 20 3f b6 07 40 3e c6 26 cb be
       0.06009804 0.62581056 0.18752941 -0.3967802
000350 38 39 61 3d 86 d5 dd be 76 80 1d bf ce a5 61 bf
       0.05498621 -0.43326968 -0.6152414 -0.8814362
000360 4e ed 26 bf c2 60 3b bf 82 2a bc 3e b3 71 cb be
       -0.6520585 -0.73194516 0.3675118 -0.39735183
000370 f5 75 bb be f8 18 d4 be ec b6 62 be bc 5d b9 3d
       -0.36613432 -0.414253 -0.22140092 0.090510815
000380 ec 4e 44 3e 2e a9 86 3e 44 06 eb be f6 ed 1e bf
       0.19170731 0.2630095 -0.45903218 -0.6208185
000390 ee ef a9 bf 7f 4f 9c bf 9b 85 63 bf 90 8d 5f bd
       -1.3276346 -1.221176 -0.8887574 -0.054578364
0003a0 6a a0 e3 3e d1 88 48 3f d2 bc 2f 3c db fd aa be
       0.44458324 0.78333765 0.010726171 -0.333968
0003b0 6d 72 a8 be 7e 70 3b be 6f bf ee ba 32 01 85 be
       -0.328998 -0.18304631 -0.0018215011 -0.25977474
0003c0 d7 f6 39 bf c9 f8 cc be 89 d2 dc 3d 6b 1c e9 3d
       -0.7264227 -0.40033558 0.10782344 0.113823734
0003d0 2b ff a9 3e d0 cb 8e 3e f1 b5 6c bd 3b 3b 90 be
       0.3320249 0.27889872 -0.0577907 -0.2817019
0003e0 63 6e c4 bd 4c cb e9 be e2 13 3d bf aa dd 9b be
       -0.09591367 -0.45662916 -0.73858464 -0.30442554
0003f0 1a af 94 3f c7 1c 03 3f bc a6 db be f1 86 a7 3e
       1.1615937 0.51215786 -0.42900646 0.3272014

bias f4 [100]
000000 d0 5e 3c bd 57 cd 85 3d 03 24 ef bc 30 92 26 bf
       -0.045988858 0.06533306 -0.029191976 -0.65066814
000010 12 a6 ee be 50 a4 ad 3b d3 d0 b1 3e 02 06 8e 3e
       -0.46611077 0.0052991286 0.34729633 0.2773896
000020 d1 21 4d 3d f9 78 01 bf 6d 85 63 be 99 f6 39 3f
       0.050081078 -0.50575215 -0.22218867 0.72641903
000030 46 1e 00 bf 23 0d 1f bd fc 30 ee be ff 10 3f 3e
       -0.50046194 -0.038830888 -0.46521747 0.18658827
000040 e5 51 05 3f fe ff a5 be f6 86 10 3f 3e 1b 26 be
       0.52078086 -0.3242187 0.56455934 -0.1622133
000050 dd ce a4 be 2e 27 30 bf 43 2e 9f be 72 fd 3e bd
       -0.32189074 -0.68809783 -0.31089982 -0.046628423
000060 cb fe b0 3e a8 ad 59 be 94 3e ef 3d b8 c7 b9 bd
       0.34569392 -0.21257651 0.11681858 -0.090712965
000070 ee 2d 2e 3e e9 7c a4 3e 36 92 94 3d 26 cc 9a be
       0.17009708 0.3212655 0.0725445 -0.30233878
000080 8f 27 80 bd 4d 14 d2 be 61 ab b6 3e 48 8b 05 be
       -0.06257545 -0.41031113 0.35677627 -0.13041413
000090 55 d7 25 bd 99 d8 82 be 19 80 07 3f f7 79 3e bf
       -0.04048856 -0.25555876 0.52929837 -0.74404854
0000a0 e3 90 82 be 89 f7 b7 3d 8e 5c 52 3f ef 2d d9 bc
       -0.25501165 0.089827605 0.8217248 -0.02651116
0000b0 ee 63 a2 be b8 30 45 be d0 a6 db 3e f6 47 3b 3e
       -0.31716865 -0.19256866 0.42900705 0.1828917
0000c0 78 29 48 bf 5f ae 2d 3d f7 aa 0b 3e b8 ca ef 3e
       -0.78188276 0.04240262 0.13639437 0.4683435
0000d0 7a 26 f2 3e 48 ad b2 be ae 7a be 3d 0e b0 ec 3e
       0.4729498 -0.34897828 0.09300743 0.4622807
0000e0 65 a9 05 3f c6 6b 3e bf 84 8f b6 bd a2 dc fc be
       0.522116 -0.743832 -0.08914092 -0.4938708
0000f0 c0 67 27 3e 8f 2b a6 3e dc 05 b4 be e3 2a 20 3e
       0.16348171 0.32455108 -0.3516072 0.1564136
000100 a4 f0 03 be a2 c5 4d 3e dd d6 09 3e fd 49 99 be
       -0.12884766 0.20094922 0.1346087 -0.2993926
000110 01 8c 7b bf 7e 44 ad 3c 1f 71 0c 3f 96 93 ec bd
       -0.98260504 0.021150824 0.5486011 -0.11551587
000120 16 d0 2c be dd 0e 4b 3e c6 22 f8 3e c9 93 e4 bd
       -0.16876253 0.19829889 0.4846403 -0.11161
000130 ad 5a f5 3d e5 99 c7 3d 0d d6 1d bf a6 2a 8f 3e
       0.11980186 0.0974615 -0.6165474 0.27962226
000140 a5 85 25 be 20 ce 26 bf 0f 14 e5 3e f8 c1 40 bd
       -0.16164263 -0.6515827 0.44741866 -0.047059983
000150 ce 26 23 3f c4 1d 4d 3f 8f 7a a5 3d d8 cc bf bd
       0.63731086 0.80123544 0.08080017 -0.09365243
000160 36 7d 0c be d9 88 52 be 74 b8 92 bf 4c 0e 2d bf
       -0.13719639 -0.20560016 -1.1462541 -0.6759994
000170 5b db 80 3e 68 4e 35 3e e8 d4 4a bf e6 66 eb 3e
       0.25167355 0.17705691 -0.7923112 0.45976943
000180 6b 9a 81 bd f8 c7 13 be f4 52 60 bf c3 50 ab bd
       -0.06328281 -0.14431751 -0.87626576 -0.083650135

weight f4 [100, 100]
000000 3f fc 6e 3f 2f dc c0 3e 31 85 40 3d 7a 5d d8 be
       0.93353647 0.37667987 0.04700202 -0.42258817
000010 86 3e a8 3e d5 ca ad bf 9f b7 52 3e c0 10 bd 3e
       0.32860202 -1.3577524 0.20577858 0.36926842
000020 36 63 75 bf 7f 2c af be 29 85 8e 3e 53 dd 10 3e
       -0.9585451 -0.34213635 0.27835968 0.14146928
000030 dc 03 b0 bd 86 bf 12 3f 3c 3c 6c bf b8 fb 2a bf
       -0.08594486 0.5732349 -0.9227941 -0.6679034
000040 18 64 60 bf 5a d3 c0 3d e8 41 c4 be cc a8 53 bf
       -0.8765273 0.09415312 -0.38331532 -0.8267944
000050 1b 36 52 bf 5b a6 42 be a0 83 af be db 9d 53 3e
       -0.8211381 -0.19008772 -0.3428011 0.20665686
000060 ac 49 cb be 02 71 9f 3e 42 f8 60 bf f4 09 af be
       -0.39704645 0.31140906 -0.8787881 -0.3418728
000070 9e 01 8d bd d1 b4 42 be 91 12 e3 be 06 be 77 3e
       -0.06885074 -0.19014288 -0.44350103 0.24193582
000080 30 48 99 bf 6d f8 98 be ce 7d 14 bf d2 8d e0 be
       -1.1975155 -0.29877034 -0.5800446 -0.438582
000090 4f fc b8 be 6f 56 c6 bd d6 d2 fb 3e 38 69 90 3e
       -0.36129996 -0.09684455 0.49184293 0.28205276
0000a0 42 0b 23 bf e6 4a 87 bf 46 29 71 3e a5 13 d1 3e
       -0.63689053 -1.0569732 0.23550901 0.408353
0000b0 ad 47 29 be 65 c1 86 bd 9c b3 0d 3e a0 d9 a0 bf
       -0.16531248 -0.06579856 0.13838047 -1.2566414
0000c0 2f e2 9c bf b4 57 83 be ad e1 67 3f c6 06 19 bf
       -1.2256526 -0.2565285 0.9057873 -0.5977596
0000d0 25 df 21 bf 7c 52 7a bf 3f 42 e7 be 23 34 53 3c
       -0.63231117 -0.9778211 -0.4516773 0.012890848
0000e0 9b b8 21 3d 12 00 91 be bf 23 b4 3f b9 77 fd 3e
       0.039482694 -0.28320366 1.4073409 0.49505404
0000f0 cd 5e 0e 3e 92 fc bd 3d ae 30 00 3d c0 3d 12 3f
       0.13903351 0.092766896 0.031296425 0.57125473
000100 2a d4 ef 3d 35 e4 79 3e b6 0c 93 bf 15 87 0e 3e
       0.11710389 0.2440346 -1.1488254 0.13918717
000110 df cf 22 bf a0 40 43 be 0b 67 bf 3e 56 46 d3 3d
       -0.63598436 -0.19067621 0.37383303 0.1031615
000120 3a 50 9c 3e e4 81 34 3e 2d d4 e3 be 97 af 1b bf
       0.30529958 0.17627674 -0.44497815 -0.60814804
000130 a3 1d a0 bf b8 f9 01 be 60 ef a7 3d d9 b6 30 bf
       -1.2509044 -0.12692916 0.08199954 -0.69029003
000140 ec 2e 8f bf b1 ca 0e 3f 19 76 87 3e 30 cb c8 be
       -1.1186194 0.5577803 0.2645729 -0.3921752
000150 72 39 05 be 48 a2 7d 3f 7a fe 3a 3e 88 61 fb bd
       -0.13010195 0.99075747 0.18261138 -0.12274462
000160 fd cc 05 3e d6 03 ae 3d 33 19 66 bc 51 59 1b 3f
       0.13066478 0.084968254 -0.014044094 0.6068316
000170 31 6a 3e bf 6a cb e7 3e 70 56 9f bd 32 1c 19 3e
       -0.74380785 0.4527238 -0.077801585 0.14952162
000180 09 22 f0 3e a2 6b a0 bd 69 69 19 bf ec e1 19 bd
       0.46900967 -0.07833029 -0.5992647 -0.03756897
000190 89 79 a9 be 44 82 0b bf 66 63 d1 3b b8 1d 94 be
       -0.33100536 -0.54495645 0.006390023 -0.28928924
0001a0 10 61 12 3e 27 2d 58 bf 78 be b3 bf d5 10 28 3f
       0.14294839 -0.84443897 -1.4042501 0.65650684
0001b0 b2 e9 a3 be c9 e9 67 bf 13 a9 8c bf 8d f1 d2 3d
       -0.32014233 -0.905911 -1.0989097 0.102999784
0001c0 44 17 e8 3e fa dc 27 bf f3 0f c0 be 8c 53 04 bf
       0.4533025 -0.6557156 -0.37512168 -0.5168998
0001d0 83 8a aa be 8e 8c fa be 56 1d 29 bf 6c ec cd be
       -0.333088 -0.4893536 -0.6606039 -0.40219438
0001e0 ec 62 64 bf 1f a0 bf be 1b a5 05 bf b2 c5 1b bf
       -0.8921344 -0.3742685 -0.52205056 -0.60848534
0001f0 98 85 e9 3e 37 9e 60 3e fc c0 68 3b d8 18 a1 bf
       0.45609736 0.21935354 0.0035515418 -1.2585707
000200 a0 aa 7d bf 3e 49 8d be f4 92 05 bf 83 2f 0e bf
       -0.9908848 -0.27594942 -0.5217736 -0.5554125
000210 7f 80 73 3e d6 de ef be fc 7f df be 91 c2 50 3d
       0.23779486 -0.46849698 -0.43652332 0.050966803
000220 0b 8b c2 bf b6 30 0b 3d c4 76 82 3e ea df 98 be
       -1.5198683 0.033982 0.25481236 -0.29858333
000230 e4 6d 8f be 4a 7e 90 be 93 2c a9 3e c7 c1 74 bf
       -0.28013527 -0.2822135 0.3304182 -0.9560818
000240 b4 d2 12 bf 0a cc bc be 79 d9 a6 bf 2e 3e 93 3e
       -0.5735276 -0.3687442 -1.3035117 0.28758377
000250 c6 98 89 3e be 45 e3 be 5d 95 d8 3e 0c c4 43 be
       0.2687437 -0.44389147 0.42301455 -0.19117755
000260 fc a4 0a 3f 76 08 e7 bd 8b 6f 43 be 7d e5 01 bf
       0.54157996 -0.11280911 -0.19085519 -0.50740796
000270 ba 46 44 bf 78 0a 6d 3e 13 4f 4c bf 98 f0 15 bf
       -0.7667042 0.23148525 -0.7980816 -0.5857024
000280 ec 76 05 3f 7a 9d 05 bd 08 31 8b be f6 e6 9a be
       0.52134585 -0.032620884 -0.27185845 -0.30254334
000290 6e 39 94 be 24 ea c4 3e d2 84 21 bc b9 29 65 bf
       -0.28950065 0.38459885 -0.009858327 -0.8951679
0002a0 2b 41 8a bf 92 a0 78 bf 62 86 c5 3e 77 93 a4 be
       -1.0801138 -0.9712001 0.38579088 -0.32143757
0002b0 22 81 14 be af b1 78 bd fe 41 1f bc ca 2c bb 3e
       -0.14502385 -0.060716327 -0.009720324 0.3655761
0002c0 35 fc 65 be 32 7d 51 be 6f b9 b3 bf 1b 8f 44 3e
       -0.2245949 -0.20457914 -1.4040965 0.19195215
0002d0 1d 86 d9 be 9b 17 27 3d 62 6d 3d 3d bb 9a 43 bf
       -0.42485133 0.040793996 0.046246894 -0.76407975
0002e0 83 b0 2c bf 8d 36 c1 3a fb aa 0a bb 38 49 2c 3e
       -0.67456836 0.0014740989 -0.0021159041 0.16824806
0002f0 84 66 d3 bd e1 bb 5e bf f5 c1 5e bc 43 34 de 3e
       -0.10322288 -0.8700543 -0.013596048 0.43399248
000300 aa ab d6 be dd d4 9b bf e5 c9 3e bf 0e 1e 9b be
       -0.41927844 -1.2174336 -0.74526817 -0.30296367
000310 02 e4 b3 be f7 79 8b 3d 72 47 07 bf 47 79 ca 3d
       -0.35134894 0.06810372 -0.5284339 0.09886413
000320 dd 4f 76 bd ba 1f 6a 3f 96 73 cd bd 0d c0 00 bf
       -0.060134757 0.9145466 -0.10031812 -0.50293046
000330 56 2a fa 3e 2a 81 ec 3d 3c 11 f0 be 42 f0 10 3e
       0.48860425 0.115480736 -0.4688815 0.14154151
000340 43 fd 79 3e af d0 08 bf 90 74 3b bf 18 db aa bd
       0.24413018 -0.53443426 -0.73224735 -0.0834257
000350 59 b7 39 3d 6e b5 b3 bf a4 ef e9 bd dd 90 98 3d
       0.04534087 -1.4039743 -0.11422661 0.074495055
000360 58 f8 e8 be 37 e6 82 be e9 93 0e bf a0 16 92 3f
       -0.4550197 -0.25566265 -0.55694443 1.1413155
000370 05 3d ed be de 01 6f 3e 91 58 54 bf 08 d2 04 3e
       -0.46335617 0.23340556 -0.8294764 0.12970746
000380 7a 49 7a 3c 10 9a ad bd b8 8e 58 bd e2 c1 3f bf
       0.015276307 -0.08476651 -0.052870482 -0.74905217
000390 45 26 25 3f 89 5c 19 bf 78 b2 b2 bf 50 e9 28 3e
       0.6451152 -0.5990682 -1.3960714 0.16495252
0003a0 aa 0b b5 3d b6 19 54 bd 6f 51 63 bf ed 22 33 bf
       0.08840115 -0.051782332 -0.8879613 -0.6997517
0003b0 dc 39 45 be fa d8 8f be 7c 79 b7 3e 3e 02 9d 3d
       -0.19260353 -0.28095227 0.35834873 0.07666443
0003c0 18 ea 86 be 05 a9 f1 3e a4 33 31 bf d3 9c 08 3f
       -0.26350474 0.47199264 -0.6921942 0.53364295
0003d0 92 8c 79 bf 20 de 10 bf 06 26 e8 3e ad c2 9e bf
       -0.9748012 -0.56588936 0.4534151 -1.240316
0003e0 9d ee 4d 3e e3 3c 8f bd df b1 d7 be 33 fb 8b 3e
       0.20110555 -0.06994035 -0.42127892 0.27340087
0003f0 54 6d ef bf 10 a2 d6 3e 2b c7 af 3c 82 89 34 3e
       -1.8705239 0.4192052 0.021457275 0.1763058

bias f4 [100]
000000 1a 46 12 3e e3 83 6c 3d 08 dc 48 3d d4 b6 6b 3d
       0.14284554 0.057742964 0.049037963 0.057547405
000010 28 7b 61 be 75 87 a1 be 96 29 c1 be 3c b4 da be
       -0.22019637 -0.31548658 -0.3772704 -0.42715633
000020 98 35 31 bd a1 fb d9 bd ca 5a 05 bd ae ea 10 3e
       -0.043264 -0.106436975 -0.032557286 0.14152023
000030 70 8a c7 be 6f 5c ba be 98 f9 31 be 79 44 fa be
       -0.38972807 -0.36398646 -0.17380369 -0.48880365
000040 9b fa 13 bf e3 01 46 be 79 65 45 3d b8 ab 75 3d
       -0.5780427 -0.19336657 0.048192475 0.059978217
000050 c9 fb 91 be 84 fb 0d be 6f 3f 97 3b ea 68 07 be
       -0.2851241 -0.13865477 0.004615716 -0.13223615
000060 5e 78 d5 be 72 7e 2f bf d7 1f 94 3e 6d 71 1b be
       -0.41693395 -0.68552315 0.28930542 -0.15179987
000070 98 6e 62 be ac f6 06 3d 37 e2 db 3e 80 a7 0a be
       -0.221125 0.03295009 0.42946026 -0.13540459
000080 7f 1a be 3c 28 03 e4 be e5 6b c0 3d 42 fe 08 3e
       0.023205994 -0.44533658 0.09395579 0.13378242
000090 ac e1 63 3c 8c d0 ca be d5 fa 3c bf fc a4 b2 3c
       0.013908785 -0.39612234 -0.7382024 0.021807186
0000a0 30 b8 8d 3e d9 7a a2 be e1 8d 86 be c4 19 13 bf
       0.27679586 -0.3173435 -0.2628012 -0.5746119
0000b0 70 91 90 3e 31 5d bc be aa aa 3b be 87 78 43 be
       0.2823596 -0.3678985 -0.18326822 -0.19088946
0000c0 c6 93 dd be 59 0a 20 be 87 5a 29 be 90 ed 8e be
       -0.43276805 -0.15628947 -0.1653844 -0.2791562
0000d0 10 b1 c9 be fb 23 bd 3d 9e 9b 2a 3e 75 cc 26 3e
       -0.393929 0.09235378 0.16660926 0.16288932
0000e0 67 f9 c9 3d 48 9a 9f 3c bc dd 0a be 9d 6b 96 bc
       0.09862023 0.019482747 -0.13561147 -0.01836186
0000f0 07 54 39 be 59 34 a0 bd 94 e2 a9 3e e3 1e 52 be
       -0.1809846 -0.078224845 0.33180678 -0.20519595
000100 96 b5 9a bd f2 3c 76 be 33 81 0d be f8 6b 80 3e
       -0.07554166 -0.24046686 -0.13818817 0.25082374
000110 9c d8 56 bd 16 d5 3b be a4 38 59 3e 4b 44 2d be
       -0.05245267 -0.18343005 0.21213013 -0.16920583
000120 b2 82 cd bd e0 7e 09 3e 5f 7b 2d bf 68 20 9d be
       -0.10034694 0.13427305 -0.67766374 -0.30688787
000130 e7 cf e8 be d1 88 13 bd 6d e0 e8 be 01 da eb 3e
       -0.45471117 -0.03601915 -0.45483723 0.4606476
000140 02 66 8b be 17 69 f4 be 52 c3 8b 3e cb b8 df 3d
       -0.27226263 -0.47736427 0.27297455 0.10923918
000150 6d 6a ed 3e a6 5c 13 3e 44 50 ae be bc 8f a3 bd
       0.4637026 0.14390811 -0.34045613 -0.079863995
000160 ad 47 a1 be 43 1d 26 3e 23 4f 50 3e 42 99 b9 be
       -0.31499997 0.162221 0.20342688 -0.3624974
000170 d3 73 4b be 1a 87 a0 3d 5f f2 37 bd ec ba 6a bf
       -0.19868402 0.078382686 -0.044908877 -0.9169147
000180 66 7d 8e 3a 9a 16 5c be de 53 cf bd a5 dc 90 be
       0.0010871112 -0.21492997 -0.10123418 -0.28293338

weight f4 [1, 100]
000000 41 82 bf 3e 39 11 fa 3e 15 94 70 3e 38 2f 20 3f
       0.37404063 0.48841265 0.23493989 0.6257205
000010 04 f4 a8 be 22 37 ad 3e 9b 50 c1 3e d6 39 69 3e
       -0.3299867 0.33831125 0.3775681 0.22775969
000020 80 03 20 bf ea c2 32 bf c7 a7 fc be d7 15 b8 3e
       -0.6250534 -0.69828665 -0.49346754 0.35954162
000030 cd af 8e 3e 67 92 f2 3e 6a 04 28 3f 04 e8 53 bf
       0.278685 0.4737732 0.65631735 -0.827759
000040 d3 47 ab 3e 95 04 96 3c 91 e2 61 bf 2d f6 2a 3f
       0.33453235 0.018312732 -0.8823634 0.66781884
000050 78 f3 ac bf c0 98 5d bf 3b f4 76 bf db 9e 6f bf
       -1.3511801 -0.86561203 -0.96466416 -0.9360177
000060 c8 5b 13 3f 7d a4 ff 3e 3f 8a 06 3f 66 7e 22 3f
       0.5756192 0.49930182 0.52554697 0.6347412
000070 f6 3c 23 3f 44 56 5e 3e 28 36 00 3f 92 a8 8e bf
       0.63764894 0.21712595 0.50082636 -1.1145194
000080 92 d6 14 3f 05 8c e5 3e 2b 4d 86 3e b0 fa bd be
       0.5813991 0.4483339 0.2623075 -0.37105322
000090 ed b1 42 bf a7 55 22 bf 70 52 8b 3e b1 db 43 bf
       -0.76052743 -0.63411945 0.27211332 -0.765071
0000a0 86 39 b5 3e cf f2 ea bf 63 f4 c4 3e ea 6f 3e 3f
       0.3539545 -1.8355349 0.38467702 0.7438952
0000b0 e9 a4 b7 3e 5e d5 b3 3e 4f 1a 26 bf 4b 9c 90 3e
       0.35868004 0.35123724 -0.64883894 0.28244242
0000c0 b7 4f a3 3e 0a 61 18 bf 15 d6 16 3f 4b 3c 85 bf
       0.31896755 -0.5952307 0.58920413 -1.0409025
0000d0 b3 d5 12 bf f6 65 ab bf f3 1e c2 3e 95 6e 9f 3e
       -0.5735733 -1.3390491 0.37914237 0.31139055
0000e0 17 e4 8d 3e 1c 7a b4 bf 0b e8 39 bf 44 75 a5 be
       0.2771308 -1.4099765 -0.72619694 -0.3231603
0000f0 1a 0c 89 bc 1e 71 37 bf 59 89 93 3e cf 99 98 bf
       -0.016729403 -0.7165698 0.28815725 -1.1921939
000100 91 cb 7d bf 53 46 52 bf 05 b1 0b 3f b1 ca 80 be
       -0.9913874 -0.82138556 0.54566985 -0.2515464
000110 38 e2 83 bf cf 57 93 bf 36 44 e0 be 7b d0 be 3e
       -1.0303411 -1.1511172 -0.4380204 0.37268433
000120 c0 08 76 bc 54 73 7b bf 6b e7 40 bf 25 7f 03 3f
       -0.015016735 -0.9822285 -0.75353116 0.5136588
000130 32 0d 90 3e 05 74 05 bf 61 a7 1a 3f 3b 3f a3 3e
       0.28135067 -0.52130157 0.6041165 0.3188418
000140 65 14 64 bf 85 1c 2b bf 1c 7b 53 3e 38 b7 86 be
       -0.8909362 -0.6684039 0.20652431 -0.2631166
000150 46 16 30 bf 73 2b 5c bf a0 91 27 bf b9 8c e5 3e
       -0.68783987 -0.860038 -0.6545658 0.44833925
000160 f5 37 23 3f c1 13 03 3e b6 2b 23 3e eb b5 2f 3f
       0.6375726 0.12800504 0.15934643 0.6863696
000170 1b eb 3d 3d be ef bb 3e 13 5b 34 bf 12 04 16 3f
       0.046366792 0.36706346 -0.7045147 0.5859996
000180 f6 24 7e bf de a9 a0 bf 88 a9 ef 3e e4 fc cd 3e
       -0.9927515 -1.2551839 0.4680903 0.40232003
