reinforcement_learning/results/EndToEnd_actor.pt (torch, 61774 bytes, 6 tensors)

weight f4 [100, 41]
0.038120884 -0.05338238 0.13004975 0.32981983 0.1686397 0.21267055 0.326306 0.062124982
-0.09898048 -0.5324259 -0.2638075 0.58336544 0.8213904 0.22134271 0.2324445 -0.8506133
-0.4600502 -0.20259848 -0.23652984 -0.37805718 -0.43339583 -0.08847095 0.019419413 0.3097719
0.43273228 0.38928685 0.5072831 0.32202494 0.45513707 0.83935696 -0.2126965 0.08150794
-0.2378805 0.1062023 -1.5259117 -0.78667474 -0.53850526 0.04183555 -0.1460916 -0.09971035
0.5118555 -0.08072429 0.35189846 -0.07423175 -0.22635937 -0.14151359 -0.051886015 -0.32773563
-0.37006435 -0.35211295 -0.34029225 -0.34464028 -0.46666178 -0.38492548 -0.31969616 -0.58187354
0.058477983 0.2665057 -0.037880264 -0.2991149 -0.24112043 -0.18898502 0.25129703 0.022922752
-0.21633808 -0.32114688 -0.40974286 -0.34723297 -0.46701577 -0.6303781 -0.78952557 -0.7748373
-0.6963329 -0.7330969 -0.63265 -0.15307015 -0.044489417 0.09593758 -0.13826802 -0.27230567
-0.211769 -0.42694116 -0.27608845 -0.22926822 -0.070019476 0.11174498 0.15014061 0.5339632
0.28207046 0.51673377 0.57437056 0.2676404 0.24540648 0.53401035 0.47925982 0.5126777
-0.64075136 0.25332615 -0.1287448 0.057806127 -0.0057948297 0.15468979 -0.35562956 -0.024268463
0.38371655 0.15734126 -0.13382633 0.153496 0.46004447 0.029041495 0.27601606 -0.025544837
-0.2559599 0.12518306 0.3739291 -0.05896895 -0.20057823 -0.21294089 -0.0065837824 -0.0799955
-0.14245242 -0.38225994 -0.6444423 -0.614579 -0.5904195 -0.25341734 -0.09543857 -0.23248751
-0.50420445 -0.120775215 0.32848796 0.58714795 -0.21873897 -0.7123046 -0.64006114 -0.33085775
-0.15782952 0.0722492 0.3172642 0.41295293 0.03633522 0.73216736 0.42046547 -0.4974944
-0.3549831 -0.35358512 -0.3435677 -0.41736424 -0.48705322 -0.5257413 0.024207331 0.22981483
0.0408588 -0.19998644 -0.18746054 -0.33125716 0.27286682 0.019303666 0.14298627 0.26331148
0.28000638 0.0337765 0.19249593 -0.7178823 -0.2241503 -0.058111317 0.20614143 0.2971588
0.40488166 0.4695794 0.07831021 -0.20219962 -0.61873305 -0.5401501 -0.35672945 -0.37637663
0.20508038 0.0882034 -0.116527505 0.24482132 -0.2829913 0.29018152 0.8590394 0.5338891
-0.21898596 -0.1642749 0.12867928 0.46263707 0.53675765 0.38512978 0.11024436 -0.3736627
-0.53902626 -0.5493158 -0.43245417 -0.3425904 -0.48053262 0.85025805 0.25586966 -0.37205416
-0.2814423 -0.14950942 0.07111823 -0.060398508 -0.04371826 0.14242677 -0.07729906 -0.046721883
-0.20339544 -0.57112753 -0.27106285 -0.3285909 -0.34219173 0.27411833 -0.029910913 -0.619233
0.15593083 0.47284326 0.6062651 -0.5691784 -0.41306636 -0.45399693 -0.3930022 -0.68193156
-0.40740064 -0.36418748 -0.44399542 -0.3693065 -0.19435403 -0.1354356 -0.05594585 -0.14889567
-0.019265266 0.18761641 -0.005717481 -0.23062111 -0.59877145 0.86984783 -0.03441665 0.16883984
-0.435259 -0.7105115 -0.4334505 0.10522891 0.23807336 -0.21992382 0.17820013 -0.10180385
0.011668159 -0.20298043 -0.516231 -0.33849773 -0.19318272 -0.17781393 0.12660779 -0.18754081
00000000: a524 1c3d 7ca7 5abd c32b 053e 25de a83e
00000010: e3af 2c3e 4fc6 593e 9411 a73e c476 7e3d
00000020: 47b6 cabd 104d 08bf c711 87be 7057 153f
00000030: a446 523f aaa7 623e ee05 6e3e cbc1 59bf
00000040: b38b ebbe fa75 4fbe e134 72be b690 c1be
00000050: 0fe6 ddbe 4230 b5bd 7615 9f3c 6c9a 9e3e
00000060: 168f dd3e 9b50 c73e 4edd 013f 74e0 a43e
00000070: ba07 e93e 19e0 563f 1ccd 59be a3ed a63d
00000080: f296 73be 9780 d93d 1351 c3bf 8463 49bf
00000090: 7bdb 09bf c15b 2b3d 0999 15be f134 ccbd
000000a0: f608 033f c752 a5bd 092c b43e d106 98bd
000000b0: c0ca 67be f0e8 10be 6e86 54bd f7cc a7be
000000c0: 1379 bdbe 2648 b4be c93a aebe b174 b0be
000000d0: 4bee eebe f414 c5be 37af a3be aaf5 14bf
000000e0: 9c86 6f3d 6f73 883e 5628 1bbd 9725 99be
000000f0: 46e8 76be 4a85 41be 01aa 803e 7fc8 bb3c
00000100: bb87 5dbe 5d6d a4be d1c9 d1be 85c8 b1be
00000110: b11c efbe 7660 21bf 591e 4abf bd5b 46bf
00000120: df42 32bf 3dac 3bbf 5af5 21bf 6cbe 1cbe
00000130: 893a 36bd ec7a c43d 2296 0dbe a66b 8bbe
00000140: f9d9 58be 0898 dabe 775b 8dbe 4ac5 6abe
00000150: 5f66 8fbd 8dda e43d 76be 193e d0b1 083f
00000160: 8a6b 903e aa48 043f f309 133f 2a08 893e
00000170: d64b 7b3e e7b4 083f 8b61 f53e d93e 033f
00000180: 4808 24bf f7b3 813e add5 03be 1ec6 6c3d
00000190: 8ee2 bdbb 0067 1e3e 1415 b6be a8ce c6bc
000001a0: 7f76 c43e 111e 213e c509 09be 0e2e 1d3e
000001b0: f38a eb3e 6ee8 ed3c fa51 8d3e 6843 d1bc
000001c0: 2d0d 83be fd2f 003e a373 bf3e 6d89 71bd
000001d0: 6164 4dbe 2d0d 5abe c5bc d7bb aed4 a3bd
000001e0: 0cdf 11be 93b7 c3be 2cfa 24bf 0d55 1dbf
000001f0: bb25 17bf ebbf 81be 4c75 c3bd 3511 6ebe
00000200: 8b13 01bf ff58 f7bd 932f a83e 544f 163f
00000210: 1cfd 5fbe 9859 36bf 0cdb 23bf 3066 a9be
00000220: 109e 21be 63f7 933d 7470 a23e 916e d33e
00000230: 3dd4 143d 526f 3b3f 4047 d73e 96b7 febe
00000240: 58c0 b5be 1c09 b5be 1be8 afbe c4b0 d5be
00000250: 0a5f f9be fb96 06bf 744e c63c 9454 6b3e
00000260: 8f5b 273d 3fc9 4cbe a8f5 3fbe 8a9a a9be
00000270: 33b5 8b3e b922 9e3c fe6a 123e c3d0 863e
00000280: ff5c 8f3e 3a59 0a3d a71d 453e 22c7 37bf
00000290: a887 65be 2206 6ebd bd16 533e 3325 983e
000002a0: a64c cf3e b66c f03e 1a61 a03d 6b0d 4fbe
000002b0: 4a65 1ebf 4747 0abf 3ea5 b6be 70b4 c0be
000002c0: 9700 523e fca3 b43d f9a5 eebd 71b2 7a3e
000002d0: 3ce4 90be ac92 943e 02ea 5b3f f5ac 083f
000002e0: db3d 60be ae37 28be 80c4 033e c4de ec3e
000002f0: f368 093f bb2f c53e ccc7 e13d b850 bfbe
00000300: a0fd 09bf f69f 0cbf a26a ddbe 0268 afbe
00000310: 5f08 f6be 83aa 593f 5901 833e e27d bebe
00000320: 3519 90be ff18 19be 6fa6 913d 6d64 77bd
00000330: eb11 33bd 53d8 113e f84e 9ebd 725f 3fbd
00000340: e546 50be 6a35 12bf c0c8 8abe 113d a8be
00000350: c133 afbe 3d59 8c3e bb07 f5bc 0e86 1ebf
00000360: 55ac 1f3e 8318 f23e 3134 1b3f adb5 11bf
00000370: 6f7d d3be 4972 e8be 9637 c9be 1193 2ebf
00000380: d196 d0be c876 babe 5e53 e3be be15 bdbe
00000390: be04 47be a1af 0abe 7a27 65bd 1b78 18be
000003a0: 31d2 9dbc 841e 403e b559 bbbb f127 6cbe
000003b0: 1649 19bf 59ae 5e3f 79f8 0cbd 5ae4 2c3e
000003c0: 45da debe 15e4 35bf 39ed ddbe 4182 d73d
000003d0: 81c9 733e b633 61be 187a 363e 897e d0bd
000003e0: ce2b 3f3c 1ada 4fbe b727 04bf 934f adbe
000003f0: b1d1 45be db14 36be 79a5 013e b30a 40be

bias f4 [100]
0.037279844 0.098715134 -0.6370524 -0.100639686 0.15969163 0.37703001 0.010411233 -0.80694705
-0.08201715 0.19431295 -0.18483217 -0.86856323 -0.11524329 -0.014134603 0.43882212 0.041237235
0.20724575 0.04475356 -0.26901639 0.52567077 0.63424885 -0.2308424 0.17900145 -0.46091825
-0.043128055 0.267705 0.0972238 -0.67344046 -0.118297994 0.2798739 -0.16501334 -0.17400056
0.040717438 -1.134182 -0.12646204 0.58686656 0.19033267 -0.021729602 0.08018342 -0.27882683
-0.44772303 -0.17503709 0.16405971 0.7940878 0.6413009 -0.2534074 0.9466832 -0.3182485
0.39976257 0.019611308 0.5077494 0.33420393 0.46221521 -0.18199462 0.41701037 0.0345592
-0.09010825 -0.11638819 -0.06614407 0.27813515 0.8747236 -0.01935618 0.3728651 0.100608505
-0.22623435 -0.7792003 -0.0043038963 -0.13733278 0.38630906 0.074253365 0.15417816 0.46389744
0.24518238 0.4205549 0.012100326 0.38359135 0.410953 0.09780093 -0.14732921 -0.14319259
-0.14469 -0.07410796 -0.050017532 -0.052817043 -0.13935097 0.37025574 -0.754601 -0.43775943
0.22429381 -0.29630357 -0.4962365 -0.14020608 -0.41887176 0.19407347 0.24028085 -0.63204056
0.5513257 0.042544417 0.08536752 -0.11011912
00000000: c0b2 183d 292b ca3d de15 23bf 2e1c cebd
00000010: 3486 233e 140a c13e e093 2a3c 1594 4ebf
00000020: 9cf8 a7bd f9f9 463e a544 3dbe 295a 5ebf
00000030: ad04 ecbd d294 67bc 4bad e03e 60e8 283d
00000040: 3b38 543e 824f 373d 84bc 89be 5c92 063f
00000050: 225e 223f f361 6cbe 284c 373e 7afd ebbe
00000060: 0ba7 30bd a110 893e 461d c73d 9866 2cbf
00000070: 3846 f2bd a24b 8f3e 42f9 28be 342d 32be
00000080: 54c7 263d e02c 91bf 447f 01be e33c 163f
00000090: 91e6 423e 4702 b2bc 3437 a43d 64c2 8ebe
000000a0: f43b e5be ec3c 33be 45ff 273e 5749 4b3f
000000b0: 4c2c 243f 9dbe 81be d559 723f 78f1 a2be
000000c0: aead cc3e e5a7 a03c ddfb 013f c71c ab3e
000000d0: 79a7 ec3e cc5c 3abe 6282 d53e f38d 0d3d
000000e0: ad8a b8bd ee5c eebd 8b76 87bd bb67 8e3e
000000f0: e3ed 5f3f da90 9ebc 2de8 be3e d50b ce3d
00000100: faa9 67be ac79 47bf b307 8dbb f7a0 0cbe
00000110: 4dca c53e 2612 983d e1e0 1d3e f783 ed3e
00000120: 1711 7b3e f952 d73e 7240 463c 1666 c43e
00000130: 6e68 d23e db4b c83d 78dd 16be 14a1 12be
00000140: 9e29 14be eac5 97bd 2fdf 4cbd af56 58bd
00000150: 05b2 0ebe 2992 bd3e 882d 41bf 0122 e0be
00000160: 47ad 653e 1ab5 97be b612 febe 2f92 0fbe
00000170: 5c76 d6be 32bb 463e 2f0c 763e 69cd 21bf
00000180: ae23 0d3f 0e43 2e3d 2bd5 ae3d 2286 e1bd

weight f4 [100, 100]
-0.07277136 -0.24359135 -0.3850646 -0.09609938 -0.60081595 -0.09323588 -0.7906186 -0.8122921
-0.6196574 -0.12728535 -0.44046304 -0.64919686 -0.19219248 0.38860112 -0.55232817 0.131301
0.21832679 -0.008214836 -0.1568195 -0.1712998 -0.1849346 0.050715405 -0.1877774 -0.33607087
-0.17345555 -0.14284682 0.07799031 -0.5041346 0.46923652 -0.7573104 -0.040252224 -0.28110337
0.22430505 -1.3981636 0.18704215 -0.18144058 0.36000004 -0.21811166 0.20112859 -0.26358685
0.33268937 -0.14594913 -0.7626108 -0.6606473 -0.55916226 0.17044622 -0.009496828 -0.20884971
0.04952746 0.11338703 -0.17324205 -0.14973053 -0.23477088 -0.058320653 -0.2740903 0.12559558
-0.12773873 -1.675732 0.102639586 -0.12621449 -0.25898546 -0.07551725 -0.22203518 -0.3452484
-0.5465815 0.23185687 0.068274215 0.00857348 0.3400709 -1.2448635 -0.17731534 -0.14070824
-0.14651172 0.1559011 0.04137471 -0.17241445 -0.3031514 0.50251603 0.8453457 0.04868963
0.15323359 -0.037285317 -0.3974739 -0.7719133 -0.3974713 0.50626725 -0.8768344 0.04257017
-0.34722918 -0.5493737 -0.2712072 0.09683509 -0.26307717 0.12580797 0.16096628 0.077412836
0.060790103 0.19632502 -1.0359406 -0.035280842 -0.040981185 0.018460197 -0.047525458 0.035011776
0.028021801 -0.114893734 -0.033971168 -0.057620898 -0.12231412 0.08203806 0.032561235 0.0112998625
-0.10563902 0.007406268 0.024851887 -0.11288137 -0.09216931 -0.04233727 -0.09949813 0.05823598
-0.012946535 0.04081404 -0.09870507 0.03848609 -0.104036674 0.02559749 -0.045976765 0.012295905
0.071272105 -0.07407367 -0.006562073 0.05292891 -0.14564504 -0.042019714 0.015336915 -0.0057046963
0.02786134 -0.0059491447 -0.014209342 -0.06884061 -0.10783257 -0.0077301078 0.061796002 0.0057064397
-0.064184785 -0.0040300656 -0.035045646 -0.06997007 -0.07818967 -0.106560975 -0.08970271 -0.0068681827
-0.057941556 -0.07074868 0.036766205 -0.033195082 -0.030355347 -0.15403968 -0.0208341 -0.053574283
0.034795664 -0.07330501 0.061764274 -0.07181476 -0.003711349 -0.11946052 0.064517744 0.07057682
-0.070213355 -0.11621019 -0.06815851 0.046793398 -0.066794254 -0.07912984 0.043359425 0.0041894605
0.01675579 0.030024907 0.033512462 0.013145256 -0.14214353 0.052126016 -0.05579669 0.022406919
-0.0015332503 -0.062296703 -0.050127022 -0.01748078 0.03463181 -0.20296524 -0.055359956 -0.058380783
-0.13979132 -0.026118267 -0.17944418 0.019668497 -0.06606017 -0.18282494 0.0038707838 -0.07080512
0.17663923 -0.10247062 -0.6691586 0.60476756 0.16516125 0.43203324 -0.30633253 -0.90112865
-0.53323346 -0.30464458 -0.31230286 -0.3376627 -0.15940459 -0.4135478 0.21591154 -0.19525908
0.5055821 0.09865247 -0.434668 -0.26900703 0.09254811 -0.8097038 -0.1315221 0.055805434
-0.37845102 -0.3308414 -0.39215493 -0.26279268 0.22597615 0.6621877 0.48112968 -0.37056693
-0.2660433 -1.5237374 0.21817149 0.548429 -0.2690052 0.18863916 -0.66200143 0.27365997
-0.3941013 0.38269815 -0.56370085 0.5075199 -0.57312614 -0.6538262 0.009481049 -0.14121252
-0.23879918 0.41078824 0.22165306 0.62636274 -0.04892086 -0.0016783879 0.1998599 -0.008824267
00000000: 2709 95bd 0370 79be 3027 c5be c0cf c4bd
00000010: 13cf 19bf 74f2 bebd fb65 4abf 60f2 4fbf
00000020: dea1 1ebf 1757 02be 5f84 e1be c431 26bf
00000030: 1bce 44be baf6 c63e 6165 0dbf c573 063e
00000040: 0f91 5f3e 8597 06bc 4a95 20be 3769 2fbe
00000050: 7f5f 3dbe f5ba 4f3d b848 40be 7b11 acbe
00000060: 559e 31be 7046 12be 62b9 9f3d f70e 01bf
00000070: c53f f03e 18df 41bf 84df 24bd c8ec 8fbe
00000080: 39b0 653e 06f7 b2bf fa87 3f3e 8fcb 39be
00000090: ed51 b83e aa58 5fbe a7f4 4d3e dbf4 86be
000000a0: 4356 aa3e b073 15be 763a 43bf 2e20 29bf
000000b0: 4225 0fbf 7489 2e3e 9598 1bbc b3dc 55be
000000c0: 4edd 4a3d 7637 e83d 5d66 31be f652 19be
000000d0: c767 70be a3e1 6ebd 9055 8cbe 219c 003e
000000e0: f1cd 02be 637e d6bf b434 d23d 5f3e 01be
000000f0: be99 84be caa8 9abd 315d 63be 66c4 b0be
00000100: c4ec 0bbf e36b 6d3e 5ad3 8b3d c877 0c3c
00000110: c61d ae3e b057 9fbf 2792 35be d215 10be
00000120: 2b07 16be 8aa4 1f3e 8778 293d 6a8d 30be
00000130: a936 9bbe e4a4 003f 9368 583f c76e 473d
00000140: 44e9 1c3e 7db8 18bd b381 cbbe 1c9c 45bf
00000150: 5c81 cbbe bb9a 013f 3878 60bf 0f5e 2e3d
00000160: 06c8 b1be c1a3 0cbf acdb 8abe 7a51 c63d
00000170: 0db2 86be ced3 003e 58d4 243e 9f8a 9e3d
00000180: 0bff 783d 6d09 493e b499 84bf a582 10bd
00000190: e3db 27bd d739 973c 0eaa 42bd 8268 0f3d
000001a0: fa8d e53c 684d ebbd 5a25 0bbd e403 6cbd
000001b0: d37f fabd 9203 a83d ee5e 053d 0f23 393c
000001c0: 4559 d8bd 47b0 f23b 2f96 cb3c 592e e7bd
000001d0: 43c3 bcbd d869 2dbd adc5 cbbd da88 6e3d
000001e0: b41d 54bc 9f2c 273d e225 cabd 97a3 1d3d
000001f0: 2e11 d5bd d4b1 d13c 2252 3cbd c374 493c
00000200: 1cf7 913d f0b3 97bd a806 d7bb fccb 583d
00000210: f923 15be dd1c 2cbd af47 7b3c 76ee babb
00000220: 773d e43c 0bf1 c2bb 4dce 68bc 4efc 8cbd
00000230: 53d7 dcbd d84c fdbb ce1d 7d3d 16fd ba3b
00000240: 5073 83bd a40e 84bb 068c 0fbd 784c 8fbd
00000250: e821 a0bd a43c dabd 0eb6 b7bd 7e0e e1bb
00000260: 2054 6dbd afe4 90bd 2998 163d 91f7 07bd
00000270: c7ab f8bc 94bc 1dbe 46ac aabc b570 5bbd
00000280: e685 0e3d f020 96bd 89fc 7c3d 9e13 93bd
00000290: 1b3a 73bb b8a7 f4bd e121 843d 948a 903d
000002a0: 05cc 8fbd 9cff edbd b096 8bbd 6faa 3f3d
000002b0: 6dcb 88bd d30e a2bd a799 313d be47 893b
000002c0: 7043 893c cbf6 f53c 5d44 093d 335f 573c
000002d0: 138e 11be 1782 553d 128b 64bd b78e b73c
000002e0: 58f7 c8ba d42a 7fbd fe51 4dbd da33 8fbc
000002f0: 16da 0d3d 1fd6 4fbe 1fc1 62bd b020 6fbd
00000300: 7525 0fbe faf5 d5bc 37c0 37be d41f a13c
00000310: 8e4a 87bd 7636 3bbe faac 7d3b 4602 91bd
00000320: eae0 343e 1edc d1bd fa4d 2bbf 0cd2 1a3f
00000330: 0820 293e 7633 dd3e 9ed7 9cbe 5eb0 66bf
00000340: fd81 08bf 60fa 9bbe 29e6 9fbe 20e2 acbe
00000350: f53a 23be 8abc d3be ea17 5d3e fff1 47be
00000360: d46d 013f 4e0a ca3d ce8c debe 4abb 89be
00000370: dd89 bd3d c048 4fbf bbad 06be 3d94 643d
00000380: 55c4 c1be 0b64 a9be 88c8 c8be c38c 86be
00000390: 4b66 673e 2285 293f a156 f63e f3ba bdbe
000003a0: d436 88be d409 c3bf 5968 5f3e d865 0c3f
000003b0: 0dbb 89be a02a 413e ed78 29bf 291d 8c3e
000003c0: a5c7 c9be 03f1 c33e b34e 10bf d3ec 013f
000003d0: 65b8 12bf 2761 27bf 6756 1b3c 049a 10be
000003e0: c687 74be d652 d23e 05f9 623e 4f59 203f
000003f0: 3d61 48bd 5afd dbba 13a8 4c3e a993 10bc

bias f4 [100]
-0.06013126 -0.075256206 0.006294149 0.29599693 0.27932376 -0.012513269 0.37530857 -0.11641593
-0.00039011607 0.11898858 -0.25551903 -0.0708608 -0.3979165 -0.42481175 -0.24774215 0.3964049
0.052176353 -0.16616201 -0.5847449 -0.336492 -0.19151531 -0.11285041 -0.17870116 -0.06773863
-0.31452313 -0.009830794 0.4353233 -0.028842684 -0.6264386 -0.13437952 0.32778767 -0.12887329
0.14507864 -0.26041082 -0.13351184 -0.60567963 -0.13378243 -0.1281167 -0.025337689 -0.535674
0.20033 0.056206662 0.13954055 -0.3777128 -0.5146592 -0.25378045 -0.0014998877 -0.34857452
-0.32432213 -0.19820236 0.056468107 0.102429256 -0.1621839 -0.5596076 -0.38273194 -0.14404239
0.20913292 -0.10028992 0.50462806 -0.04531615 0.27782378 -0.45009425 -0.7116531 -0.46360835
-0.10322965 -0.061736498 -0.3199512 -0.03351074 -0.09233576 -0.0279977 0.49739993 0.00498359
-0.13593298 0.07724161 -0.29838988 -0.4480912 -0.05582295 -0.051957555 -0.1702239 0.32907018
-0.2616263 -0.11545716 0.51347923 -0.13832463 0.034208655 -0.19203328 -0.26517785 -0.103885114
-0.17763533 -0.111578085 -0.2025259 -0.029631741 -0.11885373 -0.12589824 -0.35137776 0.064553894
-0.11492836 0.20125306 -0.4136588 0.16094393
00000000: 324c 76bd ed1f 9abd 263f ce3b e98c 973e
00000010: 8603 8f3e 7404 4dbc 7228 c03e 7a6b eebd
00000020: 7e88 ccb9 49b0 f33d 64d3 82be 781f 91bd
00000030: b6bb cbbe ed80 d9be 1eb0 7dbe 95f5 ca3e
00000040: dfb6 553d 6026 2abe d7b1 15bf ae48 acbe
00000050: 971c 44be 1e1e e7bd 70fd 36be 8dba 8abd
00000060: 2d09 a1be 5711 21bc b2e2 de3e 7e47 ecbc
00000070: 485e 20bf c99a 09be c9d3 a73e 5cf7 03be
00000080: 7f8f 143e 9154 85be 54b7 08be d20d 1bbf
00000090: 43fe 08be 0631 03be fc90 cfbc ee21 09bf
000000a0: 4f23 4d3e f538 663d b8e3 0e3e 9263 c1be
000000b0: b5c0 03bf 83ef 81be e197 c4ba 5c78 b2be
000000c0: 8d0d a6be 8ff5 4abe 1a4b 673d 6ec6 d13d
000000d0: 8913 26be 7242 0fbf 71f5 c3be d97f 13be
000000e0: f126 563e cd64 cdbd 4e2f 013f 6d9d 39bd
000000f0: eb3e 8e3e c172 e6be e62e 36bf 135e edbe
00000100: 116a d3bd 69df 7cbd a5d0 a3be 8f42 09bd
00000110: 881a bdbd 6f5b e5bc 34ab fe3e 624d a33b
00000120: 0432 0bbe d930 9e3d 8fc6 98be 366c e5be
00000130: 9ba6 64bd 72d1 54bd 2d4f 2ebe e37b a83e
00000140: e2f3 85be ce74 ecbd 6073 033f f9a4 0dbe
00000150: 601e 0c3d 5fa4 44be 64c5 87be b8c1 d4bd
00000160: 09e6 35be 0d83 e4bd f362 4fbe 44be f2bc
00000170: 9669 f3bd 78eb 00be c9e7 b3be d534 843d
00000180: 8f5f ebbd 4815 4e3e 16cb d3be 7cce 243e

weight f4 [2, 100]
0.14475927 -0.011269104 -0.29294986 0.89245063 0.12602615 -0.22122093 -0.5391937 0.0593234
-0.016879821 -0.19160709 -0.239224 0.28060618 -0.19983236 -1.3753773 -1.401556 4.159784
1.3818611 -0.42850322 1.1446645 -0.62838626 -0.16536276 -0.004539661 -0.5427949 0.09278794
-0.8381222 0.08260179 0.487022 0.022953007 -0.1284828 -1.7585701 -0.2155884 0.4223853
-0.118986 0.20385309 -0.526677 -2.35452 0.08290067 0.0065813465 0.01799953 0.16322993
0.10226587 0.3589494 0.16910166 -0.058269754 -0.0014078803 1.341003 0.007075225 0.21595083
-0.059960783 -0.70257723 0.67842484 -0.29191053 0.03845141 -0.7422481 -1.0210512 0.01741806
1.9487168 0.057491664 1.1032069 -2.3408709 -0.13794322 -0.2729553 1.4959605 0.17435615
0.23011087 0.026015902 -2.1126714 -0.10513216 -0.044782065 -0.0021193791 4.5077047 0.7174389
-0.011367442 -0.089907736 0.15106788 -0.05293936 -0.0068352167 -1.5841534 -1.1381962 -0.1741064
-0.0344441 0.0013140982 -0.15369874 0.057258338 -4.7385015 0.0001583711 -1.0520142 0.0046491236
-1.756758 -0.26806334 0.109871 0.40617657 -0.3499034 -0.017685842 -0.12472949 0.28308463
-0.008303989 0.17837363 0.15806636 -1.1982294 -1.0184327 -0.103098504 -1.274373 0.11493206
0.36101466 0.1866792 -0.15347892 -0.13433401 0.042436544 0.3513807 -0.86793125 -0.45129827
-0.117226854 0.36281657 0.060521424 0.37888414 -1.9851003 -0.20726503 0.25573847 -0.00914766
-1.6727211 -0.010795075 0.23517443 0.015036546 -0.7316875 0.014053494 0.07507248 -0.080920465
0.31153506 -1.1796247 0.058750927 0.36356136 -0.23598139 -2.7546408 1.9232723 -0.5232919
0.030962793 0.04328249 0.0016249911 0.7982589 0.4035619 -0.100577444 0.12363258 -0.5681927
0.36311603 0.42224568 0.015422302 -0.35764453 -0.54926264 1.0713505 0.26901948 -0.42913875
-0.024511585 0.8856223 -3.1578047 -0.06693294 0.12566935 0.055917848 -0.2729543 -0.49765727
0.675727 -0.056682054 0.27726287 -4.454771 0.10015023 0.023116153 0.22721937 1.3191535
0.110666 0.047458865 0.29064438 -0.6236696 -1.6732583 -0.30614352 -1.3000958 0.76310635
-0.8501053 -0.09739762 -3.7491424 -0.116280615 0.5186011 -0.011383207 -0.0102601135 0.01625158
-1.8752939 -0.21307355 0.3058221 0.011007739 -0.09191926 -2.4754524 -0.16410552 -2.6051989
-0.03823221 -0.0688167 1.9164062 0.6532152 0.04308293 -0.059620522 -0.017966283 0.442266
00000000: c63b 143e 0ca2 38bc 86fd 95be a577 643f
00000010: 000d 013e bd87 62be 9908 0abf 18fd 723d
00000020: 8d47 8abc a634 44be 23f7 74be 9dab 8f3e
00000030: dba0 4cbe 5d0c b0bf 3066 b3bf f31c 8540
00000040: d3e0 b03f c664 dbbe 5e84 923f ecdd 20bf
00000050: db54 29be 70c1 94bb 9bf4 0abf 9a07 be3d
00000060: 2d8f 56bf 212b a93d f35a f93e f207 bc3c
00000070: ff90 03be d318 e1bf 35c3 5cbe e342 d83e
00000080: efae f3bd ddbe 503e 4ed4 06bf 75b0 16c0
00000090: d4c7 a93d 56a8 d73b c073 933c bf25 273e
000000a0: c570 d13d 37c8 b73e fc28 2d3e 44ac 6ebd
000000b0: a088 b8ba fca5 ab3f 4ad7 e73b 3722 5d3e
000000c0: 7099 75bd 1adc 33bf 40ad 2d3f 4c75 95be
000000d0: 3a7f 1d3d f903 3ebf ceb1 82bf 52b0 8e3c
000000e0: 8d6f f93f 617c 6b3d e235 8d3f d4d0 15c0
000000f0: fd40 0dbe ccc0 8bbe a27b bf3f 6b8a 323e
00000100: 2fa2 6b3e 4d1f d53c 0236 07c0 884f d7bd
00000110: 666d 37bd 48e5 0abb 1e3f 9040 13aa 373f
00000120: 823e 3abc 8c21 b8bd 8ab1 1a3e f1d6 58bd
00000130: f4f9 dfbb 8ac5 cabf 6ab0 91bf f348 32be
00000140: 4215 0dbd d23d ac3a 3463 1dbe b887 6a3d
00000150: cea1 97c0 6b10 2639 67a8 86bf ad57 983b
00000160: 72dd e0bf 993f 89be 0c04 e13d 60f6 cf3e
00000170: 8a26 b3be e6e1 90bc 2d72 ffbd 78f0 903e
00000180: 740d 08bc 94a7 363e 26dc 213e 955f 99bf
00000190: 015c 82bf 4f25 d3bd a81e a3bf 8061 eb3d
000001a0: ead6 b83e d528 3f3e 9429 1dbe db8e 09be
000001b0: f1d1 2d3d 2ce8 b33e be30 5ebf 9110 e7be
000001c0: a214 f0bd 18c3 b93e 50e5 773d 1afd c13e
000001d0: c417 febf 493d 54be 27f0 823e 11e0 15bc
000001e0: ba1b d6bf d4dd 30bc 91d1 703e d85b 763c
000001f0: df4f 3bbf a040 663c 9abf 993d a1b9 a5bd
00000200: 8681 9f3e f1fd 96bf d0a4 703d b724 ba3e
00000210: 1ba5 71be 094c 30c0 c92d f63f 75f6 05bf
00000220: afa5 fd3c fb48 313d a7fd d43a b25a 4c3f
00000230: aa9f ce3e 8cfb cdbd 1433 fd3d 1475 11bf
00000240: 58ea b93e 9630 d83e d3ad 7c3c 2f1d b7be
00000250: 7a9c 0cbf 0322 893f ecbc 893e 13b8 dbbe
00000260: 85cc c8bc 25b8 623f 7919 4ac0 2314 89bd
00000270: 77af 003e 1d0a 653d aac0 8bbe efcc febe
00000280: 72fc 2c3f 712b 68bd 66f5 8d3e 7c8d 8ec0
00000290: 901b cd3d 165e bd3c 32ac 683e 06da a83f
000002a0: dba4 e23d 3a64 423d 57cf 943e d0a8 1fbf
000002b0: 542d d6bf d8be 9cbe 8a69 a6bf f05a 433f
000002c0: 80a0 59bf 6778 c7bd f3f1 6fc0 8824 eebd
000002d0: 0bc3 043f a180 3abc 091a 28bc 0922 853c
000002e0: a109 f0bf f42f 5abe b794 9c3e ce59 343c
000002f0: 2a40 bcbd d06d 1ec0 470b 28be 94bb 26c0
00000300: 6199 1cbd c5ef 8cbd cc4c f53f 1d39 273f
00000310: ba77 303d a634 74bd 072e 93bc b070 e23e

bias f4 [2]
0.25712976 -0.40247717
00000000: 83a6 833e 7d11 cebe
