reinforcement_learning/results/EndToEnd_critic1(test).pt (torch, 62114 bytes, 5 tensors)

weight f4 [100, 43]
-1.3379356 -1.0989672 -1.1817697 -0.8905123 -0.8725559 -0.8899651 -1.0920354 -0.7191264
-0.8798707 -0.7146078 -0.46842346 -0.043317992 0.35880873 0.12373352 0.2933168 0.29676083
0.24787258 0.20359601 0.15760356 0.33302528 -0.7204764 -0.8518485 -0.66726553 -0.5022659
-0.9690944 -0.9819282 -0.65616405 -0.76883036 -0.57004285 -0.6209121 -0.34379473 0.118526325
0.2190909 0.24342962 0.17597662 0.17212228 0.3049896 0.25351745 0.13472657 0.07513847
0.46326113 -1.5078169 -0.4609516 -0.33901468 0.15212835 0.27066943 0.22579093 0.2873785
0.36928007 0.45979872 0.18272346 0.20087077 0.12897746 0.18118761 0.2825542 0.07982789
0.24405417 0.35660788 0.414944 -0.44234484 0.024926035 0.0005180521 0.071517244 -0.20401344
0.04635265 0.061775554 0.12736572 0.30109867 0.2962313 0.2306265 0.10312244 -0.047604803
-0.12380553 -0.1555159 -0.074246146 0.050322015 0.1831982 -0.11057189 -0.16570832 0.018117575
0.08452147 0.0051707756 -0.11665602 -0.5718469 0.33644786 0.20098971 -0.10896715 -0.12066984
0.0052063963 -0.0037540908 0.15992397 0.147736 0.39207333 0.58142006 0.48702872 0.20436221
0.09205633 0.28090513 0.24118514 0.19293693 0.116126634 0.07677033 -0.2056733 -0.28336173
-0.13700575 0.04667944 -0.05397641 -0.03688149 -0.1699461 -0.23114637 0.12602699 0.18473336
0.27550277 0.12640558 0.08008067 0.037262652 0.08367256 0.15970139 -3.146618e-05 0.03716715
0.03840487 0.12858829 0.22584677 0.0071445666 0.059633505 0.08478164 -0.39237872 0.047711268
-0.048479088 -0.42763263 -0.2435405 0.00827941 -0.18724746 0.03127077 0.07271177 0.20339386
-0.039323956 0.3658464 0.034774475 0.41483924 -0.20110895 -0.15408623 0.071204096 -0.022369483
0.47425914 0.057852313 -0.36211812 -0.15117058 -0.13341276 -0.23249553 -0.27986908 -0.11250451
-0.16480532 -0.18547145 0.122325175 0.39612257 0.48819682 0.058749955 -0.112233564 0.32216462
-0.48623258 -0.25540218 -0.06679655 -0.124855936 -0.06937262 -0.5909306 -0.11998603 -0.25774702
0.33160996 0.1599507 -1.005871 0.26773053 0.052421894 0.25014213 -0.096008375 -0.19061215
0.0762572 0.13382632 0.18117422 -0.45521936 -0.5265591 -0.0058506248 0.11434739 0.067108564
0.4158966 -0.24431592 0.13971986 -0.66375315 -0.1708528 0.05059472 -0.2845137 -0.1359696
0.044731196 0.21877357 0.109845705 0.1498695 0.19843107 0.31413758 0.14829616 0.23148361
0.3748384 0.10406357 -0.048778664 -0.02819846 -0.020815663 -0.40675384 0.0752531 -0.08226084
0.14751028 0.12117232 -0.10898779 0.0459034 0.039805397 -0.6332497 0.14876527 0.06313311
-0.021560317 0.04674259 0.10121296 -0.18770716 -0.026948301 -0.14331993 0.0750132 -0.054934308
-0.03176478 -0.09146781 -0.09864179 -0.20238973 -0.09210709 0.06520898 -0.2683065 0.046738114
0.11858537 0.08387854 -0.09373994 -0.11312763 -0.11973326 0.085751444 0.009851847 0.00799281
-0.12846345 -0.03742831 -0.15419106 -0.08016822 -0.102087855 0.013506535 -0.09913356 0.09879782
-0.17476396 -0.17346367 0.009836415 0.065809354 -0.108012855 0.14985275 -0.09472254 0.10315628
00000000: 7941 abbf f5aa 8cbf 3b44 97bf 9df8 63bf
00000010: d35f 5fbf c1d4 63bf d1c7 8bbf ab18 38bf
00000020: 353f 61bf 89f0 36bf 33d5 efbe 356e 31bd
00000030: c7b5 b73e 0068 fd3d 9f2d 963e 09f1 973e
00000040: 4fd2 7d3e 797b 503e d462 213e 4a82 aa3e
00000050: 2471 38bf be12 5abf ead1 2abf 7f94 00bf
00000060: 9216 78bf a65f 7bbf 5efa 27bf 11d2 44bf
00000070: 54ee 11bf 18f4 1ebf dd05 b0be eebd f23d
00000080: 5d59 603e 9d45 793e 3733 343e d340 303e
00000090: 9927 9c3e 0acd 813e c3f5 093e 33e2 993d
000000a0: 9030 ed3e 2500 c1bf d901 ecbe 5593 adbe
000000b0: 89c7 1b3e 2f95 8a3e bd35 673e 4623 933e
000000c0: 4712 bd3e bd6a eb3e dc1b 3b3e 11b1 4d3e
000000d0: ab12 043e 3f89 393e f2aa 903e ce7c a33d
000000e0: 56e9 793e 4f95 b63e 8a73 d43e 067b e2be
000000f0: af31 cc3c e3cd 073a a277 923d e6e8 50be
00000100: 47dc 3d3d 5d08 7d3d 296c 023e 9b29 9a3e
00000110: a1ab 973e 5a29 6c3e dc31 d33d 41fd 42bd
00000120: c18d fdbd 8f3f 1fbe 5d0e 98bd 751e 4e3d
00000130: 4f98 3b3e 8473 e2bd 71af 29be 4f6b 943c
00000140: 9819 ad3d 9c6f a93b 5ae9 eebd 8f64 12bf
00000150: e542 ac3e 3fd0 4d3e 2b2a dfbd c021 f7bd
00000160: 6b9a aa3b 3107 76bb 1cc3 233e 1b48 173e
00000170: d6bd c83e f2d7 143f d45b f93e 5444 513e
00000180: 0788 bc3d ccd2 8f3e 3df9 763e 4291 453e
00000190: cdd3 ed3d c339 9d3d 069c 52be ca14 91be
000001a0: 3c4b 0cbe f132 3f3d 5e16 5dbd 0c11 17bd
000001b0: 5a06 2ebe a2b1 6cbe 380d 013e be2a 3d3e
000001c0: b30e 8d3e 7770 013e 5601 a43d b9a0 183d
000001d0: 855c ab3d c388 233e 8efa 03b8 953c 183d
000001e0: 6d4e 1d3d a6ac 033e 6044 673e f81c ea3b
000001f0: 4342 743d ffa1 ad3d dde5 c8be e46c 433d
00000200: 0292 46bd aaf2 dabe ae62 79be 5da6 073c
00000210: ccbd 3fbe c715 003d e9e9 943d 7b46 503e
00000220: 2812 21bd 3850 bb3e ae6f 0e3d cf65 d43e
00000230: 81ef 4dbe c8c8 1dbe 74d3 913d 3540 b7bc
00000240: 18d2 f23e 8cf6 6c3d 8c67 b9be 76cc 1abe
00000250: 5b9d 08be 4f13 6ebe 004b 8fbe c468 e6bd
00000260: bac2 28be 3aec 3dbe 9f85 fa3d 94d0 ca3e
00000270: eff4 f93e cba3 703d b6da e5bd c3f2 a43e
00000280: 7af3 f8be 13c4 82be a1cc 88bd 78b4 ffbd
00000290: 3b13 8ebd 3a47 17bf 3cbb f5bd 6bf7 83be
000002a0: c8c8 a93e 1eca 233e 62c0 80bf fa13 893e
000002b0: 57b8 563d a112 803e 0aa0 c4bd d52f 43be
000002c0: bc2c 9c3d c409 093e bc85 393e 8312 e9be
000002d0: 94cc 06bf 99b6 bfbb f72e ea3d 3770 893d
000002e0: 66f0 d43e f42d 7abe b912 0f3e baeb 29bf
000002f0: 09f4 2ebe 693c 4f3d c8ab 91be 9d3b 0bbe
00000300: 0f38 373d 2e06 603e c9f6 e03d 6477 193e
00000310: 8431 4b3e a4d6 a03e f3da 173e 0a0a 6d3e
00000320: d2ea bf3e 481f d53d 23cc 47bd 7500 e7bc
00000330: 9c85 aabc 0a42 d0be 4c1e 9a3d 5f78 a8bd
00000340: ef0c 173e 3129 f83d fe34 dfbd 3405 3c3d
00000350: fc0a 233d a71c 22bf ec55 183e ef4b 813d
00000360: 439f b0bc 2875 3f3d be48 cf3d 4e36 40be
00000370: afc2 dcbc 76c2 12be 85a0 993d cc02 61bd
00000380: c91b 02bd 7a53 bbbd b504 cabd 413f 4fbe
00000390: a4a2 bcbd 498c 853d 785f 89be 7770 3f3d
000003a0: e3dc f23d 83c8 ab3d bafa bfbd 75af e7bd
000003b0: b636 f5bd 749e af3d a469 213c 46f4 023c
000003c0: ec8b 03be 6d4e 19bd 43e4 1dbe 3c2f a4bd
000003d0: 7013 d1bd 844a 5d3c 8906 cbbd 8356 ca3d
000003e0: 53f5 32be 76a0 31be ea28 213c 0ec7 863d
000003f0: d835 ddbd 0073 193e e4fd c1bd 9a43 d33d

bias f4 [100]
0.12836204 -0.59831494 -0.76082426 -0.1838415 0.22076623 -0.101274036 0.6131525 0.066451006
0.46056187 -0.07663548 0.42231965 0.4313372 0.4674411 0.1594226 0.18693188 -0.01499882
-0.054917905 0.01741005 -0.16490503 0.3274883 -0.09264748 0.23821425 0.40015998 0.0022279704
-0.28923914 0.23190576 0.020671323 -0.32629985 -0.024656449 0.27385512 -0.016325533 0.18781054
0.55531687 -0.07613977 -0.2546587 0.23872352 0.45538905 -0.14366707 0.09420906 0.117576785
0.6514313 -0.08495866 -0.019849852 -0.34670597 0.48062524 0.36835545 0.06578969 -0.016719194
-0.46277183 -0.16258772 0.030383952 -0.52146906 -0.12815042 0.5554786 -0.26987362 -0.088106744
-0.070409775 -0.14971188 -0.027352849 0.63219213 -0.2929193 0.1456254 -0.10016264 -0.33550036
0.52010137 -0.10746099 -0.23098236 -0.13705376 0.33940735 -0.19790427 -0.34253797 -0.06042678
-0.16197264 0.36349127 0.17992073 -0.22653776 0.67865986 -0.06787045 -0.14778408 0.58003354
0.25773275 -0.0070909886 -0.3876887 0.03550184 0.38968375 -0.022898708 0.3717667 -0.53890985
0.5659283 -0.20253004 -0.21636604 0.19985154 -0.27678403 0.24702515 0.37960705 0.19567658
0.15226229 -0.15826164 0.3542627 -0.058149375
00000000: 5771 033e 2b2b 19bf 61c5 42bf f240 3cbe
00000010: 8b10 623e c368 cfbd 90f7 1c3f 7717 883d
00000020: c4ce eb3e 10f3 9cbd 483a d83e 3bd8 dc3e
00000030: 7154 ef3e ae3f 233e 126b 3f3e 9cbd 75bc
00000040: 99f1 60bd 859f 8e3c dddc 28be 8cac a73e
00000050: f6bd bdbd 70ee 733e c5e1 cc3e 2403 123b
00000060: 2717 94be b478 6d3e e856 a93c c610 a7be
00000070: 52fc c9bc bd36 8c3e 20bd 85bc 6851 403e
00000080: 3f29 0e3f 2bef 9bbd a062 82be f073 743e
00000090: c128 e93e 761d 13be aef0 c03d 19cc f03d
000000a0: 34c4 263f cefe adbd 289c a2bc 7283 b1be
000000b0: 8314 f63e 1699 bc3e bfbc 863d b1f6 88bc
000000c0: 6ef0 ecbe 657d 26be c4e7 f83c ff7e 05bf
000000d0: dd39 03be d833 0e3f e02c 8abe 4f71 b4bd
000000e0: 0033 90bd 124e 19be 1513 e0bc 58d7 213f
000000f0: 85f9 95be d31e 153e 1222 cdbd b4c6 abbe
00000100: 5d25 053f 8214 dcbd a486 6cbe d257 0cbe
00000110: cdc6 ad3e 6ba7 4abe 2361 afbe 1282 77bd
00000120: 28dc 25be 871b ba3e 243d 383e 84f9 67be
00000130: a7bc 2d3f aaff 8abd b654 17be 147d 143f
00000140: 8cf5 833e 865b e8bb 227f c6be 616a 113d
00000150: a184 c73e 1296 bbbc 3458 be3e fff5 09bf
00000160: ade0 103f 0964 4fbe 0f8f 5dbe e2a5 4c3e
00000170: a3b6 8dbe 29f4 7c3e db5b c23e 715f 483e
00000180: a5ea 1b3e 570f 22be ec61 b53e 0a2e 6ebd

weight f4 [100, 100]
0.97689533 -0.40415993 -0.09337876 0.35683784 0.06705708 0.00592218 -0.20574121 -0.23297572
0.36499298 -0.025736079 -0.14727521 -1.4797812 -0.23692937 -1.1821835 0.37394634 0.5241645
-0.17386508 -0.005131532 -0.09175517 -0.025144145 0.34732035 -0.09463626 -0.06337067 -1.2244099
-0.2998321 -0.99222386 -0.44101736 -0.4847529 0.06152503 -0.5404737 0.4506943 -0.19242121
0.09163573 -0.042537186 -1.070664 -0.043953415 -0.37332076 0.06580254 -0.1216941 1.1517556
0.40453282 0.11717612 -0.105028465 0.2003484 -0.15084349 0.12183246 0.3202473 -0.033769786
-0.8122914 -0.20685181 0.20773973 0.38004267 -0.06357574 0.6184756 -0.44381994 0.082448184
-0.3773649 -0.04449525 -0.08012727 0.14966667 -0.5320809 0.027514126 -1.1048996 -0.41460055
0.43111616 0.014421716 -0.020689834 0.006738001 -0.2852896 -0.7429225 -0.54548466 -0.1083547
-0.006163919 -0.88425237 -0.19558924 -0.5229857 -0.38776392 0.030995267 0.51570857 0.40661857
0.30984414 0.6596395 -0.974901 0.08765836 -0.8536427 -1.3655187 -1.116074 -1.734731
0.16391031 0.22984 0.09689208 -0.7453856 -0.07931194 0.8558343 -0.54827666 0.16117889
-0.08883393 0.0057822713 -0.3917412 -0.08880841 -0.48440176 0.15588026 -0.23186442 -0.14179514
-0.11836112 -0.06868444 0.83466005 -0.2231985 0.021983752 -0.09390969 0.12349045 -1.0915906
0.19562426 -0.2895102 0.4407869 -0.068139136 -0.18789688 -0.030607568 -0.2166344 0.20734136
-0.019072266 -0.56594795 -1.6793375 -0.13403751 -0.11351308 -0.7425996 -0.046246685 0.005746943
-0.10752863 -0.1644005 -0.05279289 -0.075544395 0.019057626 0.09101874 -0.06187405 0.061063718
-0.5691286 -0.05503381 0.025407504 0.22577627 -1.7040753 -0.35922036 -0.11697649 0.027550004
-0.49688014 -0.8736202 0.4678398 -0.056118276 -0.054347884 -0.22297099 0.09734194 0.0434226
0.025112128 0.41865993 0.16710576 0.0060854033 -0.22761622 0.038083017 -0.13656762 0.072975434
0.16283943 -1.4430977 0.5182066 -0.41372243 0.17543362 -0.07726405 -0.0071359198 0.0347998
-0.35606793 -0.20822297 0.35326755 -0.07926652 0.10023904 0.07841183 -0.15799536 0.41100806
0.18328458 -0.4376889 -0.031003414 0.020829136 0.3530034 0.01671941 0.030633213 -0.005949904
-0.07454478 -0.14376484 -1.2296567 0.25870457 -0.47790012 0.50454867 -0.005225253 -0.02237555
0.23965792 -0.29758495 0.5442352 -0.1353045 0.7300461 0.037525274 -0.8267728 0.033072993
0.8868822 -1.3193007 -0.53612256 -0.47732016 -0.62889737 -0.0003697517 0.1868513 0.46255708
0.034285806 -0.10139438 -0.09288134 -0.6705445 0.42434916 0.52883774 -0.15942653 -0.0084697
0.32215616 0.10797835 -0.042725466 -0.15785177 0.22458945 -0.97649837 0.07999633 0.32574674
-0.052329555 0.4410201 -0.07605154 -0.087238744 -0.39348158 -0.46837455 -0.4620114 -0.38565865
-0.13667108 0.03768623 -0.54381067 -0.21575466 0.72561187 0.06983931 0.5915819 -0.8473762
0.53548473 0.091625765 -0.033372294 -0.097755365 -0.014769141 -0.7629773 -0.075181805 -0.015539169
-0.41639936 -0.16967246 -0.06209398 0.2725403 -0.007054603 0.23003037 -1.4806247 -0.01961931
00000000: d015 7a3f 0dee cebe 5d3d bfbd 73b3 b63e
00000010: 3955 893d d90e c23b d3ad 52be 3091 6ebe
00000020: 5ce0 ba3e 78d4 d2bc 50cf 16be 7869 bdbf
00000030: 9d9d 72be ca51 97bf e575 bf3e a52f 063f
00000040: b009 32be 6926 a8bb 22ea bbbd 18fb cdbc
00000050: f9d3 b13e a8d0 c1bd 7bc8 81bd 77b9 9cbf
00000060: 9883 99be 6202 7ebf 07cd e1be 8831 f8be
00000070: ab01 7c3d 7c5c 0abf 67c1 e63e 110a 45be
00000080: 83ab bb3d 793b 2ebd 850b 89bf 7f08 34bd
00000090: e623 bfbe 7bc3 863d c23a f9bd ba6c 933f
000000a0: ed1e cf3e 09fa ef3d 2a19 d7bd 2228 4d3e
000000b0: b776 1abe 4c83 f93d 74f7 a33e 3052 0abd
000000c0: 54f2 4fbf f6d0 53be b9b9 543e f494 c23e
000000d0: ff33 82bd 6b54 1e3f 5e3c e3be 98da a83d
000000e0: f935 c1be a740 36bd c419 a4bd 3842 193e
000000f0: 7436 08bf 4e65 e13c 5a6d 8dbf 8646 d4be
00000100: 42bb dc3e 1049 6c3c ba7d a9bc 73ca dc3b
00000110: 7a11 92be 2b30 3ebf e2a4 0bbf 12e9 ddbd
00000120: b3fa c9bb 5d5e 62bf 8c48 48be 64e2 05bf
00000130: fe88 c6be c9e9 fd3c 7a05 043f 4f30 d03e
00000140: e4a3 9e3e 22de 283f 1d93 79bf 3a86 b33d
00000150: 5488 5abf 51c9 aebf 83db 8ebf aa0b debf
00000160: 1bd8 273e 2d5b 6b3e 5b6f c63d 97d1 3ebf
00000170: 4c6e a2bd f517 5b3f dc5b 0cbf 140c 253e
00000180: 90ee b5bd 3579 bd3b 4d92 c8be 2fe1 b5bd
00000190: 8203 f8be 139f 1f3e de6d 6dbe bf32 11be
000001a0: 5167 f2bd 6daa 8cbd 48ac 553f 268e 64be
000001b0: 4517 b43c b953 c0bd 90e8 fc3d 3eb9 8bbf
000001c0: ba51 483e ae3a 94be d2ae e13e 888c 8bbd
000001d0: 0a68 40be b9bc fabc 68d5 5dbe 4b51 543e
000001e0: 713d 9cbc f7e1 10bf 88f4 d6bf 2141 09be
000001f0: 8c79 e8bd 021b 3ebf 2a6d 3dbd da50 bc3b
00000200: f837 dcbd 9b58 28be 5c3d 58bd 05b7 9abd
00000210: bd1e 9c3c 0868 ba3d a56f 7dbd f31d 7a3d
00000220: 69b2 11bf 226b 61bd 6623 d03c e531 673e
00000230: 241f dabf bbeb b7be 5f91 efbd 8cb0 e13c
00000240: 1367 febe 93a5 5fbf b388 ef3e 47dc 65bd
00000250: e39b 5ebd 8252 64be 365b c73d e5db 313d
00000260: f3b7 cd3c 985a d63e c61d 2b3e 1068 c73b
00000270: 3a14 69be f0fc 1b3d 62d8 0bbe 2574 953d
00000280: 61bf 263e 6db7 b8bf 30a9 043f 6dd3 d3be
00000290: dfa4 333e 9d3c 9ebd 6fd4 e9bb 3c8a 0e3d
000002a0: 894e b6be 6738 55be 7cdf b43e 7c56 a2bd
000002b0: 204a cd3d 6296 a03d 89c9 21be a66f d23e
000002c0: f4ae 3b3e c218 e0be dffa fdbc dda1 aa3c
000002d0: ddbc b43e 25f7 883c 81f2 fa3c 6af7 c2bb
000002e0: efaa 98bd 1737 13be 6465 9dbf ed74 843e
000002f0: 53af f4be 1a2a 013f 9938 abbb ee4c b7bc
00000300: e368 753e 0e5d 98be 0053 0b3f 438d 0abe
00000310: 4de4 3a3f 1ab4 193d 62a7 53bf 8c77 073d
00000320: b60a 633f d8de a8bf 543f 09bf 4f63 f4be
00000330: 6bff 20bf 3cdb c1b9 f255 3f3e 48d4 ec3e
00000340: 466f 0c3d dba7 cfbd 9238 bebd cea8 2bbf
00000350: 4b44 d93e e961 073f b540 23be 7fc4 0abc
00000360: a7f1 a43e c123 dd3d e600 2fbd e5a3 21be
00000370: c7fa 653e ccfb 79bf 1ed5 a33d 47c8 a63e
00000380: 8457 56bd 63cd e13e e9c0 9bbd 3aaa b2bd
00000390: 6b76 c9be cace efbe c28c ecbe 0d75 c5be
000003a0: 81f3 0bbe e05c 1a3d 2d37 0bbf caee 5cbe
000003b0: b3c1 393f ea07 8f3d e971 173f a6ed 58bf
000003c0: 8715 093f 4aa6 bb3d 63b1 08bd f733 c8bd
000003d0: 44fa 71bc 7b52 43bf ebf8 99bd 0098 7ebc
000003e0: 4c32 d5be 9ebe 2dbe 4256 7ebd 678a 8b3e
000003f0: 4d2a e7bb 158d 6b3e 1c85 bdbf adb8 a0bc

bias f4 [100]
0.13146085 0.41306284 -0.0011453335 -0.05883362 -0.1039866 0.6611033 0.58181226 0.3639714
-0.09171333 -0.14010261 0.012585852 -0.046654925 -0.07828255 0.37871477 0.094281085 0.62893766
-0.07163124 -0.16075568 -0.027303161 -0.06926127 -0.15081967 -0.06022557 0.13762805 0.0071182325
0.64392644 0.100401126 0.7318877 -0.103245385 -0.35483 0.29255792 -0.0778497 0.07163263
-0.017040368 0.6282498 -0.11192745 0.012264326 0.5841996 0.38951597 0.4355437 -0.124117285
-0.39621404 0.6525083 0.4506754 -0.0010185644 0.3954596 -0.15542369 0.17352436 0.25420395
0.0011274469 -0.07499011 0.6320879 0.6930894 0.6699517 0.28412434 -0.019874137 -0.02023189
0.5893608 0.29314265 0.65841913 -0.43455163 0.17226498 -0.14665662 0.2087671 0.6089213
0.58777434 -0.42578828 0.31506217 0.59064585 0.70585644 -0.1130444 0.58228415 0.6989525
-0.1696949 -0.07701431 0.65788263 -0.4208296 0.60148937 0.62110907 -0.07972316 -0.5813458
-0.20986944 0.66891557 -0.07128637 -0.1308666 -0.574987 -0.085550085 0.026891368 -0.48641932
0.6990335 -0.60722435 -0.07384529 -0.1369519 -0.020119976 -0.037249554 -0.13814026 -0.47442317
0.67194295 -0.1598392 -0.11782526 -0.09454739
00000000: ac9d 063e f97c d33e 041f 96ba 86fb 70bd
00000010: edf6 d4bd 113e 293f a6f1 143f 765a ba3e
00000020: 33d4 bbbd 0f77 0fbe e434 4e3c 3c19 3fbd
00000030: 9a52 a0bd e7e6 c13e 7116 c13d 0f02 213f
00000040: 66b3 92bd 239d 24be e1aa dfbc dad8 8dbd
00000050: 7970 1abe 16af 76bd 5eee 0c3e 1040 e93b
00000060: 5dd8 243f 1b9f cd3d fe5c 3b3f 5172 d3bd
00000070: 47ac b5be 27ca 953e aa6f 9fbd 21b4 923d
00000080: 3e98 8bbc fbd4 203f 383a e5bd 50f0 483c
00000090: 1b8e 153f a36e c73e 95ff de3e 3431 febd
000000a0: 91dc cabe c90a 273f edbe e63e 5a81 85ba
000000b0: ae79 ca3e 6327 1fbe 5fb0 313e 0527 823e
000000c0: d7c6 933a 6a94 99bd 83d0 213f 4f6e 313f
000000d0: f481 2b3f bf78 913e 16cf a2bc 59bd a5bc
000000e0: 59e0 163f cb16 963e 288e 283f 8d7d debe
000000f0: 3b66 303e 272d 16be 0bc7 553e 44e2 1b3f
00000100: 6178 163f ec00 dabe d44f a13e 9134 173f
00000110: 02b3 343f d383 e7bd 9310 153f 8dee 323f
00000120: 80c4 2dbe aeb9 9dbd ff6a 283f fa76 d7be
00000130: 35fb 193f 0101 1f3f e545 a3bd 14d3 14bf
00000140: 04e8 56be 0d3e 2b3f 97fe 91bd e501 06be
00000150: 5932 13bf e234 afbd 494b dc3c f40b f9be
00000160: dcf3 323f 0e73 1bbf 333c 97bd 1e3d 0cbe
00000170: a6d2 a4bc fd92 18bd a474 0dbe 98e7 f2be
00000180: 7404 2c3f e3ac 23be 5f4e f1bd 10a2 c1bd

weight f4 [1, 100]
-2.0022044 0.78833663 -0.898798 0.04711823 0.0031835958 0.31426683 0.41981182 0.39689317
-1.2898552 0.02733815 -1.9496937 -0.10734877 -0.0018068643 0.66990924 0.45765176 0.31306553
0.02989978 0.006523637 0.020042147 0.028609095 -0.2327935 0.021407314 -1.6755704 0.04506401
0.3270418 0.6984735 0.37073484 -0.031174764 -0.31642896 -0.14645313 -0.2430545 0.040540416
-0.32998583 0.3607566 0.014981599 0.0024690349 0.27682728 0.39537904 0.6452978 -0.024096685
-0.3048391 0.3428082 0.9013009 -0.7878528 -0.60931677 -0.31600213 0.797651 -0.82726073
-0.054995697 0.08230501 0.28456357 0.38758913 0.32440498 -0.5373992 0.51692086 0.732343
0.29731834 -2.033531 0.3166504 -0.28899226 -1.411845 -0.17322056 -0.37311208 0.276988
0.2614369 -0.54750156 -0.5759708 0.3469729 0.35923758 0.027187727 0.3089064 0.37564066
-0.060789324 0.34403202 0.32912087 -0.5333369 0.2823813 0.25068954 -0.035250537 -0.7612962
-0.3117684 0.35335916 0.056610133 0.06930441 -0.5710748 -0.025966609 -0.7123678 -0.41780382
0.38265985 -0.63958913 0.04401515 -0.01274729 -1.8014371 -0.6536106 0.022870164 -0.557591
0.38173956 0.011553662 -0.016711606 -0.07780422
00000000: 1e24 00c0 6ed0 493f a017 66bf 0cff 403d
00000010: e0a3 503b 95e7 a03e 93f1 d63e 9535 cb3e
00000020: fa19 a5bf 42f4 df3c 908f f9bf acd9 dbbd
00000030: 4ed4 ecba 2c7f 2b3f 5551 ea3e 204a a03e
00000040: 62f0 f43c 3cc4 d53b 6e2f a43c 9f5d ea3c
00000050: 6b61 6ebe 645e af3c 1779 d6bf 0a95 383d
00000060: 0672 a73e 29cf 323f f5d0 bd3e 3862 ffbc
00000070: fa02 a2be cff7 15be 47e3 78be b50d 263d
00000080: e7f3 a8be 17b5 b83e 6175 753c 88cf 213b
00000090: 4ebc 8d3e 1f6f ca3e 3d32 253f 6966 c5bc
000000a0: df13 9cbe 8e84 af3e a8bb 663f b9b0 49bf
000000b0: 2ffc 1bbf 08cb a1be db32 4c3f 5cc7 53bf
000000c0: 2b43 61bd 878f a83d 51b2 913e 1572 c63e
000000d0: 6918 a63e fe92 09bf ed54 043f d57a 3b3f
000000e0: 1c3a 983e 5f25 02c0 0020 a23e cbf6 93be
000000f0: 56b7 b4bf bb60 31be 8c08 bfbe 5fd1 8d3e
00000100: 0fdb 853e 1029 0cbf d372 13bf 6fa6 b13e
00000110: fded b73e ccb8 de3c fb28 9e3e f953 c03e
00000120: 3afe 78bd f724 b03e 8882 a83e c488 08bf
00000130: 4894 903e 615a 803e de62 10bd 4fe4 42bf
00000140: 1ca0 9fbe 7eeb b43e 07e0 673d 78ef 8d3d
00000150: f531 12bf edb7 d4bc bc5d 36bf 62ea d5be
00000160: feeb c33e 1dbc 23bf 3b49 343d 02da 50bc
00000170: 7e95 e6bf 0653 27bf 365a bb3c 49be 0ebf
00000180: 5e73 c33e 924b 3d3c c7e6 88bc d257 9fbd
