reinforcement_learning/results/EndToEnd_critic2.pt (torch, 62178 bytes, 5 tensors)

weight f4 [100, 43]
00000000: c500 a0be 7e9d b1be 750c bbbe f085 01bf
00000010: 4cda 13be 75e5 933e 86c4 893e e432 5dbe
00000020: 91b6 f0be 998c 7abf 73c7 a6bf 8ff4 97bf
00000030: 1c03 00bf b830 1fbe 99a4 e8bd b9f5 193f
00000040: 2795 a93e f9b1 35bf beed 94be da77 70be
00000050: aacd d6be d408 d8be 5379 f7be 80e1 33be
00000060: a9c8 bdbe 0e2e 8cbe 3f50 b5bd e409 febd
00000070: dc12 9ebe d3a5 cbbe 5f9c 7fbf 22e4 8dbf
00000080: c03d acbe 5821 a93e 36b6 233f 47ad a13d
00000090: 6bf2 063d eaef 3ebd ba8c 43be 3f08 b13d
000000a0: 72b3 02bf 0fa8 2b3f b906 0dbe c50b 8d3c
000000b0: eb3b 8b3e 4508 0f3f 349d 46bf efdf 5bbf
000000c0: 60bc 30bf e979 6ebf c8ab 81bf f3e3 95bf
000000d0: 832d aabf 3afc cabf 97a2 a2bf ca04 e2bd
000000e0: 094c 113e 2c4d 0a3f a9d0 973d 653c 403e
000000f0: 0a27 9a3d 5eca 1abf f4ca 7ebd 9632 a3be
00000100: 5c15 5c3d e1f1 d23d d8df 96be 0919 48bf
00000110: 0fa5 4abf 9251 74bf 4ed9 28bf 5fa2 f9be
00000120: d276 05bf 9b4d 3ebf afa6 b8be 3f57 c83e
00000130: 6590 993e 2d75 503e fcda 04bf 323a 63be
00000140: d0f6 7bbe 8dac a4be 0298 d23c a614 d13e
00000150: 301d 87be ac1f b73d d6d5 31be 017d 7abe
00000160: 3a4f 833e c267 30bf 10c3 74be af0f 80be
00000170: 2363 c2be 641a efbe b15a 77bf c72e 96bf
00000180: 435b a1bf 5777 283f f57b bbbd 7a6e d83e
00000190: 1f2b ab3d 575b 8d3e 61a4 2c3f cd3c 6d3e
000001a0: 2da0 ee3e 866c a0be 57fb 8abf ee8b 7fbf
000001b0: 6bbd b53e b12c cf3e ceae 88be 440d 22be
000001c0: 767c 05bf 8fcc 94bd 4789 c5be 66ad 19bf
000001d0: 6a29 95be 5fee e8be 4812 20bf 9e8d 2a3f
000001e0: 7d7f e53e 7627 7b3d 8187 de3d 0edd 93be
000001f0: 8850 6abd 99ab 89bd d771 093f 5431 4dbf
00000200: adf4 4cbe 335e ddbe 7753 a03c 6d5a 09bf
00000210: 32ef 44bf 0c50 2fbf ccf7 13bf b089 70be
00000220: 33a3 1b3f 696c 433f 71bb 9f3e db0a c8bd
00000230: 9206 0cbf 0dfb 0cbe 717e 28be ed59 f3be
00000240: f2fc 29bd 22ec d63d fd70 133e edad f7be
00000250: 2868 d53d 047a 8e3e 0699 db3e 7908 b7be
00000260: d3b1 cabe f542 10bf d35e 82be 0e61 f5bd
00000270: 3445 1e3f 0faf 593f 6a4f 413f 1df9 99be
00000280: 0d98 f8be 4824 c5be 64bb 10bf 1b66 47bf
00000290: e1a5 f0be d46f 003d 3aca 7e3c 75d0 f63e
000002a0: 721c 4c3e 0a23 7ebe b712 93be 19a9 55bd
000002b0: ac92 9fbe 91be e0be ab94 21be 00ab 82bc
000002c0: 48e6 223f 69db 0e3e 9700 e03d 711c ecbd
000002d0: 3386 10be dc27 94be cf77 4fbf b89a 8d3f
000002e0: 08ce 8c3e cb93 853e b207 97bf 78bb 97bf
000002f0: d041 69bf 7588 01ba 2222 a03d 9494 743e
00000300: ab7f 21bf e378 bfbe 6e82 6abc 7aa5 253d
00000310: fad5 a8be 29c9 3d3d 50ff 4b3c 58a8 7e3e
00000320: a156 aabd fdce c5bc a1ec 733d 6560 4a3e
00000330: 633e 833e 2733 253e 9991 81bf 94e0 7dbf
00000340: 9a1e c7be 5732 243e 9566 bebb 4f18 663e
00000350: 648a c9bd 0d83 2b3c 62ef 69bb 43bb 893e
00000360: b227 63bd d7da a7be ea75 0d3e dcfb 553d
00000370: 5ca7 573e 03af 083e 0254 333f 1856 2f3f
00000380: a2df 343f 78fe 85bd 33d6 44bf 4260 88be
00000390: 1da2 83be 4c6e a1be cc8e f7be 5aee e1bd
000003a0: 6808 d3be 67a7 913e e7ce 7bbe b326 943e
000003b0: fcd6 9a3e f72c 41bd 0bb1 e8bd d149 113d
000003c0: f0ce f6bd 8b00 d3be bebd ebbe 3f49 adbe
000003d0: a9f7 7c3e 4edb 3e3e d360 99be 685c bdbe
000003e0: 7dae 0ebf c58a f4bc 1293 d33c 776c adbe
000003f0: d7e6 053e ca43 4d3f 8bad 563d 557b 8bbe
-0.31250587 -0.3469047 -0.3653294 -0.50595 -0.14438742 0.28886 0.26907748 -0.21601444
-0.47014287 -0.97870785 -1.3029617 -1.1871508 -0.50004745 -0.15545928 -0.113595195 0.6014057
0.33121607 -0.7097469 -0.29087633 -0.2348322 -0.41953784 -0.42194235 -0.4833475 -0.1756649
-0.37067154 -0.27378887 -0.08853196 -0.1240423 -0.30873764 -0.3977495 -0.9984798 -1.1085246
-0.33640862 0.33033252 0.63949907 0.07894378 0.03294603 -0.04661552 -0.19096652 0.08644151
-0.5105506 0.6705331 -0.13772096 0.017217526 0.2719415 0.55871993 -0.7758362 -0.8588857
-0.6903744 -0.9315477 -1.0130548 -1.171019 -1.3295139 -1.5858223 -1.2705868 -0.1103607
0.14189161 0.54024005 0.07412846 0.18773039 0.07526977 -0.6046504 -0.06220527 -0.31874532
0.053731307 0.10300041 -0.29467654 -0.781632 -0.7915811 -0.95436966 -0.6595658 -0.48756692
-0.5213443 -0.74337167 -0.3606467 0.39129063 0.29992977 0.20357199 -0.51896644 -0.22190168
-0.2460587 -0.32162896 0.025707249 0.40836066 -0.26389456 0.08941588 -0.17366728 -0.24461748
0.25646383 -0.6890832 -0.23902535 -0.25011966 -0.3796626 -0.46699822 -0.9662276 -1.1733025
-1.2605976 0.658071 -0.09154502 0.42271787 0.08357834 0.2760875 0.6743832 0.23167725
0.4660658 -0.31332797 -1.0857953 -0.9982289 0.35496077 0.40463784 -0.26695865 -0.15825373
-0.5214304 -0.07265579 -0.38581297 -0.6003021 -0.2913316 -0.45494363 -0.62527895 0.6662234
0.44823828 0.06131693 0.10865689 -0.2887959 -0.057205707 -0.06722183 0.5368933 -0.80153394
-0.20015211 -0.4323593 0.01957105 -0.53653604 -0.76927483 -0.68481517 -0.57799983 -0.23490024
0.607959 0.76337296 0.31197694 -0.097676955 -0.54697526 -0.13767643 -0.16454484 -0.47529545
-0.041500993 0.104942575 0.1439857 -0.48374882 0.10420257 0.27827466 0.42890185 -0.35748652
-0.39588794 -0.5635217 -0.2546297 -0.11981402 0.61824346 0.85032743 0.755118 -0.3007287
-0.48553506 -0.38504243 -0.56535935 -0.77890176 -0.47001556 0.031356648 0.015551144 0.48205915
0.19932726 -0.24818054 -0.28725216 -0.052163217 -0.3116659 -0.4389539 -0.15779369 -0.01595068
0.6363263 0.13950886 0.109376125 -0.11528862 -0.14113693 -0.2893666 -0.8104219 1.1062841
0.2750094 0.2608932 -1.1799223 -1.1854086 -0.91116047 -0.0004941293 0.0781901 0.23884803
-0.6308543 -0.37396917 -0.014313323 0.040441014 -0.3297575 0.04633442 0.012451008 0.24868906
-0.083173044 -0.024146551 0.05955184 0.19763334 0.25633535 0.16132794 -1.0122558 -0.99170804
-0.38890535 0.16034828 -0.0058105686 0.2247021 -0.09840849 0.010468257 -0.0035695662 0.26900682
-0.05545778 -0.3278415 0.13814512 0.052242145 0.21059936 0.13348012 0.7005006 0.68490744
0.70653737 -0.06542677 -0.7688934 -0.2663594 -0.2570962 -0.31529462 -0.48351133 -0.1103179
-0.4121735 0.2844803 -0.24590646 0.28935775 0.30242145 -0.047162022 -0.11361893 0.035470787
-0.12051189 -0.41211352 -0.460432 -0.33844945 0.2470385 0.18638346 -0.29956684 -0.36984563
-0.55735 -0.029851327 0.025826965 -0.33871815 0.1307634 0.8018156 0.052411597 -0.27242532

bias f4 [100]
00000000: 53cf f23e 840c 4f3f e939 383e f8f0 80bd
00000010: 7651 d03e 5559 97be 3580 8f3e ef5b db3e
00000020: 827f b53e 6933 343f 6037 b6bd 31ca 663f
00000030: f31e 59bd 6ac7 d83c 5d2d 88bf 8afc c13e
00000040: 2c6e ae3e 2e57 113f b292 a0bc 94ae a5bd
00000050: b472 b7be 7c8b 87be 4e7e 083e 6d85 99be
00000060: 3f80 4bbf f4ad 04be 267d c63e b590 f03c
00000070: 3167 31bf 0e75 d63e 2036 973f 5bc9 fd3e
00000080: 9da5 26bf 3b8d 30bd 38fe 3d3e 2707 bb3e
00000090: 28f0 773e b370 a2be 5329 4d3e eb86 8cbf
000000a0: 9104 a83e f11f 4cbe 90d7 47bd e482 f33e
000000b0: 26e3 213f 60ee 923d 60a7 c33e 2e0f 4f3f
000000c0: e344 223c f932 c43e 9c6c 433f f8ae 48bd
000000d0: e95c 4dbe a199 00be c04b 41be eca7 87be
000000e0: 3539 4b3e 0892 3fbe 7db6 bb3c 3978 453f
000000f0: 0a5c cdbe 3928 253f 735c e1bd 6b43 dc3c
00000100: f614 4c3f c0c6 e63e ff01 d83e d0ae afbd
00000110: eb23 373f 01aa 96be ae77 1e3e 80fa 9b3e
00000120: 6aad 683e fe00 293f f59a f63d 170c d63d
00000130: 8711 11be e8bd cabe d92e 27bf bfcd cebd
00000140: 57e4 ed3d 5772 0bbe 4518 263e 308b afbe
00000150: 70aa 563f ba71 aa3e b5de 463f 1341 f8bc
00000160: dca8 183d 251e 3fbe adfe aa3d fc9d d53b
00000170: 5b38 213e c6de 273e 38a6 2bbe d7e8 6b3d
00000180: 7b4a 05be 680c cd3e 9d60 483d 9b3f 333f
0.474238 0.8087847 0.17990841 -0.06295961 0.4068715 -0.29560342 0.28027502 0.42843577
0.35448843 0.70390946 -0.08897281 0.9015227 -0.05300803 0.026462276 -1.0638844 0.37887985
0.3406843 0.5677365 -0.0196012 -0.08089939 -0.358297 -0.26473606 0.13329431 -0.29984608
-0.79492563 -0.12956983 0.38767356 0.029365877 -0.6929808 0.4188618 1.1813393 0.49567685
-0.65096456 -0.043103438 0.18554008 0.36528894 0.24212706 -0.31726608 0.20035295 -1.0978674
0.32815984 -0.1993406 -0.04878956 0.475608 0.63237226 0.07174373 0.38213634 0.8088254
0.009904119 0.3832014 0.763376 -0.04899499 -0.20054974 -0.12558605 -0.18876553 -0.26495302
0.19846042 -0.1870805 0.022914166 0.7713657 -0.40109283 0.645145 -0.110039614 0.026887616
0.79719484 0.4507351 0.42189023 -0.08578265 0.7153918 -0.29426578 0.15475342 0.30464554
0.22722402 0.6601714 0.120412745 0.10451525 -0.14166842 -0.39598012 -0.6530586 -0.10097837
0.11615818 -0.13617836 0.16220196 -0.3428588 0.83853817 0.3328989 0.77683574 -0.030304467
0.03727041 -0.18663843 0.08349357 0.0065190773 0.15744154 0.16393575 -0.16762626 0.0575951
-0.13016693 0.40048528 0.048920263 0.7001893

weight f4 [100, 100]
00000000: 9b7c 623f c11c a1be 26c3 333e c518 7fbf
00000010: 4eac 523e 1d0f 053f 03f8 ba3b c5fb 98bd
00000020: 7e8d d53e 6fa8 b73e 3534 1c3e 11c6 403c
00000030: 2742 18bd 836f a3be e1f0 2fbe 9dc4 583f
00000040: c6ed debd 9589 44bf de97 77bd 826e ba3e
00000050: 81d0 1fbe 014b d83e 9ef2 a0be b74d 593e
00000060: 5472 13bf bbfc 3e3e d148 cf3b c3da f13e
00000070: 9d92 29be 04ba 98bf fec4 d6be 06bf 36c0
00000080: 1842 fcbd 41f8 b33d 8e1a b33e 543e 593e
00000090: 8cf9 913e 37c4 6ebf 2f2c 083f 8f31 f2bc
000000a0: 6c6d 01bf b0b3 013c ed8e 433f ada6 b03e
000000b0: 19ab 0a3e fd6a 17bf fd67 0fbf a008 49bb
000000c0: 700a 6dbf fd23 933d 06f6 b1be 4dd3 423e
000000d0: b8aa 1abe 03d7 e03d 7506 1b3e 0796 97be
000000e0: 17ab b1bd 0bfe 8bbd fda1 393d 8bcb 03bf
000000f0: a2e0 c5bd 35c3 5b3f 2c94 e93e ee35 9c3e
00000100: dd9b d7bd 77b5 9a3e 1c38 efbd b1ce 2cbe
00000110: b95f 603f 8fa6 8ebf 7784 0abe cef7 0dbe
00000120: 6a3f 1a3f 8795 8a3e d99c 77bf 2272 943e
00000130: 1102 a0bb 5ae0 6bbd 8267 a03b b3a3 b6be
00000140: a006 8abf 23d4 cbbf 79bf 193f 390f cbbe
00000150: fff4 a6bf 4a22 713f f4da eb3d 0bf8 8e3d
00000160: 6bc1 8cbd da65 893d 8fa3 29bb 9f57 483f
00000170: e05c c6bf fe9b a43b 792d abbe 7b22 fb3e
00000180: a058 a6bf 8905 f2be 2a30 aa3e 23c3 253f
00000190: 8aba 7fbf 977b 05be acf9 2a3f a71e 113e
000001a0: 083a a1bf d8f3 88be de35 9abc 18a3 a03d
000001b0: e6bb c0be e836 1f3e d126 bbbf 707b febd
000001c0: 2ba8 8b3d c801 81bf c6d7 15bd cc54 70be
000001d0: 138d 08bd cbb7 093e dbfd 57be dea5 3e3e
000001e0: b314 f3be 5316 28be 2933 d1bd 816f 78bd
000001f0: 81da 8c3d 7545 793e 77eb 1a3e 3251 b3be
00000200: 5cd8 523f 96d1 6abe 8f61 07bf 1d13 813f
00000210: 8dcb 1bbe 2a58 973d 727a bfbe 0db0 243e
00000220: cd1e 9e3e 3daf c1be 79cb 4abe f6cf 48be
00000230: 2ead 9c3e 01d1 6d3e 9fbf f1bd 4867 6e3e
00000240: 9f26 18c0 e8b3 503e 6089 96bf 35ac 17bd
00000250: d514 aebd 2bf3 cb3c 5dbd 51bf 2791 6ebe
00000260: c565 82bd b92e cbbe b36a bdbb b21a ad3e
00000270: 2f86 d9be ceeb ecbd f9b8 53bf cbc8 f6bd
00000280: 63fd 39bf 11a3 69be 5ae4 03c0 5922 b43e
00000290: ea28 193f 6b43 ccbe d662 57be 5464 a0be
000002a0: 50af 03bf 285e 47bf 682b 3a3e 9a3d 8ebd
000002b0: 7c9d 553d 1d0e 5fbe 7784 1cbf 3ad2 ccbd
000002c0: 9d37 c0bd da03 bbbd 651d 02c0 ce2e 193f
000002d0: d39a c83f 3aa1 943e 677f db3e edb9 763e
000002e0: 1f3d 2a3f 78d3 bb3e 0dae 95be fefe 023e
000002f0: a222 42be ac94 00bf 9c5a 0fbe f3f5 e5be
00000300: 5d5c 4a3d 4f09 a3bc abd3 ef3d bc23 2f3e
00000310: a49b 793e b5e4 4fbf 6127 13bf b1e2 7ebf
00000320: ba02 15bf 8100 a2bf db92 fabe 198a 7a3d
00000330: 03c7 f93d fce5 9cbe 5af5 313e 80dc 1bbd
00000340: 9e4d 21be efb6 ae3e 8003 2ebe 6531 76bf
00000350: 3037 88bd 371f 513e 7e57 2f3e 311b d4bf
00000360: 80e4 09be 9a5d d6bf 0bb1 083e a7c2 97bd
00000370: 278b 66be 4622 97be 734e 45be 9c49 d03d
00000380: e3f3 0e3e 9e2d d3be c5ee 93bf 492c f8be
00000390: 3eea 80be f8bd 8abe 3ee4 653d fec9 433e
000003a0: e168 e73d 08b5 063e 6538 d5bf ee29 04be
000003b0: 37cb 8ebe cf03 0abf a551 dabe 798c 1c3d
000003c0: d827 4f3e 2663 383d c079 8ebf ccd8 563d
000003d0: 0be4 9ebf 87f0 f6be 0166 dbbe 10be 993d
000003e0: 5b3b ddbe 722b 023e 40e1 18c0 9084 26be
000003f0: 6c6e 7ebf b8f3 17bd 190c 273e 6a34 f33d
0.8847138 -0.3146725 0.17554912 -0.9964717 0.20573542 0.51976186 0.005705835 -0.07469896
0.41709512 0.35870692 0.1525429 0.011765973 -0.037172463 -0.31921014 -0.17181732 0.8467501
-0.108851954 -0.76772434 -0.060447566 0.36412436 -0.15606882 0.42244723 -0.31435102 0.21221052
-0.57596326 0.18651097 0.006325819 0.47237214 -0.16559835 -1.1931767 -0.41947168 -2.8554091
-0.12317294 0.08787585 0.34981197 0.21215183 0.28510702 -0.9326815 0.5319242 -0.029564647
-0.5055759 0.007916376 0.7638996 0.34502164 0.13541831 -0.59147626 -0.5601805 -0.0030675307
-0.9259405 0.071845986 -0.34758013 0.19025917 -0.15104187 0.1097851 0.15139182 -0.2960665
-0.08675211 -0.06835564 0.0453205 -0.51482457 -0.09661986 0.8584474 0.4562086 0.30509895
-0.105277754 0.30216572 -0.11680624 -0.16875722 0.8764606 -1.114458 -0.13527094 -0.13864061
0.6025301 0.27067205 -0.96723706 0.28993326 -0.004883059 -0.057587005 0.0048951516 -0.35671768
-1.0783272 -1.5924114 0.6005779 -0.3966005 -1.3043517 0.94192946 0.11516371 0.06980904
-0.06872829 0.0670888 -0.0025884842 0.782587 -1.5497093 0.0050234785 -0.3343313 0.49049744
-1.2995796 -0.47269848 0.3323987 0.6475088 -0.9989401 -0.13035427 0.6678722 0.14171849
-1.2595835 -0.26748538 -0.018824514 0.07843608 -0.37643355 0.15548289 -1.4621221 -0.124258876
0.06819185 -1.0078669 -0.03658273 -0.23469847 -0.033337664 0.13449018 -0.21092932 0.18617961
-0.4747673 -0.16414766 -0.10214836 -0.060653213 0.06877614 0.24342902 0.15128885 -0.35022885
0.8236139 -0.22931513 -0.5288324 1.0083958 -0.15214367 0.07389863 -0.37398106 0.16082783
0.30882874 -0.3782901 -0.19804181 -0.19610581 0.30600876 0.2322426 -0.11804127 0.23281586
-2.3773572 0.20381129 -1.1760674 -0.037029464 -0.08500067 0.024896225 -0.8192957 -0.23297559
-0.06367067 -0.39684084 -0.005780542 0.3380943 -0.42485186 -0.11568414 -0.8270412 -0.12050017
-0.7265226 -0.22816111 -2.0608125 0.35182455 0.59828055 -0.39895186 -0.21033797 -0.31326544
-0.5143938 -0.77878046 0.1818062 -0.06945343 0.052152142 -0.21782728 -0.61139625 -0.10001035
-0.093856074 -0.09131594 -2.033044 0.59837043 1.5672249 0.29029256 0.42870638 0.24094363
0.66499513 0.36684775 -0.29234353 0.12792584 -0.18958524 -0.50226855 -0.13999408 -0.44914207
0.04940449 -0.0199019 0.11710294 0.17103475 0.24375778 -0.81208354 -0.5748196 -0.99564654
-0.58207285 -1.2656404 -0.48940167 0.061166856 0.121961616 -0.30644214 0.1737875 -0.038052082
-0.15752265 0.34123942 -0.16993523 -0.9616912 -0.06651151 0.20422064 0.1712322 -1.6570798
-0.13466072 -1.6747315 0.13348787 -0.07410174 -0.2251402 -0.29518336 -0.19268207 0.1017029
0.13960223 -0.4124574 -1.1557242 -0.48471287 -0.25178713 -0.2709806 0.05612587 0.19120023
0.11299301 0.13154995 -1.6657835 -0.1290662 -0.27889416 -0.5391206 -0.42640415 0.038219903
0.20230043 0.04501643 -1.1130905 0.052452847 -1.2413343 -0.48230383 -0.4285126 0.07506955
-0.43209347 0.12711886 -2.3887482 -0.16261506 -0.9938724 -0.037097663 0.16313209 0.118752316

bias f4 [100]
00000000: 775a 153f 2aac f43e 4538 3f3f 66af 583f
00000010: 2161 6e3e 3fc5 ce3e b6e8 2abe ae93 1cbe
00000020: b43c a4be c95f ea3d 39e9 c3bb c2f6 4a3f
00000030: f539 323f c6d8 1b3f 787c ecbe 6bd6 ebbe
00000040: d32e 03be 5bea 78be 90ec ddbe ef18 543f
00000050: 226a e0bd ec9c a6bc 7f30 d53e a5c6 6a3f
00000060: d467 363f c185 09be e22a 373f e5fc 233f
00000070: 2013 1dbe fffb 543f 8fde 523f 76b1 103f
00000080: c82b 01bf 9c90 5f3f ceba 383f 0b46 af3c
00000090: b9b7 8b3e 9d85 b93e a487 30bd 63ff fbbd
000000a0: 2c57 c7bd 93dc b23e cdfe 463f 644b 7bbe
000000b0: 58c2 e03e 7ae2 4abe c99b eebc c3ac 5f3f
000000c0: 8dac 633f 515e 2bbe c806 813d 7767 08be
000000d0: 0cb0 3e3e 8ef4 dabd 9363 5a3f e744 fdbe
000000e0: 7588 123f cd82 bc3e 2789 edbe b184 2bbe
000000f0: fc52 3abe 9e3d c4bd ccc5 45bd 5804 cd3e
00000100: a1cf 7f3e b1c2 4abe 4c94 5d3f a894 9f3e
00000110: 54c9 cc3e b7f3 12bf 1b7c 38be 9e35 1a3f
00000120: 35d7 223e f099 97bd 9d02 febe 8ad2 113c
00000130: 93e7 093f 2c15 aabd 13f5 b9be b2bc 4c3f
00000140: 79db 86bf 5951 de3d 02a7 653f 19ec 7dbe
00000150: a3b6 44bf f586 c8bd ebe0 87be d29d 27be
00000160: 2575 3c3f d22f 563f 9ac3 483f ed2d 05bf
00000170: 2d24 0dbe e984 dc3e 1cbf 02bf 45d2 e3bb
00000180: c675 f23e bdfe f33e 30ee 383f 5d99 f13d
0.58341163 0.477876 0.74695235 0.84642637 0.23279239 0.40384862 -0.16690335 -0.1529071
-0.32077563 0.11444051 -0.00597873 0.7928277 0.69619685 0.60877645 -0.46188712 -0.46062025
-0.12810831 -0.2430815 -0.43344545 0.82850546 -0.10957743 -0.020338498 0.41638562 0.9170936
0.7125218 -0.1342993 0.7154981 0.6405776 -0.15339327 0.83197016 0.8237085 0.56520784
-0.5045743 0.8733003 0.7216004 0.021395704 0.27288607 0.3623475 -0.043098107 -0.123045705
-0.097334236 0.3493391 0.77732545 -0.24540478 0.43898273 -0.19812956 -0.029127019 0.8737299
0.88935167 -0.16735198 0.063001215 -0.13320719 0.18621844 -0.10691176 0.8530819 -0.4946663
0.57239467 0.36818543 -0.463937 -0.16749837 -0.18195719 -0.09582065 -0.048284337 0.40042377
0.24981548 -0.19800831 0.8655441 0.31168103 0.3999735 -0.5740313 -0.18016092 0.60238063
0.15902407 -0.07402408 -0.4961137 0.008900294 0.5386898 -0.083048195 -0.3631979 0.79975426
-1.0535728 0.108553596 0.8970796 -0.24797095 -0.7684118 -0.09791366 -0.26538786 -0.16368797
0.7361625 0.8366672 0.78423464 -0.520232 -0.13783331 0.43070152 -0.5107286 -0.0069525563
0.4735548 0.47655287 0.72238445 0.1179683

weight f4 [1, 100]
00000000: d074 963e 6f7d d43e 031a 803e a952 c83e
00000010: c09c 47c0 8eee 323f d76c 073f d4d9 d3be
00000020: 63e8 25c0 1e4b 98bf 98fd 58bf 724d ea3e
00000030: 9a6e a53e a4d1 b63d 5b16 2b3f 703d efbf
00000040: 03b7 f73c ef7a 71bd 55b1 55c0 016e e33e
00000050: 3790 1ebc 8f2b b1bd d055 29bf 3241 debf
00000060: 2ace 8e3e ffa3 d43c 6bac 313e 033c ff3d
00000070: a580 bf3c 349b b03e 8320 8c3e ec79 83bf
00000080: a082 543f aecc ff3e ca3c 703e 43fb 46c0
00000090: d533 edbf ed7c 39bf 23fe ee3f 8a4c d5bf
000000a0: ef50 163b 0c1a efbf 4033 3a3e 30d9 cb3f
000000b0: 1799 ba3e ba81 453b 4131 97bf 98a0 ae3e
000000c0: 8706 003f 775f b1bc d55a ff3e 9c87 cf3c
000000d0: 464b f2bf 6220 38bb 0a6f 033f ef5f 26c0
000000e0: 8a24 733d 0573 1ac0 2c3e 93be f32b 2abf
000000f0: 94b7 0dbc 5d85 a1bc 6abd bd3f 1960 62bf
00000100: 9321 f6be 53a4 013c d332 013f 5da1 fabf
00000110: 4faf b3be 2c44 cdbe 6741 26c0 e3c2 683e
00000120: 5dee a63e fa15 84bf 7aaf 32c0 c222 973f
00000130: 0f8a 79bf 1372 24bd 3618 293f 7259 513e
00000140: 00d5 09bf b84c 44c0 9b7d 103f 0158 debe
00000150: 655d 80be ca00 3fbd 4b0f 25c0 6bdd ac3c
00000160: 4f19 4f3f 7ed8 c43e eeb7 1e3f 4374 dbbe
00000170: 67c1 03bc 8eb4 ec3e e261 c4bf 86fe 46be
00000180: 9325 d2bf 2dd1 c1bf 3e6a 9a3e 05d6 bb3f
0.29385996 0.41501948 0.25019845 0.39125565 -3.1189423 0.69895256 0.5290045 -0.41377127
-2.5923088 -1.1897924 -0.84761953 0.4576221 0.32310945 0.089267045 0.66830987 -1.8690624
0.030238634 -0.05895513 -3.3389485 0.44419864 -0.009677938 -0.08650886 -0.66146564 -1.7363646
0.27891666 0.025957106 0.17350928 0.12462618 0.023376772 0.3449341 0.27368554 -1.0271583
0.8301182 0.49960846 0.23460689 -3.1090858 -1.8531443 -0.72456247 1.8671306 -1.6663983
0.0022936424 -1.8679824 0.18183613 1.5925655 0.36444923 0.0030137138 -1.1811906 0.34106898
0.5000996 -0.021651966 0.49873987 0.025333218 -1.8929222 -0.0028095474 0.5134131 -2.5996053
0.05936102 -2.4132702 -0.2875837 -0.6647331 -0.0086497255 -0.019716913 1.482343 -0.88427883
-0.4807249 0.007912713 0.50468177 -1.9580494 -0.35094687 -0.40091074 -2.5977418 0.22730593
0.32603732 -1.0319207 -2.7919602 1.1807482 -0.97476286 -0.040147852 0.6605257 0.20444277
-0.5384064 -3.0671825 0.5644166 -0.43426517 -0.25071254 -0.046631612 -2.5790584 0.021101674
0.8089799 0.3844642 0.61999404 -0.42862138 -0.008041716 0.46231502 -1.5342371 -0.1943303
-1.6417717 -1.514196 0.3015918 1.4674689
