reinforcement_learning/results/EndToEnd_critic1_optimal.pt (torch, 62114 bytes, 5 tensors)

weight f4 [100, 43]
00000000: 838f 3bbf 13a6 0bbf cb48 09bf 4edc 1ebf
00000010: 96a1 40bf d6f2 1ebf 20ef fbbe 6704 c4be
00000020: 6618 03bf 231f a2be 98c7 96be e40d 9bbd
00000030: fd1a 33bd 621c 8bbe e596 5ebe 0dad 973c
00000040: c4d4 30be ae60 10bf 9669 5ebe 61a4 e33d
00000050: f1f9 5ebf c755 24bf 65e4 70be 8326 83bd
00000060: ae00 cfbe 6239 9ebe 6f11 83be 297d a0be
00000070: 9a70 c7be d04c b4be 1d6a 0ebf e7e7 363e
00000080: c350 74bd f971 6abe 0d53 b6be a11e 67be
00000090: 463d e53d 57d7 73be 96f0 c0be ecbd dabe
000000a0: 95ec 813d 1547 583e 3071 8bbe 41fd 3a3d
000000b0: 6fb4 b1bc a178 08bc 110f c9be 15d7 3ebf
000000c0: 8c3e efbe aace c4be 49df d7be 4856 d8be
000000d0: 5385 213f 9f82 a33e a44c 533e 0585 3e3f
000000e0: f39c ddbe 463f f9be 9838 5fbf f064 3bbf
000000f0: 877e 86bf 2e19 31bf 162e 85bf 7392 0a3e
00000100: c8b1 89be da78 093e a48f da3d de2d efbe
00000110: cfe7 04bf f741 f9be 85bb 1dbd a56e c5be
00000120: 7519 ea3e 0c9b 593e a79e 943e 9e05 b03e
00000130: be08 db3e b9bc b0bf a3a8 79bf a134 63bf
00000140: 4e3b 54bd d320 cc3d 9756 55be d401 9b3e
00000150: 9cf8 86be 7ef3 fb3d 71d0 703e 991b 073e
00000160: a569 49bd a904 c83e 3b14 d43e 1024 453f
00000170: 118f a3be 25ab f53c cf3b 403e 733b 6d3e
00000180: 75b8 29bd f3fb 803c d470 cb3d ea95 af3e
00000190: c7fd 863e 6c19 ae3d 7bc9 a63e e3a9 c53e
000001a0: 79ea 7fbe c8a9 78be 7308 de3d 55fc 843e
000001b0: 7e8e 0e3e dfe7 783e 98a0 6bbe 125a d83e
000001c0: e6be 0e3e 8eeb 62bc 9bca 83bd b360 333d
000001d0: 8cd5 033e b28f 623c 9caa 393d 7f79 96be
000001e0: d6f6 b83e 9d92 0c3e f219 153d 2f8f d13d
000001f0: e33b a33e f7f3 69bd 7a33 493e ca48 4cbc
00000200: edb0 6c3e 2507 c83e 2bdb 80bf d2f3 abbf
00000210: 4c4d 0cbf 2ef7 b8bd c195 873f 771e d53e
00000220: c3f0 4bbf 206a 03bf 08fb 1d3f d606 a9bd
00000230: 914e 63bd 06fd 003e 1efc 3fbf 6574 2bbf
00000240: 0796 683d 029c febe 0161 423c 1545 25bf
00000250: d85c 05be 2fb3 fe3c 01c5 28bf 2291 46bf
00000260: e687 9abf 5ec9 7dbf ad02 0dbe a2c7 a43d
00000270: 6dce 033f e201 6bbf cab4 933e 03bc 073f
00000280: a0eb 0cbd aaf5 e7bd 71ba 90bd d29b 96bf
00000290: f19b c33d 81f3 73bf f3f2 ec3e 7782 a23e
000002a0: ba98 793e eabb 453f 3102 463e d2e2 d8bd
000002b0: 276f b23e f6b0 933b 5e37 5dbe 4b5f cdbe
000002c0: 5bb5 9bbe 721f 143e 6031 a93e 31b0 a43e
000002d0: dd2a 7a3e edbd d23e d64b 1dbf 580f b53e
000002e0: 14c7 68bf 159d 91be ba2b 68be 96dc 3b3f
000002f0: 09e9 84bc 0d5f 973e fcf3 50be 4df2 383e
00000300: 63b3 0d3f ac01 143e e38e 3abe f433 2bbe
00000310: bb5a 943e 2cd8 2a3f a54d fa3e bbf9 593e
00000320: 9774 d73d fe04 8cbe 6b9f 99be 82b6 473f
00000330: 5ab5 bfbe ba78 3d3e 3031 b43d d5f9 21bf
00000340: 3d94 a0be 39e2 15be 5c42 f1be 28bd 8ebe
00000350: aeec 37bf 1d42 883e 3715 36bf 65e9 f53e
00000360: 9368 8b3e d405 743e 7cf8 7b3d 1e75 efbe
00000370: 9472 4cbf 992e a2be c7b7 fd3e f4ea c23d
00000380: 2928 4fbf faf0 66bf 1461 b8be 09a5 8dbd
00000390: 0460 c2bd f770 473e 69ad 113f a8de c63d
000003a0: 0d4f 3fbe ade8 043e f2df 09be b99c b8be
000003b0: 2576 923e 3f97 013f 014f 563e 55ce 913e
000003c0: 2226 9fbd 577d 833d 9fd6 8b3d 32cf 3cbf
000003d0: 5fba bfbd 4c20 4b3e 7d8e 21bf bdab 4ebf
000003e0: 1ad6 00bf 9d15 e6be e719 a63d 983d 53be
000003f0: 2795 283f 506c f93e 2915 1bbe c413 a4be
-0.73265857 -0.54550284 -0.536267 -0.6205491 -0.7524656 -0.6208929 -0.49205875 -0.3828461
-0.51209104 -0.3166438 -0.29449153 -0.07571009 -0.04372691 -0.27170092 -0.21737249 0.018515134
-0.17268664 -0.5639752 -0.21719965 0.11115337 -0.8710013 -0.64193386 -0.23524626 -0.0640383
-0.40430206 -0.30903155 -0.25599238 -0.3134549 -0.38953096 -0.35214853 -0.55630666 0.17861901
-0.059647333 -0.2289504 -0.35610238 -0.22570278 0.111933276 -0.23812614 -0.37683553 -0.42723024
0.063439526 0.21120866 -0.27234793 0.045651678 -0.021692483 -0.008329541 -0.39269307 -0.7454694
-0.46727407 -0.38438922 -0.4216254 -0.42253327 0.6309406 0.31935593 0.20634705 0.7442172
-0.43283805 -0.48681086 -0.8719573 -0.73200893 -1.0507363 -0.69179046 -1.0404689 0.13532428
-0.2689345 0.13425007 0.106719285 -0.4671468 -0.5191621 -0.4868314 -0.03850891 -0.38560978
0.45722547 0.21250552 0.29027292 0.34379286 0.42780107 -1.3807594 -0.97522944 -0.8875218
-0.05181437 0.09967198 -0.20833813 0.30274832 -0.2636155 0.12302302 0.23517014 0.13194121
-0.049173016 0.39066055 0.41421685 0.7700815 -0.31945089 0.029988835 0.18772815 0.2316721
-0.041435678 0.015745139 0.0993363 0.34294063 0.26365492 0.085009426 0.32575592 0.38606176
-0.24991788 -0.24283516 0.10841455 0.25973764 0.13921544 0.24307202 -0.2301048 0.42256218
0.1394001 -0.013850106 -0.06435128 0.04379339 0.1287443 0.013828205 0.04532872 -0.2938957
0.3612582 0.13727804 0.036401697 0.10232388 0.31881627 -0.05711743 0.19648543 -0.012468526
0.23114367 0.3906795 -1.0066885 -1.3433783 -0.54805446 -0.09031521 1.0592576 0.41624805
-0.7966425 -0.5133381 0.6171117 -0.08253257 -0.05549485 0.12596521 -0.74994075 -0.6697448
0.056783702 -0.497284 0.011863948 -0.64558536 -0.13023698 0.0310913 -0.65925604 -0.77565205
-1.2072723 -0.99135387 -0.13770552 0.080458894 0.51486856 -0.9179975 0.2884887 0.5302126
-0.034404397 -0.113261536 -0.07066811 -1.1766303 0.09551228 -0.9529343 0.46279106 0.31740162
0.24374667 0.7723986 0.19336773 -0.105901375 0.34850428 0.0045071794 -0.21603152 -0.40111765
-0.304118 0.1446512 0.33045483 0.32165673 0.24430414 0.41160527 -0.6144384 0.3536327
-0.9092877 -0.28440157 -0.2267293 0.7338346 -0.016224401 0.29564705 -0.20405573 0.1806118
0.5535185 0.14453763 -0.1821857 -0.16719037 0.28975472 0.667361 0.48887363 0.21286671
0.105202846 -0.2734756 -0.3000444 0.7801286 -0.37443048 0.18503085 0.08798444 -0.6327184
-0.31363097 -0.14637078 -0.4712094 -0.2787869 -0.7184552 0.2661294 -0.7112612 0.48029628
0.2722822 0.23830348 0.06151627 -0.4676904 -0.7986233 -0.31676176 0.49554273 0.0951747
-0.80920655 -0.9021145 -0.36011565 -0.069162436 -0.0949097 0.19476686 0.5690523 0.09710437
-0.18682499 0.12979384 -0.13464335 -0.3605707 0.28605762 0.5062141 0.20928575 0.2847773
-0.07770945 0.06420391 0.06828045 -0.73753655 -0.09361719 0.19836539 -0.63108045 -0.807308
-0.50326693 -0.44938365 0.08110409 -0.20628965 0.6585259 0.48715448 -0.1514479 -0.3204633

bias f4 [100]
00000000: 923b a9bd b479 2cbe 34e4 84bf 8d8b 54bd
00000010: 499e 2cbe 44cf 793e 2050 73bc 33b6 59be
00000020: 4a6e 183f 92b1 d03e 3027 143f 6806 4dbf
00000030: 3aaa 223e 196d 723e 2382 84bf 17f5 393e
00000040: fb94 063f 9a2a 7e3e dcc1 a3be 6179 9b3e
00000050: e6e0 a23d 5979 30be 0b38 173e 1b33 b3be
00000060: a5fe 87bd 9a70 63be 2212 22be da8f f0be
00000070: ba2f 67be 8d84 97be 45c0 31be bee0 2f3e
00000080: d0c8 2a3f 6d5b 02be 13c7 673e 603b f6be
00000090: 8633 72be 52c2 923d 5db3 74be 6203 76bd
000000a0: 0cc4 d2be 4e9d 223f 41ab 653e 03ed 4dbf
000000b0: e258 1bbe b6a8 ef3e 57fd 95be aead 9dbd
000000c0: 634a dfbe e172 84be 2a4f e53c 8cbc 5dbe
000000d0: 8df6 233c 100c 313e bfc1 85bd c21f 7a3d
000000e0: 20b4 96bd 9724 c9be c5dd c8be 9a3c 68be
000000f0: 4485 6abf 1113 1abf a60e d03d 9e3e 3dbf
00000100: 8d76 1d3f 3c60 77be 3902 18be 8c76 b3bc
00000110: add5 a23c 913d 233f c02b d6bd 27c7 4abe
00000120: 16b8 f2bc c261 bd3e 3dd5 c73e 56df 01bf
00000130: 39cd a53e 524a 58bd ab95 5e3e ff3c 183f
00000140: f2c5 813e 1aab b53d ec4c 863d 63ec 2f3f
00000150: d7e5 ad3d 2970 ad3d 7b1b 643f 875c 543e
00000160: bda2 03bc a011 d23e 0789 5bbe 9d88 f4bd
00000170: 8a90 48be ff4c d93d 8ede d1bd 1d2e 12be
00000180: e432 3a3e 83dd 0bbe 9e8f 2cbe d1a5 9abe
-0.08263315 -0.16843301 -1.0382142 -0.0518909 -0.16857256 0.24395472 -0.014850646 -0.2126091
0.5954329 0.40760475 0.57872295 -0.800879 0.15885249 0.2367443 -1.0352215 0.181599
0.52571076 0.24820939 -0.3198384 0.30366042 0.07953052 -0.1723379 0.14767472 -0.34999928
-0.066403665 -0.22210923 -0.1582723 -0.4698475 -0.225768 -0.29593316 -0.17358501 0.17175576
0.66712666 -0.12730189 0.22634535 -0.48092175 -0.23652467 0.0716597 -0.23896547 -0.06006182
-0.41165197 0.6352128 0.2242861 -0.80439776 -0.15170625 0.46808404 -0.29294845 -0.076991424
-0.4361144 -0.25868896 0.02799185 -0.21653956 0.010007513 0.17289758 -0.06531095 0.061065443
-0.07358575 -0.39285728 -0.39231697 -0.22679368 -0.916096 -0.60185343 0.10159044 -0.7392367
0.6150902 -0.24157804 -0.14844598 -0.021907113 0.01987728 0.6376582 -0.104575634 -0.19802533
-0.029628795 0.36988646 0.39029875 -0.5073141 0.32383135 -0.052805252 0.21736781 0.5946807
0.25346333 0.08870526 0.065576404 0.6872007 0.08491104 0.084686585 0.8910443 0.20738421
-0.008034405 0.41029072 -0.2143899 -0.119401194 -0.19586387 0.10610389 -0.10247527 -0.14275403
0.18183476 -0.13658719 -0.1685166 -0.30204633

weight f4 [100, 100]
00000000: 793e c6bd 284b 84bf f61a 8bbf 44ff a4bf
00000010: 763d ffbe d129 063d 7db1 2abf 50bd 873e
00000020: ced0 113e 11ee c23e c6a1 8a3e fd69 b5bb
00000030: 9175 33bd 9cc1 d4bf f5dd e8bd e971 14bf
00000040: 1e65 10bf 9ec0 c0be 2d37 84be 11d3 99be
00000050: e05f 0d3e 89cb 19bf e383 4b3e c377 3d3e
00000060: 29f7 b0bf eed2 d5be 20b7 83bd 8156 d1be
00000070: 0781 e2bd 4409 0bbf a6c3 08bf ff24 fbbe
00000080: 3ae4 a3be df20 b6bb fcad 24bf 03b4 e9bd
00000090: 5c77 2abf 0160 363e 0576 2d3c 9b3b 633d
000000a0: e9f2 ddbe 7cb4 40bf 1558 dfbe c986 5dbe
000000b0: a1f1 9abf af60 b93e 4932 46bd 373c 3ebd
000000c0: 899e b23d 5197 05be a469 bb3e fddf 21bf
000000d0: 5b1c 22bf ef87 7b3d c4c4 cfbc 9389 3abf
000000e0: 735e c0be 1486 1cbf e95d 1abe 6df4 bfbf
000000f0: 8615 eabe 5f29 26bf a050 5fbf e908 eabe
00000100: 97cc dd3e 4c63 72bf cd1d b3bd eb22 7cbd
00000110: 01b8 283f 2988 173e dd67 86bd be53 06be
00000120: 5005 3ebf 57ab 483e 0b82 bbbe ffac e2bf
00000130: 5ced 52bf 47f3 f93d d721 ccbe 193b 453e
00000140: 0b22 8cbd a60a b43d 1120 33be 4108 da3d
00000150: bfa3 273f af76 cf3e cbc1 ccbd 601f 3fbe
00000160: 7867 093e 7f97 d0be 324a 99be 0d6b a33e
00000170: 86be 113e 44cc 23be 41f3 8dbe 7f98 73bd
00000180: 0f4f c13d bcdc c53e 6acb 8ebf edec 0dbf
00000190: 75b9 48be 8c73 b93e 66da e0be 9eab b13e
000001a0: b66e 2ebe 745d abbe 15a5 ac3e f241 873e
000001b0: 22c2 a7be 3738 58bf 9430 80bf c018 b03d
000001c0: adae 263e 79d5 dcbe 4c35 f3be 655e c1bf
000001d0: e970 33bf 8a71 a63c 1201 89bf d88b 48be
000001e0: eb9b 833e a7d5 36bf 38bb 5fbf cf8e 97bf
000001f0: ff49 f2be 48dd 8abf 6878 47be 8d76 cd3d
00000200: 766c e7bd dafa 2ebe 4e8b 353e a91a 71bf
00000210: 7c66 7bbf 81a8 003d 3f07 2d3f 7e68 913e
00000220: 8cca a73d b427 d43e b8ac 3a3f 415a 133f
00000230: 7694 023e 2dbc d5be 3c4a 0abf 91a8 2dbe
00000240: 0157 a3be c559 bb3e 44c7 2fbf 3acf f4bc
00000250: a04f 26bf 0864 19bf d31b 48be 619f 2dbf
00000260: 0845 153d d78e 9cbf c726 ccbe e01a 4bbb
00000270: bb8a cfbe f698 893d 2dbc 84bf 19ff dfbd
00000280: 687e bebe ed41 14bf 65dd 64be f1d0 c0bd
00000290: 29d0 63bf 857f e3bd 9c91 c73e a139 2d3f
000002a0: f8b2 873e 67e7 a1be 8e68 07be 7d43 abbe
000002b0: 9a5e 813d 04f7 883d 85d7 1d3f 5f71 93be
000002c0: 78b6 ecbd 9866 1dbf f531 4d3e 440b 403e
000002d0: 9a7a 6ebe e745 3dbf ec85 2abe 6300 98bf
000002e0: 03d0 28bf 6ca0 7e3e a3fa 60bf 12b2 443d
000002f0: 3bc7 b1be 9110 873a 3095 c3be 00d8 babf
00000300: 886c 903c 5bc3 f5be 0eb4 bd3d a3a3 05bf
00000310: 60a3 7cbe 761d 3ebe eb74 fe3e 41a9 a8bf
00000320: 026f 023f 4523 19bf 591c 28be eafe c73c
00000330: c031 7cbd 536b 8fbf d191 e1be bc81 3b3e
00000340: 7bd6 42be 8553 b4be 2a20 913e 249e 28bf
00000350: a03b 443f b880 123e 789f 78bf 71ea 83bf
00000360: 0600 c53d 2d64 76bf fa01 2ebf 9854 d1bd
00000370: 8f1b fb3d 8ce6 c53d 43bb 21be 6b1c a23b
00000380: 7e57 01be 4063 66be c7dc 51be 96e7 16bf
00000390: 5bd5 793c 7d66 d53e c50b 89bc 0852 63bf
000003a0: a29f 55be cd7d 023c c269 d3be aeaf 8ebf
000003b0: e9e6 2abe 9e3b 29bf 4092 c13e ec03 c2bd
000003c0: 6479 703d cd92 08bf 34f4 26bf 1049 ff3e
000003d0: 4344 ea3d 57f8 00bf 9126 5cbf 0098 7ebc
000003e0: d025 abbe 4126 953e afe6 98bd 517f ef3d
000003f0: 2fa2 08bf 8a9d 293d 0db2 46bf 0f3b 5ebf
-0.096798845 -1.0335436 -1.0867603 -1.2890401 -0.49851578 0.032754723 -0.66677076 0.2651162
0.14239809 0.38072255 0.27076548 -0.0055363164 -0.043813292 -1.6621585 -0.1137046 -0.57986313
-0.5640429 -0.37646955 -0.25823346 -0.30043843 0.13806105 -0.60076195 0.1987453 0.18502717
-1.3825427 -0.4176249 -0.06431413 -0.4088631 -0.11059766 -0.54311013 -0.53423536 -0.49051663
-0.3201006 -0.0055581178 -0.6432798 -0.11411288 -0.6658838 0.1781006 0.01058722 0.055476766
-0.43349388 -0.752754 -0.4362189 -0.21633448 -1.2104989 0.36206576 -0.0483878 -0.046444144
0.087216444 -0.13046004 0.36604035 -0.63232404 -0.63324517 0.061408933 -0.02536238 -0.7286617
-0.3757206 -0.61142087 -0.15074886 -1.4996468 -0.45719546 -0.6490688 -0.872324 -0.45709923
0.43320152 -0.94682765 -0.087459184 -0.061556738 0.6590577 0.14798035 -0.06562779 -0.13117883
-0.74226856 0.19596611 -0.36622652 -1.7709044 -0.8239343 0.122046046 -0.39869568 0.19260825
-0.06842431 0.087910935 -0.17492701 0.106461056 0.6548423 0.40520236 -0.099979006 -0.18664312
0.13418376 -0.40740582 -0.2993942 0.3191761 0.14232835 -0.1599589 -0.2772465 -0.059471603
0.09438907 0.3864497 -1.1155827 -0.55439645 -0.19601996 0.36220968 -0.43916625 0.34701246
-0.1703442 -0.33469737 0.33719698 0.264175 -0.327653 -0.8446078 -1.0014825 0.08598471
0.16277571 -0.43131617 -0.475016 -1.5106932 -0.7009416 0.020317812 -1.0703452 -0.19584596
0.25704893 -0.7141976 -0.8739505 -1.1840457 -0.4732208 -1.084878 -0.19479525 0.100323774
-0.11299984 -0.1708788 0.17728922 -0.94181305 -0.98203254 0.031410698 0.6758918 0.28400034
0.081929296 0.4143654 0.729198 0.5755959 0.12751946 -0.4174513 -0.5401952 -0.16958834
-0.31902316 0.36591926 -0.6866343 -0.02988397 -0.6496525 -0.5991826 -0.19541864 -0.6782132
0.036442786 -1.2231091 -0.39873335 -0.003099136 -0.4053553 0.06718628 -1.0369927 -0.10937328
-0.37205815 -0.57913095 -0.2235008 -0.094148524 -0.889895 -0.11108307 0.3897828 0.6766606
0.2650373 -0.31621858 -0.13223478 -0.33449927 0.06316872 0.066877395 0.6165698 -0.28797433
-0.11558241 -0.6148467 0.20038588 0.18754297 -0.23288956 -0.7393479 -0.1665265 -1.1875118
-0.659424 0.24865884 -0.8788244 0.048021384 -0.34722313 0.001030462 -0.3819976 -1.4597168
0.017629877 -0.48000607 0.09262858 -0.52202815 -0.24671698 -0.18565926 0.49698576 -1.3176652
0.50950634 -0.5981944 -0.16417064 0.024413545 -0.061570883 -1.1204628 -0.44056562 0.18311208
-0.1902713 -0.3521997 0.28344852 -0.65866303 0.7665348 0.14306915 -0.9711833 -1.0305921
0.09619145 -0.96246606 -0.67971766 -0.10221213 0.12261116 0.09663114 -0.15794091 0.0049472353
-0.12631032 -0.22498798 -0.20494376 -0.5894712 0.015248622 0.41679755 -0.016729245 -0.88797045
-0.20861676 0.007964564 -0.41291624 -1.1147363 -0.16689648 -0.66106594 0.37806892 -0.09473404
0.058709517 -0.53349 -0.65216374 0.4986043 0.11438801 -0.50378937 -0.8599635 -0.015539169
-0.33427286 0.29130748 -0.074658744 0.116942056 -0.5337247 0.041410007 -0.77615434 -0.86808866

bias f4 [100]
00000000: 5510 69be d0ce 96bd a47b e8be 73f7 00be
00000010: 96a0 d33b 4b08 82bd 9495 d63b 6626 31bf
00000020: 8f9d 173c 3f02 96be df9c c4be cee5 953e
00000030: be16 b8bd fbfc 33be 8413 43bf e8ba abbd
00000040: fa7e fbbe 4962 4dbf 4014 ecbd 2c65 82be
00000050: 2e72 b9bd 5bf3 abbe a98f 4dbe 0867 49bf
00000060: 58e6 7a3e 0c3e 8e3e 3444 5ebe a5d9 c1be
00000070: f6da 9bbe 6ff0 bf3e 79d4 7fbe d6ba 8d3e
00000080: 745c fbbd fcb5 1f3e b96a d4be a832 25bd
00000090: 2e16 2dbf eecc 05bf c169 2bbe 0aef 01bf
000000a0: b64a 16be 2216 c13e f2ae 203d 67e5 89be
000000b0: a471 453e d722 ce3c 7735 47be d526 683e
000000c0: 9585 21be 2e6b 09be 78cb 47bc c81d 133f
000000d0: e61e 72bc e306 a1be 7171 5ebe 830b 2abf
000000e0: 043b 16bf aace 30be f32d 50bd c537 bcbd
000000f0: e150 0ebe 8073 48be e84c 6fbe ca3e 873e
00000100: 2752 5c3b bb28 91bd 5a05 a43e d467 5dbe
00000110: d648 17be 52be 26be 2f7f 65be 5d3c 9e3d
00000120: f321 91be 1ea5 1abf e268 1c3f be86 b6be
00000130: 07cc 183e b32d e3bd f52e d3be bf35 5abe
00000140: 299d ddbe 3070 1fbf 8d8a 17bc 232a 02bf
00000150: 649b 36be f214 57be ae1e 3b3e 40b5 ecbd
00000160: f7b5 893e b309 8e3d de2e 85be 7a65 a13e
00000170: 3d8b a1be d416 d2be 25c3 5abe 148c 3bbf
00000180: aad3 42bf 1435 51be a6fd 6fbe 58ff 86be
-0.22760136 -0.07363665 -0.4540683 -0.12594394 0.0064583523 -0.06349238 0.006548593 -0.69199216
0.0092538735 -0.2929859 -0.38400933 0.2927689 -0.08988713 -0.17576973 -0.76201653 -0.08385259
-0.49120313 -0.80228096 -0.115273 -0.25467813 -0.09054981 -0.33584103 -0.20074333 -0.7867284
0.24501932 0.27781713 -0.21705705 -0.37861362 -0.3044049 0.37488124 -0.24983396 0.27681607
-0.122734934 0.15596765 -0.41487673 -0.040331513 -0.6761197 -0.5226582 -0.1673956 -0.5075537
-0.14676937 0.37712198 0.03922934 -0.26932833 0.19281632 0.025163097 -0.19453989 0.22671063
-0.15773614 -0.13419792 -0.012194507 0.5746732 -0.014777875 -0.31450567 -0.21722962 -0.66423815
-0.586838 -0.17266336 -0.05082507 -0.09190325 -0.1389804 -0.1957531 -0.23369181 0.26415092
0.0033618303 -0.07087847 0.32035333 -0.21621639 -0.14773878 -0.16283539 -0.22411798 0.07726357
-0.28346214 -0.604082 0.6109754 -0.35649675 0.1492158 -0.11092701 -0.41246763 -0.21309565
-0.43283966 -0.6228056 -0.009249342 -0.50845546 -0.17832714 -0.21004084 0.18273422 -0.11558008
0.2689664 0.06935444 -0.2601232 0.31522733 -0.31551543 -0.4103304 -0.21363504 -0.7326062
-0.76104224 -0.20430404 -0.23436603 -0.26366687

weight f4 [1, 100]
00000000: 12d8 bbbf a8ff 163f 9b1b 0dbf 1b46 033c
00000010: 430e 6b3f 260f 0e3f 0834 593e 6204 963e
00000020: 5150 e3be b3d8 d43e 2020 84bf 0949 f0be
00000030: 59bd 223c 36b0 d53e 2d9e 713e 00e1 db3e
00000040: 1bdb ce3e 55c2 6e3e 4c16 b2bf deba 693f
00000050: 0a83 44be 489c 95bf cfe9 93bf 590d 053f
00000060: 9e6b a23e 2951 533e f049 993e 37ab 8abf
00000070: 6bf7 8dbe 113d 5bbf abcd 28bf 452d 033f
00000080: af4b 94bf 4620 433e 1556 363f 97a6 92bc
00000090: c6c1 853e c6ae 13bf 70de 4b3e a52c d33e
000000a0: 3eed 7fbc c396 8f3e 22a7 ac3e b620 a4bf
000000b0: 5bf6 afbe ce63 f8be 545b 0f3f 83bd dfbe
000000c0: d4f3 01bf 36a4 423e b504 c03e d261 5c3e
000000d0: 536d 1a3f b912 29bf 9cbd a63e cdfd ae3e
000000e0: 03d7 663e bbd0 ffbe b49c b43e 9318 75bf
000000f0: 97fd 4abf 27f3 04bf ff84 51bf 213f 2c3f
00000100: e17d 1c3f def1 0dbf 04ee 993e 54bc 5f3e
00000110: c908 3abf d24b 87bf 0f72 043f 5848 173f
00000120: 55b9 48bf 6c87 2a3f 13bf 253e 402b 96be
00000130: 3e36 163f 4f66 8c3e bc52 29bf ed7a 23bf
00000140: e5ab 80bf f428 fd3e 3f74 82bf 6dc4 113f
00000150: 9142 aebe 594a 35bf 3dbe f5be 1a0a eebe
00000160: 894a 843e edd0 21bf ece2 173f bfa4 98bf
00000170: 7e66 d9be 1265 cebf 00ed 2cbf 5bf9 c43e
00000180: 1be0 023f 9ccd 933c 1ac1 44bf e109 483f
-1.4675314 0.5898385 -0.5512025 0.00801232 0.91818637 0.55491865 0.21211255 0.2930022
-0.44397214 0.41571578 -1.0322304 -0.4693072 0.009932839 0.41736 0.23595496 0.429451
0.4040154 0.2331632 -1.3913054 0.9130076 -0.19190612 -1.1688318 -1.1555728 0.5197349
0.3172273 0.20636429 0.29939222 -1.0833501 -0.27727827 -0.85640055 -0.65938824 0.5124095
-1.1585597 0.1905528 0.712251 -0.017901702 0.261244 -0.5768856 0.19909072 0.41245
-0.015620528 0.2804471 0.33721262 -1.2822483 -0.34367642 -0.48513645 0.5599873 -0.43699273
-0.5076268 0.19007954 0.3750359 0.2152169 0.60323066 -0.66044194 0.32566535 0.3417801
0.22542958 -0.49963936 0.35275805 -0.9574062 -0.792932 -0.5193352 -0.8184356 0.6728383
0.61129576 -0.55447185 0.30064404 0.21849185 -0.72669655 -1.0570014 0.5173654 0.5909476
-0.78407794 0.6661289 0.1618617 -0.29329872 0.58676517 0.27421805 -0.6614187 -0.63859445
-1.0052458 0.49445307 -1.0191725 0.56940347 -0.3403516 -0.7081657 -0.47996703 -0.46492082
0.25838116 -0.6320942 0.5933063 -1.1925277 -0.42461008 -1.6124594 -0.67549133 0.38471493
0.5112321 0.018042378 -0.7685715 0.78140074
