reinforcement_learning/results/EndToEnd_actor(test).pt (torch, 61710 bytes, 6 tensors)

weight f4 [100, 41]
0	0xbda987a8	-0.082778275
1	0xbe60f1bb	-0.21967213
2	0xbeaa4503	-0.33255777
3	0xbebf5ba3	-0.373746
4	0xbed7ab8a	-0.4212306
5	0xbf066214	-0.52493405
6	0xbe9a24ca	-0.30106193
7	0xbee66c29	-0.45004395
8	0xbe8bc546	-0.27298945
9	0xbef86c24	-0.48520005
10	0xbd1cfefa	-0.038329102
11	0x3f0125dc	0.50448394
12	0x3e6c2557	0.23061119
13	0x3e89ce64	0.26915276
14	0x3f01d407	0.50714153
15	0xbc616746	-0.013757532
16	0x3ef4a500	0.47782135
17	0x3e0e8add	0.1392016
18	0xbe13852d	-0.14406271
19	0x3ef5523d	0.47914305
20	0xbe875786	-0.26433963
21	0xbeb068cf	-0.34454963
22	0xbebae2f6	-0.36501282
23	0xbe9149a1	-0.28376487
24	0xbebaad77	-0.36460468
25	0xbf030d92	-0.5119258
26	0xbedb13a9	-0.42788437
27	0xbe807685	-0.25090423
28	0xbe4136bf	-0.1886854
29	0x3d3342b1	0.043764774
30	0x3e820f01	0.25402072
31	0x3f00b031	0.50268847
32	0xbdbb4662	-0.09144284
33	0x3dbb2a40	0.09138918
34	0xbd8f6e83	-0.070035
35	0xbdccf7e6	-0.100082204
36	0x3e8b9f92	0.2727018
37	0xbce9fc9d	-0.028562838
38	0x3dbca0e9	0.09210379
39	0x3e156390	0.14588761
40	0xbe56aaff	-0.20963667
41	0xbe3a9d58	-0.18224084
42	0xbdd6b704	-0.10484126
43	0xbe16b9c1	-0.14719297
44	0x3dbc0a95	0.09181706
45	0x3dd75534	0.10514298
46	0x3c970ee0	0.01843971
47	0xbdf33d1e	-0.118768916
48	0x3e759c1e	0.23985335
49	0x3efaff1d	0.4902276
50	0x3f07d90b	0.53065556
51	0x3d8b4bd2	0.06801571
52	0xbf42d3dc	-0.7610452
53	0xbea32c67	-0.31869814
54	0xbf032399	-0.5122619
55	0xbf08c9a5	-0.53432685
56	0xbf0920a2	-0.5356542
57	0x3c4b4453	0.0124064265
58	0xbb5ce3bc	-0.0033705076
59	0x3cda35dc	0.02663701
60	0x3e40dd79	0.18834485
61	0xbd3a9f81	-0.04556227
62	0x3e347fd9	0.17626895
63	0x3e091aac	0.13389081
64	0x3e0d3e10	0.13793206
65	0xbcb50937	-0.02209912
66	0xbded066a	-0.11573489
67	0xbcca717e	-0.02471232
68	0x3d144bfd	0.03620528
69	0xbd5ef2d8	-0.054430813
70	0xbe0bbfb4	-0.13647348
71	0xbe253822	-0.16134694
72	0x3e1dd45b	0.15413038
73	0x3dce1f28	0.10064536
74	0xbea5129e	-0.32240766
75	0xbe173c89	-0.14769186
76	0xbec690db	-0.3878239
77	0x3e75ea20	0.24015093
78	0x3c8ad6ec	0.016948186
79	0x3e51780c	0.2045595
80	0xbdc16e36	-0.09444849
81	0xbc39f88a	-0.01135076
82	0xbd9be343	-0.07611706
83	0x3cf91a1d	0.03040796
84	0x3e27c35d	0.16383119
85	0x3e0a4b9b	0.13505404
86	0xbd711e2e	-0.058866672
87	0x3e2277d0	0.15866017
88	0x3da5ec53	0.08101716
89	0x3e2c6c1b	0.16838114
90	0x3e4d14da	0.20027485
91	0x3f00b3bd	0.5027426
92	0x3e585a61	0.21128227
93	0xbe99137c	-0.29897678
94	0x3f0a7fca	0.5410124
95	0x3e6bda25	0.23032434
96	0xbf351a17	-0.70742935
97	0xbf202714	-0.6255963
98	0xbefc77da	-0.4931019
99	0xbcf29742	-0.029613141
100	0xbe07cd8a	-0.13262
101	0x3d5015d3	0.050802063
102	0x3de1338c	0.1099616
103	0x3de58d6f	0.11208617
104	0x3ec689a0	0.38776875
105	0x3ebd656d	0.36991444
106	0x3ccef4dd	0.025263244
107	0x3ca81759	0.020518946
108	0x3e099277	0.13434778
109	0xbd129688	-0.03578809
110	0xbd463b08	-0.04839614
111	0xbd0f2c3f	-0.034954306
112	0xbdf9f049	-0.12204034
113	0xbe89b516	-0.2689597
114	0x3e8ee3f7	0.27908298
115	0xbe028cc6	-0.12749013
116	0x3ea779dd	0.32710162
117	0xbec6d2e1	-0.38832763
118	0xbd69966c	-0.05702822
119	0xbe732b80	-0.23747063
120	0xbe5ee041	-0.21765234
121	0xbf19302a	-0.5983912
122	0x3dc99c26	0.09844236
123	0xbe8676ac	-0.26262414
124	0xbea75773	-0.32683906
125	0xbc030c0b	-0.007998477
126	0x3ea7ab0d	0.3274769
127	0x3f07f005	0.53100616
128	0x3eb4ec35	0.35336462
129	0x3ec423fd	0.38308707
130	0x3e68c03f	0.22729586
131	0x3ee719e8	0.45136952
132	0x3eeb06bc	0.45903575
133	0x3de1d93a	0.11027761
134	0xbf217046	-0.6306194
135	0x3da9efa3	0.0829766
136	0x3e72d1db	0.23712866
137	0x3ed324a6	0.41238898
138	0x3df73e26	0.12072401
139	0xbef205d5	-0.47270074
140	0xbe94eb55	-0.29085794
141	0x3d3789d2	0.04480917
142	0x3d65cdad	0.05610435
143	0xbe1276b8	-0.143031
144	0x3ce58bb1	0.028020712
145	0xbc7fe5e8	-0.015618779
146	0x3d8cb29f	0.06870007
147	0x3e4532fa	0.19257727
148	0x3ebc37f9	0.36761454
149	0x3dcca1a6	0.099917695
150	0x3b475630	0.0030416362
151	0x3e1d372b	0.15353076
152	0x3df95499	0.12174339
153	0x3dfc8296	0.12329595
154	0x3da72f94	0.08163372
155	0x3e80b90c	0.2514118
156	0x3ed8a763	0.42315206
157	0xbe5d5399	-0.21613921
158	0xbdad3561	-0.08457447
159	0x3e0b8f49	0.13628878
160	0xbe6628f8	-0.22476566
161	0x3b5cd64e	0.0033697071
162	0xbd7875c6	-0.060659193
163	0xbf1c4f2c	-0.61058307
164	0xbe1be0eb	-0.15222518
165	0xbd12026d	-0.035646845
166	0xbe153415	-0.14570649
167	0x3ddc7637	0.10764735
168	0xbc42d395	-0.011891265
169	0xbe02aa84	-0.12760359
170	0x3cd74dd8	0.026282236
171	0x3dcdefe6	0.100555226
172	0x3c169e8c	0.009193074
173	0xbe00e3ac	-0.1258685
174	0x3c4f293c	0.012644108
175	0xbe05641b	-0.13026468
176	0x3d9be29e	0.07611583
177	0xbce8e0f5	-0.02842758
178	0x3cb3191b	0.021862557
179	0xbd0db799	-0.03459892
180	0xbe0ece9c	-0.13946003
181	0x3cea8d8e	0.028631952
182	0x3df1f457	0.11814182
183	0xbd3c0b28	-0.045909077
184	0xbd921b51	-0.071341164
185	0xbe112f73	-0.14178257
186	0xbd081dc4	-0.03323151
187	0x3e0c1d62	0.13683084
188	0xbd67831a	-0.056521513
189	0xbd778913	-0.06043346
190	0x3dbdeb19	0.09273357
191	0xbe107f4f	-0.14111064
192	0xbd15b61a	-0.03655062
193	0xbd857716	-0.065168545
194	0xbc9484c3	-0.018129712
195	0xbde90beb	-0.11379226
196	0xbc1ea148	-0.009682007
197	0x3bcccb39	0.006249812
198	0x3c6099b2	0.013708519
199	0xbddc5e51	-0.10760177
200	0x3caf2a8c	0.021382593
201	0xbe1ad181	-0.15118982
202	0xbc3e5647	-0.01161725
203	0x3b23c63b	0.002498998
204	0xbd663c96	-0.056210123
205	0xbde37ce7	-0.111078076
206	0x3cc6322e	0.02419385
207	0x3d4784e0	0.048710704
208	0x3e4fee48	0.20305741
209	0xbdf265cf	-0.11835825
210	0x3db46d9d	0.088099696
211	0x3da74d24	0.0816901
212	0x3e49ae51	0.19695403
213	0x3ef602ec	0.48049104
214	0x3e0a93bc	0.13532919
215	0xbe9f5737	-0.31121227
216	0xbb8c8763	-0.0042886003
217	0x3e5d62e8	0.21619761
218	0x3e999033	0.29992828
219	0x3e76a690	0.24086976
220	0xbd966b44	-0.07344678
221	0xbea9bc84	-0.33151639
222	0xbea1f316	-0.31630772
223	0xbdf34da0	-0.1188004
224	0xbf2ba223	-0.67044276
225	0x3ec52c47	0.38510343
226	0x3e38e3e6	0.18055686
227	0xbe3f106c	-0.18658608
228	0xbe020083	-0.12695508
229	0x3d56789b	0.052361112
230	0x3dcf581e	0.10124229
231	0xbe0d702b	-0.1381232
232	0x3d6abc59	0.05730853
233	0xbdce8396	-0.10083692
234	0x3d0c0d20	0.034192204
235	0xbc374682	-0.011186244
236	0x3ef9af78	0.48766685
237	0x3ec856ec	0.39128816
238	0x3c8ecb29	0.017430859
239	0xbde0b35b	-0.10971709
240	0xbedd61a9	-0.4323857
241	0xbe95a2ad	-0.29225674
242	0xbec4fb26	-0.3847286
243	0x3cbdf50d	0.023188138
244	0xbe02531f	-0.1272702
245	0xbee6ef3f	-0.45104405
246	0x3eaf3c42	0.3422566
247	0xbe4e4fd2	-0.20147637
248	0xbeac4ccd	-0.33652344
249	0xbec40010	-0.38281298
250	0xbe8d2712	-0.2756887
251	0xbe49990c	-0.19687289
252	0xbe8149ed	-0.25251713
253	0xbe966f99	-0.29382017
254	0xbe14923f	-0.14508913
255	0xbe223d48	-0.1584369

bias f4 [100]
0	0x3e076c42	0.13224891
1	0x3ec71656	0.38884228
2	0xbe2a271a	-0.16616479
3	0xbeca0158	-0.3945415
4	0xbc43342d	-0.011914295
5	0xbe6051e2	-0.21906236
6	0x3e8f7ab7	0.28023311
7	0xbddc8f0e	-0.10769473
8	0x3e916eea	0.28404933
9	0xbf1c1706	-0.6097263
10	0xbe15231e	-0.14564177
11	0xbef38d80	-0.47568893
12	0xbd52f8b9	-0.05150673
13	0x3eeb3c44	0.45944417
14	0xbef419bc	-0.47675884
15	0x3eb75b4e	0.35811847
16	0x3e14736e	0.14497158
17	0x3db43f3d	0.08801124
18	0xbe1ab71d	-0.15108915
19	0x3d1b7bfe	0.037960045
20	0x3d8958bd	0.067063786
21	0xbea8aefa	-0.32945997
22	0xbe51de6e	-0.20495006
23	0xbdc202c3	-0.09473183
24	0xbda2d6a5	-0.079510964
25	0x3eae4334	0.34035647
26	0xbd96cdc4	-0.073634654
27	0x3def6753	0.116896294
28	0xbd1078c5	-0.035271425
29	0x3eca0e19	0.3946388
30	0xbd8ff8ff	-0.07029914
31	0xbee73e62	-0.45164782
32	0xbdbb2671	-0.091381915
33	0xbeacd184	-0.33753598
34	0xbe49775b	-0.19674437
35	0x3eb61a98	0.35567164
36	0x3dba5c0f	0.0909959
37	0xbcee223d	-0.02906906
38	0x3ed7da55	0.42158762
39	0xbdbd006c	-0.09228596
40	0xbddd171d	-0.10795424
41	0x3ed2644a	0.4109214
42	0xbd1511a8	-0.03639379
43	0x3d6d21ba	0.057893492
44	0x3eed6448	0.4636557
45	0xbec10480	-0.37698746
46	0xbd9b7d3f	-0.07592248
47	0xbf33df25	-0.70262367
48	0xbe00947d	-0.12556644
49	0x3dda7227	0.10666304
50	0x3eadb1cc	0.3392471
51	0xbf0a837b	-0.54106873
52	0x3e76c29e	0.24097678
53	0xbed056d6	-0.4069125
54	0xbd15bfd0	-0.03655988
55	0x3ef11d9f	0.47092912
56	0x3e9af4b9	0.30264834
57	0xbc16590c	-0.009176504
58	0xbea282a5	-0.317403
59	0x3d091e93	0.033476423
60	0x3ea7211f	0.32642457
61	0x3d1b2c7b	0.037884217
62	0x3e5b58ac	0.21420544
63	0x3e1cf2a8	0.15326941
64	0xbe140d2f	-0.14458154
65	0xbe43621b	-0.19080393
66	0xbedf99b8	-0.43671966
67	0xbd533dc0	-0.05157256
68	0xbd151dee	-0.036405496
69	0xbd5e61f9	-0.054292653
70	0x3ebdfb5d	0.37105837
71	0x3db8cea5	0.09023789
72	0x3da0a609	0.07844169
73	0x3de3d76d	0.111250736
74	0xbe122c6a	-0.14274755
75	0x3ecc74a1	0.3993273
76	0x3f321ecf	0.6957826
77	0x3f12e4c4	0.5738032
78	0xbdbd1183	-0.09231856
79	0xbe12a114	-0.14319259
80	0xbd981efe	-0.07427786
81	0xbd97c5ea	-0.07410796
82	0x3d75a201	0.059968952
83	0x3e0cc80a	0.13748184
84	0xbdc93b3d	-0.09825752
85	0x3e10218a	0.14075294
86	0x3d2b6fb3	0.04185457
87	0xbd9f89ad	-0.077899314
88	0x3ee8e13d	0.45484343
89	0xbeff3c8f	-0.4985089
90	0xbe15a57d	-0.1461391
91	0xbe0f922f	-0.14020608
92	0xbe9a93ad	-0.30190793
93	0xbe9fc47a	-0.31204587
94	0xbe0540f2	-0.13013056
95	0x3e513cb3	0.20433311
96	0x3e8c7cb0	0.2743888
97	0x3d81c273	0.06335916
98	0xbe0fc02e	-0.14038154
99	0xbde185dd	-0.110118605

weight f4 [100, 100]
0	0x3e9768df	0.29572198
1	0x3e614318	0.2199825
2	0xbe986482	-0.2976418
3	0xbe8fd65e	-0.28093237
4	0xbd12a4a3	-0.03580154
5	0xbe9565a8	-0.2917912
6	0x3e9ec3e7	0.31008837
7	0xbc7eceb9	-0.015552216
8	0xbf6c1f5b	-0.92235345
9	0xbdfbb3ea	-0.12290175
10	0xbeb7ae4f	-0.35875174
11	0x3e7d2013	0.24719267
12	0xbc35849c	-0.01107898
13	0xbe1ab972	-0.15109804
14	0xbe72548b	-0.23665063
15	0xbd0b29c3	-0.033975374
16	0xbb71cbfa	-0.003689526
17	0xbd9e4198	-0.07727355
18	0xbea8c097	-0.32959434
19	0xbf32eafa	-0.69889796
20	0xbdd07989	-0.10179431
21	0xbec5966e	-0.3859133
22	0xbf033a4f	-0.51260847
23	0xbefcfdc3	-0.49412355
24	0x3cf44d83	0.029822117
25	0x3e0e15f2	0.13875559
26	0xbdb9af87	-0.09066682
27	0xbe4a8e6f	-0.19780897
28	0x3e8713ad	0.263822
29	0xbf01f291	-0.5076075
30	0xbe582e4a	-0.21111408
31	0xbd3b04c2	-0.045658834
32	0xbda04b32	-0.07826842
33	0x3db6cc33	0.08925667
34	0xbe47d1d0	-0.19513631
35	0xbd92b82a	-0.07164033
36	0xbd2b0bbb	-0.041759234
37	0x3e10c9c8	0.14139473
38	0x3e31c680	0.17360878
39	0xbeed5ad8	-0.4635837
40	0x3ebc69f7	0.36799595
41	0x3e64d63d	0.2234735
42	0x3d9bb1f0	0.07602298
43	0xbcdcc8c5	-0.026951203
44	0xbf27d24f	-0.6555528
45	0xbe5b83ad	-0.21436949
46	0x3e0d3b25	0.13792093
47	0xbf4ba9a2	-0.79555714
48	0xbd31a955	-0.04337438
49	0x3c995788	0.018718496
50	0x3efb4149	0.49073246
51	0xbe95b012	-0.29235893
52	0x3dda825b	0.106693946
53	0xbf1db9b3	-0.6161148
54	0xbde72b04	-0.112875015
55	0xbe704c25	-0.23466547
56	0x3d21be44	0.039488092
57	0xbe674f75	-0.22588904
58	0xbf1aa0b5	-0.6040147
59	0xbe280f17	-0.16412006
60	0x3dec29d0	0.115314126
61	0xbe6d10a1	-0.23150875
62	0x3ea6b8e0	0.32562923
63	0xbe3600d5	-0.17773755
64	0x3de447be	0.11146496
65	0xbe56c54e	-0.20973703
66	0x3e016c7b	0.12639038
67	0xbf1c6c2e	-0.6110257
68	0xbea45ef6	-0.321037
69	0x3e8a6b2d	0.27034894
70	0x3f07d391	0.530572
71	0x3cb12856	0.021625679
72	0xbe5fcef0	-0.21856284
73	0x3d31427f	0.043276306
74	0x3ddfaf2c	0.10922083
75	0x3edd1b18	0.43184733
76	0xbf787095	-0.97046787
77	0x3e3ee195	0.1864074
78	0xbd5a4def	-0.05329698
79	0x3d476ec7	0.04868963
80	0x3ea48163	0.32129964
81	0xbd18b87d	-0.037285317
82	0xbf236f4d	-0.63841707
83	0xbe99ff07	-0.30077383
84	0xbeb3548e	-0.35025448
85	0x3e5eade7	0.21746026
86	0x3dcabbb3	0.09899082
87	0xbcf80311	-0.0302749
88	0xbcfc5fa3	-0.030807322
89	0xbeceb6c7	-0.40373823
90	0xbd313498	-0.043263048
91	0x3dc6517a	0.09683509
92	0xbe8dc50d	-0.276894
93	0xbee20926	-0.44147605
94	0xbd9172f0	-0.07102001
95	0x3da89afa	0.082326844
96	0xbebe4e57	-0.37169144
97	0xbd16cc6f	-0.036816057
98	0x3dffc684	0.12489036
99	0xbda4cc7c	-0.08046815
100	0xbe4586b3	-0.19289665
101	0xbe453ca4	-0.19261414
102	0x3cad21e0	0.021134317
103	0xbec9d9cf	-0.39423987
104	0x3ce58dfa	0.028021801
105	0xbf001710	-0.5003519
106	0x3e75f5bf	0.24019526
107	0xbd5ce4ca	-0.053929128
108	0xbefc432d	-0.4927
109	0xbe289fdd	-0.16467233
110	0x3def7c75	0.1169366
111	0xbdcd5dff	-0.10027694
112	0x3da7f2fa	0.08200641
113	0x3e2f6ffe	0.17132565
114	0xbe9b6bd7	-0.30355713
115	0xbf6985c5	-0.9121974
116	0x3df917fe	0.12162779
117	0x3e9c4f9f	0.30529496
118	0xbf1b1f81	-0.60594946
119	0xbeb9cdd8	-0.3628986
120	0xbdf47f42	-0.11938335
121	0x3e18acee	0.14909717
122	0x3d1279bc	0.035760626
123	0xbdfcc425	-0.12342099
124	0x3de8a6a4	0.11359909
125	0x3e52b293	0.20575933
126	0xbded60e1	-0.11590744
127	0x3e26901f	0.16265915
128	0xbe26dee4	-0.16295964
129	0xbf6f8375	-0.9355996
130	0xbef2fb19	-0.47457197
131	0xbee8a35f	-0.45437142
132	0x3c24049a	0.010010863
133	0xbc5eb667	-0.013593293
134	0x3e912064	0.28345025
135	0xbe0a22ff	-0.13489912
136	0x3c2d00c4	0.010559265
137	0x3e4e3a1d	0.20139356
138	0x3e1dd5cb	0.15413587
139	0xbf2eb0d2	-0.68238556
140	0xbdbc8346	-0.09204726
141	0x3e1f2e6d	0.15545054
142	0x3d77ccab	0.06049792
143	0x3bc0ae9e	0.005880191
144	0xbf0d8ebb	-0.55295914
145	0xbcf97bb0	-0.030454487
146	0xbd858e73	-0.06521311
147	0xbf14138d	-0.5784233
148	0x3d2bde35	0.04195996
149	0xbc67c760	-0.014146656
150	0xbe203484	-0.15645033
151	0xbe0d0dec	-0.13774842
152	0xbe8dd60a	-0.2770236
153	0x3dfe08c3	0.12404015
154	0x3dc97eff	0.09838676
155	0xbee3417a	-0.44385892
156	0x3e6df230	0.23236918
157	0xbdd474a4	-0.1037381
158	0xbe665aed	-0.22495623
159	0xbf2c9e60	-0.6742916
160	0x3d65da37	0.05611631
161	0xbf824fdb	-1.018062
162	0x3df9e457	0.122017555
163	0xbc91c036	-0.017791849
164	0x3e865cd1	0.26242688
165	0x3db75a15	0.08952729
166	0xbeb30086	-0.34961337
167	0xbe3efefc	-0.18651956
168	0xbf1ffb09	-0.62492424
169	0xbcfbf92d	-0.030758465
170	0xbe66b768	-0.22530901
171	0x3dc59c3c	0.0964894
172	0xbef32e32	-0.47496182
173	0x3d702e19	0.058637712
174	0x3db15cb5	0.086602606
175	0xbdcd14f3	-0.10013761
176	0x3e073e49	0.13207354
177	0xbe4ad768	-0.19808733
178	0x3bd9e223	0.006649272
179	0x3c575f33	0.013145256
180	0xbe8b6fa7	-0.2723362
181	0x3d558217	0.052126016
182	0xbef2e5c9	-0.47440937
183	0xbe65cc06	-0.2244111
184	0xbe882782	-0.26592642
185	0x3e2e845b	0.17042677
186	0xbcc37e63	-0.023863977
187	0xbc539f17	-0.012916348
188	0xbea60dfa	-0.32432538
189	0xbec83174	-0.3910023
190	0xbea96704	-0.33086407
191	0xbd6f20b0	-0.058380783
192	0xbd27e47b	-0.04098938
193	0x3f39cd71	0.72579104
194	0xbdcf9abd	-0.10136936
195	0x3e2bc6d0	0.1677506
196	0xbe882aad	-0.2659506
197	0xbce559b3	-0.027996873
198	0x3eae9806	0.3410036
199	0xbc22e2ee	-0.0099418
200	0xbec6e55c	-0.38846862
201	0x3d31c50f	0.04340082
202	0xbefe9e66	-0.49730223
203	0x3cf763c7	0.030198945
204	0xbd5aef0a	-0.05345062
205	0xbd92dcff	-0.07171058
206	0x3dd865cf	0.105662934
207	0xbd957d40	-0.0729928
208	0xbe3d1279	-0.18464078
209	0xbf033fc6	-0.51269186
210	0xbb8d15c4	-0.004305573
211	0xbf039f80	-0.5141525
212	0x3e7b068e	0.24514219
213	0x3e34ac06	0.17643747
214	0xbef33e6c	-0.47508562
215	0xbf74488f	-0.95423216
216	0x3d23594d	0.039880086
217	0x3f8c43c6	1.0958183
218	0xbea93c0d	-0.33053628
219	0x3d134abc	0.035959944
220	0xbe8f64c5	-0.2800657
221	0x3edd0a69	0.43172005
222	0x3efe77e4	0.49700844
223	0xbf18d69f	-0.59702486
224	0x3d48106f	0.048843797
225	0xbf2b798d	-0.66982347
226	0xbe19c27b	-0.15015595
227	0x3ecc5ac3	0.39912996
228	0x3e43cce3	0.19121127
229	0xbf93d866	-1.1550415
230	0xbeb3761a	-0.35051042
231	0xbd819c07	-0.06328588
232	0xbdc39189	-0.09549243
233	0xbf2466b4	-0.6421921
234	0x3e972d94	0.2952696
235	0x3e84b586	0.2591974
236	0xbd715945	-0.058923025
237	0x3ec62aad	0.38704434
238	0xbeacdb22	-0.33760935
239	0xbf12b551	-0.57307917
240	0x3e27f21e	0.16400954
241	0x3e8b432d	0.2719969
242	0x3e043141	0.12909414
243	0x3dca14dc	0.0986726
244	0xbefc5919	-0.49286726
245	0x3def5553	0.11686196
246	0xbf18f74d	-0.5975235
247	0xbf3747f0	-0.7159414
248	0x3de69a1c	0.11259863
249	0x3e403282	0.18769267
250	0x3e7418d6	0.23837599
251	0xbcd490f2	-0.025948022
252	0xbe7bb4a9	-0.24580635
253	0x3d4758bb	0.048668604
254	0xbd8f47f3	-0.06996145
255	0x3cb57f8e	0.02215555

bias f4 [100]
0	0x3db474ba	0.08811326
1	0x3d39925a	0.045305587
2	0xbdebb219	-0.11508579
3	0x3e392544	0.18080622
4	0xbd9915a9	-0.074748345
5	0xbdd0dccb	-0.10198363
6	0xbdcd5538	-0.1002602
7	0xbdc0a3f0	-0.094062686
8	0xbe7f726d	-0.24945994
9	0xbb6b92d4	-0.003594567
10	0x3e38e8d0	0.18057561
11	0xbac6d1fe	-0.0015168784
12	0x3e1baac6	0.15201864
13	0xbd82936b	-0.06375774
14	0xbceea022	-0.029129092
15	0x3e90ce02	0.2828217
16	0xbed992b2	-0.42494732
17	0x3cd78705	0.0263095
18	0x3e1d6539	0.15370645
19	0x3d6dda70	0.058069646
20	0x3e784b40	0.24247456
21	0xbdc28581	-0.0949812
22	0xbe08c9f2	-0.13358286
23	0x3eaa8b35	0.33309332
24	0x3cfe6216	0.03105263
25	0xbdd1d778	-0.102461755
26	0xbeaa7487	-0.33292028
27	0x3e0afa1a	0.13571969
28	0x3e079583	0.13240628
29	0x3d70e4b9	0.058811877
30	0xbea5e3c5	-0.32400337
31	0x3e55d23c	0.2088098
32	0x3d3d9d4e	0.046292596
33	0xbebfc892	-0.3745771
34	0xbdfe6cc2	-0.12423088
35	0xbe64bcdc	-0.22337669
36	0xbcc1bd89	-0.023649948
37	0x3d79fd29	0.061032448
38	0xbcabfeee	-0.020995583
39	0xbd46d648	-0.0485442
40	0x3e980240	0.29689217
41	0x3d54326b	0.051805895
42	0xbdc9334d	-0.09824238
43	0xbd2d0a9b	-0.042246442
44	0xbe5d9e59	-0.21642436
45	0xbe9234f7	-0.28556034
46	0xbdca4c6a	-0.09877856
47	0x3e31b230	0.1735313
48	0x3d0abd49	0.033871923
49	0xbdbce41c	-0.09223196
50	0xbe90132c	-0.28139627
51	0xbd9f982f	-0.077926986
52	0xbe014728	-0.126248
53	0xbdf14984	-0.117816
54	0x3e57c81e	0.21072432
55	0xbebe6a78	-0.37190604
56	0xbe04de14	-0.12975341
57	0x3dc87882	0.0978861
58	0x3e9dcd47	0.30820677
59	0xbd8a9890	-0.0676738
60	0x3e27f7a3	0.1640306
61	0xbde4187c	-0.111374825
62	0xbe7f45d9	-0.24928989
63	0xbf142db6	-0.5788225
64	0xbe82f9eb	-0.25581297
65	0xbe8b7d84	-0.27244198
66	0xbd4ae164	-0.049531356
67	0xbe585545	-0.21126278
68	0xbe226da5	-0.15862139
69	0xbe62292c	-0.22086018
70	0xbc906b87	-0.017629398
71	0x3e5be9e4	0.21475941
72	0xbd0d2d8d	-0.03446727
73	0xbe27b51f	-0.16377686
74	0xbeb16860	-0.34649944
75	0xbdb21f13	-0.08697333
76	0xbe98e447	-0.29861662
77	0xbe982e5e	-0.29722875
78	0xbe5aff4d	-0.21386452
79	0xbbdffd08	-0.0068355836
80	0xbe0fdbe4	-0.14048725
81	0xbdda6172	-0.106631175
82	0x3e80ab68	0.25130773
83	0xbdfef020	-0.12448144
84	0xbea1cec5	-0.31603065
85	0xbe862134	-0.26197207
86	0xbe9707ec	-0.2949823
87	0x3d3a4446	0.045475267
88	0x3e55bcad	0.20872755
89	0xbd3a0432	-0.045414157
90	0x3e8dedea	0.27720577
91	0xbe7432cb	-0.23847501
92	0x3e5243c3	0.20533662
93	0x3d235443	0.03987528
94	0xbea76487	-0.32693884
95	0xbe3e71a9	-0.18598045
96	0xbe16c156	-0.1472219
97	0x3ec0da61	0.3766661
98	0xbe1092f0	-0.14118552
99	0x3d911dc2	0.07085754

weight f4 [2, 100]
0	0x3f32c603	0.6983339
1	0x3f514f9e	0.8176211
2	0xbe8fc3a0	-0.28078938
3	0x3e61534c	0.22004431
4	0x40782281	3.877106
5	0xbd17657b	-0.036962014
6	0xbf2ed60f	-0.6829538
7	0xbd9f3d2c	-0.077753395
8	0xbeb2ad5b	-0.34897885
9	0xbe4cf758	-0.20016229
10	0xbea8993f	-0.32929417
11	0xbea8afb3	-0.32946548
12	0x3d7e7b5b	0.06212936
13	0xbd749fcf	-0.059722718
14	0xbd641e29	-0.055692825
15	0x3f1ff009	0.6247564
16	0xbe059d83	-0.13048367
17	0xbe95bf41	-0.29247478
18	0x3fcc5ed4	1.5966439
19	0xbe9fe561	-0.3122969
20	0x3f494e71	0.7863532
21	0xbd4e2f66	-0.05033817
22	0xbd424afa	-0.047434784
23	0x3f8b1ba9	1.0867816
24	0xbea03bfc	-0.31295764
25	0xbd314a56	-0.043283783
26	0x3f974a4e	1.1819551
27	0xbd7feefc	-0.062483773
28	0x3e821c05	0.25412002
29	0x3f7cb32d	0.987109
30	0xbe41fcbd	-0.18944068
31	0x3f2a55c8	0.6653714
32	0x3f03d22a	0.5149256
33	0x3e92a3de	0.28640646
34	0x3c3bf806	0.011472708
35	0xbf6d4260	-0.92679405
36	0x3e9bdac9	0.30440357
37	0xbf399f73	-0.72508925
38	0x3f34c5ea	0.7061449
39	0x3d86ddbb	0.065852605
40	0x3e7bb0ff	0.24579237
41	0x3e142049	0.14465441
42	0x3e36b6c2	0.17843154
43	0xbe83c4ab	-0.25735983
44	0xbeb20104	-0.347664
45	0xbe167776	-0.14694008
46	0x3e878ba5	0.26473728
47	0x3e263685	0.16231735
48	0x3ebd8f64	0.3702346
49	0x3f0e39ac	0.5555675
50	0xbeee31c3	-0.4652234
51	0xbf86213a	-1.047889
52	0x3c609558	0.013707481
53	0x3cbfdfdc	0.023422174
54	0xbec52947	-0.38508055
55	0xbe2444ad	-0.16041823
56	0x3e8ff5ba	0.28117162
57	0x3dffed66	0.12496452
58	0x3f78609a	0.970224
59	0x3dbe7760	0.09300113
60	0xbe607c3e	-0.21922395
61	0xbe71b9a6	-0.23605976
62	0x3f559727	0.83433765
63	0xbe3e6215	-0.18592103
64	0xbec42698	-0.38310695
65	0x3e8394ee	0.25699562
66	0xbec48f73	-0.38390693
67	0x3dddd521	0.10831667
68	0xbe5999df	-0.21250103
69	0x3e8b2360	0.27175426
70	0x3cf5139c	0.029916577
71	0x3f812289	1.0088664
72	0x3f50df04	0.81590295
73	0xbe081db7	-0.13292585
74	0x3e970087	0.2949259
75	0xbe060baf	-0.13090394
76	0x3ee9cd9a	0.45664674
77	0xbeacaaa2	-0.33723933
78	0x3da74a60	0.08168483
79	0xbe5bd698	-0.2146858
80	0xbc1809c2	-0.00927967
81	0xbd0a443d	-0.033756483
82	0xbce7041e	-0.028200205
83	0x3cedbb70	0.029020041
84	0x3d5a6e24	0.053327695
85	0xbe62b4d3	-0.22139291
86	0xbe526b35	-0.20548709
87	0x3eac7048	0.33679414
88	0xbf6ba7b7	-0.9205279
89	0xbe8cb40d	-0.27481118
90	0xbea5771c	-0.32317436
91	0x3e4ec65d	0.20192857
92	0xbf07fa73	-0.5311653
93	0x3efed409	0.49771145
94	0x3f43ff48	0.76561403
95	0xbf566627	-0.8374962
96	0x3ca9e986	0.020741235
97	0x3f8870c3	1.0659412
98	0xbd9feac8	-0.07808453
99	0xbe713a96	-0.23557505
100	0xbe012f3b	-0.12615673
101	0xbe0e5ece	-0.13903353
102	0xbfaf824f	-1.3711642
103	0xbf599ca8	-0.85004663
104	0x3df2f39f	0.11862873
105	0xbd97e754	-0.07417169
106	0xbf244e15	-0.64181644
107	0x3e2c1e9f	0.16808556
108	0x3eaabcb0	0.33347082
109	0x3d6194be	0.055073492
110	0x3df5a545	0.11994413
111	0xbe4da826	-0.20083675
112	0xbe6d5956	-0.2317861
113	0x3d2783aa	0.04089705
114	0x3ebb7581	0.36613086
115	0xbdbf94bc	-0.09354541
116	0xbf3d13a3	-0.7385809
117	0x3d6f7abd	0.05846666
118	0x3e24a57b	0.16078751
119	0x3d2d6800	0.04233551
120	0x3c0bd07e	0.008533595
121	0x3d83a0aa	0.064271286
122	0xbd699d90	-0.05703503
123	0xbc0687de	-0.008211104
124	0xbb4c830e	-0.0031206044
125	0xbcedbc7e	-0.029020544
126	0x3e7d09d8	0.24710786
127	0xbdbd2381	-0.092352875
128	0x3eb5e36a	0.35525066
129	0xbf4d2235	-0.8013032
130	0x3daf4e1f	0.08559822
131	0x3c9482b9	0.01812874
132	0xbeb599c7	-0.35468885
133	0xbd17fd96	-0.037107073
134	0x3c5a2db2	0.013316559
135	0x3deceb77	0.11568349
136	0x3ea4dc61	0.32199386
137	0x3d21ec00	0.039531708
138	0xbe62ef7f	-0.22161673
139	0x3b47c668	0.003048325
140	0xbcccd1a6	-0.025002312
141	0xbda5e352	-0.080999985
142	0xbe011e9f	-0.12609337
143	0xbd5e38df	-0.054253455
144	0x3e18db65	0.14927442
145	0xbed11370	-0.40835142
146	0xbcca250e	-0.024675872
147	0xbe1b9479	-0.15193357
148	0xc06721d7	-3.6114404
149	0x3d38ca6b	0.045114916
150	0x3df7fffc	0.12109372
151	0xbdaa25b6	-0.08307974
152	0x3c36bc49	0.011153289
153	0x3b589f9a	0.0033054114
154	0x3c89a74a	0.016803402
155	0xbf0c01a7	-0.5469002
156	0x3d9f59db	0.077808104
157	0x3e68f4b8	0.22749603
158	0x3d12136c	0.035663053
159	0xbf415a13	-0.7552807
160	0x3c5d3217	0.013500712
161	0xbd9fb56c	-0.07798275
162	0xbc0aceb6	-0.008472135
163	0xbf4cc0d0	-0.7998171
164	0x3ebee914	0.372872
165	0x3ca53142	0.02016509
166	0xbd374fe2	-0.044753917
167	0xbead64ad	-0.33865872
168	0x3dec9264	0.11551359
169	0x3d93c8b2	0.07216014
170	0x3ca65d50	0.020308167
171	0xbd2ac51b	-0.04169188
172	0xbd69e958	-0.0571073
173	0xbd4a7be1	-0.049434546
174	0xbec93415	-0.39297548
175	0xbdc36c0c	-0.09542093
176	0xbe0d224b	-0.13782613
177	0x3dbd43d1	0.092414506
178	0xc016f644	-2.3587809
179	0x3e0c6d54	0.1371358
180	0x3d90d148	0.07071167
181	0x3e8a5134	0.27015078
182	0xbe27a3fc	-0.16371149
183	0x3c0e3157	0.008678756
184	0xbead5183	-0.3385125
185	0x3e0b7d48	0.1362201
186	0x3e0a40a2	0.13501218
187	0x3e8199fb	0.2531279
188	0x3e372cbb	0.17888157
189	0x3e459b56	0.19297537
190	0x3c659090	0.014011517
191	0xbe1b5bb2	-0.15171698
192	0xbdbb28fe	-0.09138678
193	0xbe2e53fc	-0.17024225
194	0xbd208716	-0.039191328
195	0xbddf1441	-0.10892535
196	0x3cce40d8	0.025177404
197	0x3e8a6929	0.27033356
198	0x3c5ef2fa	0.013607735
199	0x3e6ebdcd	0.23314591

bias f4 [2]
0	0xbae5dc1a	-0.0017536909
1	0xbef21747	-0.47283384
