reinforcement_learning/results/lookahead_actor.pt (torch, 9304 bytes, 5 tensors)

linear1.weight f4 [32, 16]
000000 39 43 80 3d 91 ed a3 3d 28 80 36 be 9a 44 b9 bd
       0.06262822 0.080042966 -0.17822325 -0.09046288
000010 70 03 08 bd 62 ed b8 3d ad 07 b1 3d 31 d4 b0 be
       -0.033206403 0.09029652 0.08644042 -0.3453689
000020 43 f7 e9 bd 3d ed 8d be fa 6e b1 be ee 95 f5 3d
       -0.114241146 -0.2772006 -0.3465498 0.119914874
000030 11 77 a7 be 81 41 f0 bd c6 48 d8 bb 05 0c f0 3d
       -0.32708028 -0.11731244 -0.006600472 0.117210425
000040 a0 41 27 bd 6e 0c 00 ba fd b2 a5 bd fb db 76 bd
       -0.04083407 -0.00048846647 -0.0809078 -0.060268383
000050 33 8b 58 be 2d f2 95 be 49 f4 59 be e6 fe 52 be
       -0.2114685 -0.29286328 -0.21284594 -0.20605049
000060 5f b7 97 3d 49 a2 42 3e d1 76 63 3d 3b e9 88 3e
       0.07408022 0.1900722 0.055533234 0.2674044
000070 6f ea 91 bd ea 74 59 be f2 7d c4 be fa 6e c9 3e
       -0.07124793 -0.21236005 -0.3837734 0.3934248
000080 4e f3 01 bd 24 4b 47 3c 18 8c 14 be fe 28 9f be
       -0.031726174 0.012163911 -0.14506567 -0.31085962
000090 17 57 23 3e 2e b1 f2 bd bb 22 88 3d be e7 a5 3e
       0.15951191 -0.118502006 0.06647249 0.32403368
0000a0 5b 89 1a 3e d7 5b b5 3e 25 f0 9c 3e 15 32 61 3d
       0.1509146 0.3542163 0.30651966 0.054979403
0000b0 2a fb 0f bc 75 bb b2 3e 23 10 ba 3e 69 22 f7 3e
       -0.0087879095 0.34908643 0.36340436 0.4826844
0000c0 28 73 6b 3e fe b0 39 3e 5c 25 83 3d d0 ab f8 3d
       0.22993147 0.18133923 0.0640361 0.12142146
0000d0 09 64 58 3d 22 ab 23 be d6 33 b0 bc 36 1d 74 be
       0.052829776 -0.1598325 -0.021509092 -0.23839268
0000e0 aa e7 e8 bd af 56 ff bd 14 4a 35 3e 78 d0 2c be
       -0.113723114 -0.124677055 0.1770404 -0.168764
0000f0 e5 bb e3 3d 32 f9 76 be 52 b7 44 be d1 46 f3 bd
       0.111198224 -0.24118498 -0.19210556 -0.118787415
000100 51 58 8f 3e 88 60 7c 3e ac f1 09 3e 71 86 5e be
       0.27997068 0.24646199 0.13471097 -0.21730973
000110 21 bc c0 bd 88 ed 1d be 24 a4 58 be e3 af 7a bd
       -0.09410883 -0.15422642 -0.21156365 -0.061202895
000120 a3 38 38 3e e9 d4 59 3c 1c d4 5b bc 30 a0 8c 3e
       0.17990355 0.013295391 -0.01341727 0.27465963
000130 38 ae 22 3e 00 d4 2b 3e f1 2a ad 3c 32 5f 1d 3d
       0.15886772 0.1678009 0.02113864 0.038420863
000140 f4 3a f6 3e 62 5f b0 3e a6 de 96 3d d2 90 8c 3e
       0.48091853 0.3444777 0.073666856 0.2745424
000150 0e ec 5b 3e 6f c3 9c 3e 58 9b 0f 3e 1c 7b b5 3d
       0.21476766 0.30617854 0.14024103 0.08861372
000160 b3 08 c6 bd 10 38 a8 3e 47 f2 42 3d ac 6f 94 3e
       -0.09669628 0.32855272 0.047594335 0.2899145
000170 c1 a7 c1 3e fb e8 97 3e 48 36 3e be a2 10 3d 3e
       0.378233 0.29669937 -0.18575394 0.18463376
000180 dc a2 13 bc eb ab d8 bd da eb f6 3d 2f 1c 3b 3f
       -0.009010997 -0.10579666 0.12056704 0.7308988
000190 34 a2 e8 3e c0 2f 42 3e 7f ca 96 3e 04 1a 04 bd
       0.4543625 0.18963528 0.29451367 -0.032251373
0001a0 4b 5f be bd 98 5a ed 3e 97 5e 5d 3f 70 1b be 3e
       -0.092955194 0.4635818 0.8647246 0.37130308
0001b0 3a 82 8c 3e ba e8 d1 3b 70 12 11 3e 9a ab 91 3e
       0.27443105 0.006405917 0.1416719 0.28451234
0001c0 de e6 ba 3d 31 ac 54 bb 7d 01 11 3e 3f 36 aa be
       0.09126066 -0.0032451267 0.14160724 -0.3324451
0001d0 1b 95 2b 3e 20 d1 4f bd 65 0f 41 be 49 0e 0c be
       0.16756098 -0.050736547 -0.18853529 -0.13677324
0001e0 05 e3 44 be f0 de 18 be 57 a5 24 3e f6 22 b7 3d
       -0.19227226 -0.14928794 0.16078697 0.08942215
0001f0 94 19 9e bd 86 97 1a 3d 75 8c bd 3c 4a eb ec 3e
       -0.077197224 0.03774216 0.023138264 0.4627326
000200 20 3d bd 3d 20 2a 17 bc 98 e5 43 bd 56 96 00 be
       0.09240174 -0.009226352 -0.04782638 -0.12557349
000210 e4 54 12 be 06 d4 54 3e f2 93 28 be a0 ca 52 bc
       -0.14290196 0.20784006 -0.16462687 -0.012865692
000220 88 f0 a9 3d c0 51 64 bd 00 46 2d 3c dc 18 cf bd
       0.08297831 -0.055742025 0.010575771 -0.101121634
000230 80 1d 2e 3b a2 1d 17 3e e0 3a 81 bd 98 3f 39 bd
       0.0026567876 0.14757398 -0.06310058 -0.045226663
000240 3c 19 e3 bd 88 21 8f 3d 60 1c 0d 3d 7c 77 7c be
       -0.110887975 0.069888175 0.03445089 -0.24654955
000250 04 6d fb bd b6 cc 7a 3e 00 2c ec 3a 30 ce 13 bd
       -0.122766525 0.24492154 0.0018018484 -0.036085308
000260 d8 50 b0 bd 38 1a 75 3d b2 07 7e be 14 70 3d 3e
       -0.0860917 0.059839457 -0.24807623 0.18499786
000270 2c e9 b1 3d a0 58 0d 3c 50 66 8b 3d 02 2d 18 be
       0.08687052 0.008627087 0.06806624 -0.14860919
000280 bc aa 20 3e c8 c9 41 be 06 56 25 bc 51 94 f4 3c
       0.1569013 -0.1892463 -0.01009131 0.029855879
000290 70 b8 59 be e1 9b 01 be a7 62 7a be d2 c7 e2 bc
       -0.21261764 -0.1265712 -0.24451695 -0.027683172
0002a0 67 84 62 3e d6 33 b9 3d 08 22 10 be 0f 4a 17 be
       0.2212082 0.0904309 -0.14075482 -0.14774345
0002b0 0a f5 b8 bc ac 1a 1d 3d 86 73 12 3e 17 8f 65 be
       -0.022577781 0.038355514 0.14301881 -0.22417866
0002c0 c5 7c 82 3d 6e bd ff 3d 94 80 aa bc 5a bd 29 3e
       0.06371454 0.12487303 -0.020813264 0.16576138
0002d0 3b 90 f8 bd 22 c1 55 bd ce 8a 24 bd c1 b5 97 bd
       -0.12136885 -0.05218614 -0.040171437 -0.07407714
0002e0 a5 2b e1 3d d0 a9 9f bd 30 62 57 bd bb b3 9b 3d
       0.10994653 -0.07796061 -0.052583873 0.0760264
0002f0 a2 11 d4 3d 3a b2 20 bd 14 dd f9 bd 34 ed fe bd
       0.10354926 -0.03923247 -0.122003704 -0.12447587
000300 76 3a 34 3e c0 f8 84 bd 58 c4 dc bd dc 5f cd bd
       0.17600426 -0.06492758 -0.10779637 -0.10028049
000310 c4 00 65 be c0 8b c9 3d 10 b3 1c be 48 cb 6f 3e
       -0.22363573 0.09841108 -0.15302682 0.2341739
000320 78 59 81 bd 7a 3d 37 be 98 e7 70 3e dc 6c 44 3e
       -0.06315893 -0.17894545 0.23525846 0.19182152
000330 04 52 48 3e 90 5f d3 3d 68 2e d5 bd 70 07 82 3c
       0.19562536 0.103209615 -0.10409242 0.015872687
000340 1c 3c 87 bf 71 8b 87 bf 31 85 87 bf 68 e6 71 bf
       -1.0565219 -1.0589429 -1.0587522 -0.944922
000350 25 5e 11 bf 45 70 a5 be ec af b5 bd a1 af fc 3d
       -0.5678428 -0.32312217 -0.08871445 0.12338186
000360 65 bf 0a 3e ab 67 12 3f 00 86 46 3f d0 40 01 3f
       0.13549574 0.57189435 0.7754822 0.5048952
000370 fc 77 f8 3e 0b 5a 16 3f 3a 37 4f 3f 71 85 8c bf
       0.4852904 0.58731145 0.80943644 -1.0978223
000380 ec 9f 7b be 8a 07 36 be d6 3e 4e 3e 4e 8f 3f be
       -0.24572724 -0.17776313 0.20141158 -0.1870701
000390 d0 63 3a be 70 83 9f 3c 60 a6 5f 3c bc 17 40 be
       -0.18202138 0.019471854 0.013650507 -0.18759054
0003a0 2c 31 f5 bd 50 57 8f 3d 8c f2 9e 3d b0 16 88 bc
       -0.119722694 0.069990754 0.07761106 -0.01661238
0003b0 30 3f 17 3d e4 85 9f 3d 74 d5 97 bd 10 ec c4 bd
       0.036925495 0.077892095 -0.0741376 -0.09615338
0003c0 1b d8 87 be 99 80 8b be 5d b7 ce be 11 7d 7e bd
       -0.26532063 -0.2724655 -0.4037427 -0.06213099
0003d0 44 1a 9e be b7 20 9a 3b 8c 08 a1 be d1 bc 82 bd
       -0.30879414 0.004703607 -0.31451833 -0.0638367
0003e0 16 f0 e4 bd 1f 08 e1 3b 6c 8b 24 3e a8 eb 13 be
       -0.11178605 0.006867423 0.1606881 -0.14445364
0003f0 a6 9d 5a 3e ef 20 27 be 0e b9 f5 3b 50 5e 77 3e
       0.213492 -0.16321157 0.007498867 0.24157071

linear1.bias f4 [32]
000000 c5 30 38 be f4 02 57 3e aa c3 2b 3e f1 2a 4a be
       -0.17987354 0.2099722 0.16773859 -0.19742943
000010 fc 0e aa 3d ad 74 40 3e ca 26 5c be cc 3c ed 3d
       0.08303639 0.18794508 -0.21499172 0.11583862
000020 9c 1c 7a be cc e0 11 be 73 eb 37 bd d6 36 06 be
       -0.24424976 -0.1424591 -0.044902276 -0.13106856
000030 86 c6 7d be 8d 4f f6 3d 18 67 6a be 85 fc 85 3e
       -0.24782762 0.12026892 -0.2289089 0.2616922
000040 49 b3 0c 3e 46 b3 59 3e ed 03 0f be 13 91 6e 3e
       0.13740267 0.21259794 -0.13966341 0.23297529
000050 00 aa 7a 3e c5 2b 31 3e 38 3f 45 be 28 cf 2d be
       0.24478912 0.17301853 -0.19262397 -0.16973555
000060 99 84 84 3e 5c 25 77 3d 58 91 8d bd eb fb 60 3e
       0.25882414 0.060338363 -0.06912488 0.21971099
000070 c0 1b dd 3d bf 03 6e 3d 82 c0 66 be 54 8c 2e be
       0.107963085 0.05810904 -0.22534373 -0.17045718

linear2.weight f4 [32, 32]
000000 a5 4e f8 be 9e 69 4a 3e 24 9f 27 3e c9 78 9d 3d
       -0.484975 0.19766852 0.16369301 0.076890536
000010 da 64 7d 3e cc fb 9e 3e 17 ad 60 be bc 83 b2 3e
       0.24745503 0.3105148 -0.21941029 0.3486613
000020 80 01 78 be 8c a4 74 3d bf 75 63 3c d5 27 18 be
       -0.24219322 0.059727237 0.013883053 -0.14858945
000030 4b 80 1c bc ea 3e d2 bc 77 9d ca 3b 1d a9 19 3e
       -0.009552072 -0.025664765 0.006183322 0.15005918
000040 1f 78 f0 3e 70 cb eb 3e 0f 6b 5b bd be d7 61 3e
       0.46966645 0.46053648 -0.053568896 0.22054955
000050 23 af 35 bd 41 ea 87 3e 11 81 6d be 42 40 f4 3d
       -0.044356477 0.2654591 -0.23193766 0.11926319
000060 23 b0 ac 3e 90 98 11 be 45 49 ff bc e1 88 5c 3e
       0.33728132 -0.14218354 -0.031162867 0.2153659
000070 2f 20 d8 3c 3e 6f bd bc 5e 9e 21 be e6 b5 79 3d
       0.026382534 -0.023124333 -0.15783069 0.060964487
000080 ee 0d f3 bc e6 8d cb bd 0f 97 64 3e ee 70 27 3e
       -0.029669728 -0.09939174 0.2232325 0.16351673
000090 82 48 27 be 03 84 28 3f 31 a0 c7 3e 71 27 2e be
       -0.16336253 0.65826434 0.38989404 -0.17007233
0000a0 df 23 cd bd 51 a2 09 bf 1a 2d 9c bd 3c 35 d4 bd
       -0.100166075 -0.537633 -0.0762579 -0.10361716
0000b0 d5 f7 b8 3e e7 5c a2 3d 02 cd 54 bd 18 b1 42 be
       0.3612658 0.07927876 -0.051953323 -0.19012868
0000c0 22 14 54 3c 34 d5 12 be 8f 3d 13 3e a0 8b 49 be
       0.012944253 -0.14339143 0.14378951 -0.19682169
0000d0 d0 2e a6 bd dd 24 0d bc 3c 67 39 3e 44 86 02 be
       -0.081143975 -0.008614746 0.18105787 -0.12746531
0000e0 c1 09 25 3e 01 8d 0c 3c b2 50 51 bd e2 bb 41 be
       0.16117002 0.00857854 -0.051102348 -0.18919328
0000f0 0d cb 11 3e d5 c0 80 3e 75 34 b2 3c 89 6a 8b bc
       0.14237614 0.2514712 0.02175353 -0.017018573
000100 8a bd 47 3d a0 59 1f 3e e4 08 0f 3e f7 b7 c6 bd
       0.048764743 0.15561533 0.13968235 -0.09703057
000110 9a 7c 26 3e 71 d8 0e be dc e0 7e be 43 e7 23 3e
       0.16258469 -0.13949753 -0.24890465 0.16006188
000120 41 00 97 3e ba 4d e2 bd d3 92 0f 3e 57 b9 32 be
       0.2949238 -0.110499814 0.14020853 -0.17453514
000130 a0 6d 82 3e 3c 51 ce 3d 95 08 26 be 6a 1a 25 3e
       0.25474262 0.10074088 -0.16214211 0.16123357
000140 f1 b7 1f bd 91 40 4b 3e 95 4e d7 bd 53 79 57 3e
       -0.03899378 0.19848849 -0.10513035 0.21042375
000150 a5 12 d6 3d b2 04 b8 3d c3 37 0a 3c 53 1e 7b bd
       0.10452775 0.089852706 0.008436146 -0.061308216
000160 8f 13 26 3e 6d a3 cc bc a9 27 ae 3e 6d f8 c0 3c
       0.16218399 -0.024980271 0.34014633 0.023555959
000170 51 46 01 3e 0d 9b 36 3e ac 74 1c 3a 00 ec b1 3d
       0.1262448 0.17832585 0.0005968313 0.086875916
000180 75 01 c0 bd 21 d0 32 be c3 5a 95 be 6f b3 45 bd
       -0.09375278 -0.17462207 -0.29170808 -0.048266824
000190 59 d2 82 be 5a 03 20 3e cc ac 95 3e 45 3e ac 3d
       -0.25551108 0.15626279 0.29233396 0.084103145
0001a0 eb 1a 67 3b 13 91 a9 3d 11 1e 1e be a7 6e f4 3d
       0.0035263847 0.08279624 -0.15441157 0.11935168
0001b0 59 e7 2f 3e ee 8d 05 be 6d 0c cd 3c d1 54 91 be
       0.17178096 -0.13042423 0.02503034 -0.28385022
0001c0 02 fd 26 bd df 92 69 bc a6 88 83 3e 82 0b a6 3d
       -0.04076863 -0.014256208 0.25690192 0.08107664
0001d0 52 b5 69 3e e3 46 12 3d b1 6b 8f bd 5a e6 91 3d
       0.22823074 0.035712134 -0.070029624 0.07124014
0001e0 f4 8e c4 be 6d cb 25 3d 7c 93 13 be 19 f1 cf bd
       -0.38390315 0.040477205 -0.1441173 -0.101534076
0001f0 b5 83 7a be 38 e7 84 bd e6 d7 8b 3d 8b e2 cb bd
       -0.24464305 -0.06489414 0.06828289 -0.09955319
000200 3e 33 0d 3e a2 92 e4 3c 35 7f 45 be 9c 7a d8 3d
       0.13789079 0.027901951 -0.19286807 0.10570261
000210 2f 99 83 3d af 06 1e be 32 79 2c be b7 f0 33 3e
       0.06425702 -0.15432237 -0.16843107 0.17572294
000220 7d 64 b8 bd 29 69 39 be 1d ee f3 bd d7 5c ee 3b
       -0.090035416 -0.18106522 -0.11910651 0.007274251
000230 7f e5 19 3e f4 09 86 3d 25 1a da bd ef 42 97 3d
       0.15028952 0.06544867 -0.10649518 0.073858134
000240 7b 2f eb 3d 4f bd 2c 3c d3 a8 28 3d ec c3 05 be
       0.114836656 0.010543182 0.04117663 -0.1306302
000250 8a 42 e1 bc e6 e8 e4 bd a1 9d c8 3d 37 a5 be bc
       -0.027497549 -0.11177234 0.0979569 -0.02327214
000260 26 79 ba bc 10 8c 1d be c7 83 50 be f2 df 05 3e
       -0.022762846 -0.15385461 -0.20362769 0.1307371
000270 62 b6 ac 3c 6a e3 db bd 8f 1e 06 be b2 1d 22 be
       0.02108306 -0.10736735 -0.13097595 -0.1583164
000280 90 80 30 be 3a ec 10 bf 82 c0 89 bd 51 40 2f bf
       -0.17236543 -0.56610453 -0.06726171 -0.68457514
000290 f7 d0 5a 3f b5 c1 5d 3f a1 6c f1 be dc 23 b5 be
       0.85475105 0.866237 -0.4715319 -0.3537892
0002a0 5d 7c da 3e 77 72 74 be 6a 09 29 3e de 6e 33 3e
       0.42673007 -0.2387179 0.16507497 0.17522761
0002b0 7f 84 2d 3c 82 44 e5 bd 6d 66 73 bc b8 c5 3a bf
       0.010590672 -0.111947075 -0.014855963 -0.72957945
0002c0 02 d4 2e c0 e7 fa b7 3d a1 89 5f 3f fa a2 f6 3d
       -2.73169 0.08983403 0.8731938 0.12042804
0002d0 e7 b4 3d 3f 4f dc 2b 3f af 46 b7 be 53 ab 0f be
       0.7410416 0.6713304 -0.35796115 -0.14030199
0002e0 5b 46 a4 be 5b d9 48 3f 81 1b bf be 58 c5 42 be
       -0.32084927 0.7845666 -0.3732567 -0.19020593
0002f0 f8 12 0c bf 7b 6c 15 bf 15 13 b9 bd b3 7d 6a bf
       -0.54716444 -0.58368653 -0.09036843 -0.9159805
000300 09 d2 1a bc b6 2c cf 3d 27 0d 22 be f0 1f b8 3d
       -0.00944949 0.1011595 -0.1582533 0.089904666
000310 03 32 21 3e 32 6c d5 bb e5 7b f5 bd eb 13 be bd
       0.15741734 -0.006513142 -0.11986522 -0.09281143
000320 91 a9 ba 3d 80 3e 1f be 82 55 5c 3d b5 9d 13 bd
       0.091143735 -0.15551186 0.053792484 -0.036039073
000330 00 68 fc 3d b8 8f 0b be bb d7 d7 bd e4 af 0c be
       0.12324524 -0.13629043 -0.10539194 -0.13738972
000340 1b 74 04 3e 84 9b f9 3c 81 2d 51 3d a4 dd f3 bd
       0.12934916 0.030469663 0.051068787 -0.11907509
000350 6f 72 34 be 8e 40 97 bd bd 79 01 be 8f 93 1d 3e
       -0.17621778 -0.0738536 -0.12644096 0.1538832
000360 5a 8e 21 3d 77 c5 b1 3d 54 45 0d 3e b3 a9 58 bd
       0.039442398 0.086802416 0.13795978 -0.052896213
000370 b7 86 14 bb 25 1c 8a 3c 3c 73 15 3e a8 6d 0b be
       -0.0022663304 0.016859123 0.1459474 -0.1361605
000380 71 8b dc 3d eb 75 45 bd 9b a6 fd 3d 50 fe 34 bb
       0.10768784 -0.04820816 0.12385293 -0.0027617402
000390 3f 98 9e 3b 48 56 9d 3c 28 35 32 bd a1 e8 8e be
       0.0048399265 0.019206181 -0.043507725 -0.27911857
0003a0 68 a6 0e 3e 12 96 d1 bc 40 35 98 bd b7 56 c9 bd
       0.13930666 -0.025584254 -0.07432032 -0.09830993
0003b0 7a 89 b7 be 6b 1c 91 bd ef 0f 05 3e bc d9 3a be
       -0.35847074 -0.070854984 0.1299436 -0.18247122
0003c0 c8 b4 a5 bd 68 ef 3e be 2e 82 fd bc f7 b4 4c be
       -0.08091122 -0.18646014 -0.030945864 -0.19990908
0003d0 5f 57 40 be a7 f6 a7 3c a8 e5 f3 bd 83 1a a3 bd
       -0.1878333 0.020503355 -0.11909038 -0.07964041
0003e0 50 d5 16 bd 56 e9 b1 bb fa 02 99 3d 67 51 ac bd
       -0.036824524 -0.005429427 0.07471271 -0.08413964
0003f0 9c 3b ee bc 3d cb 51 3d c3 40 cc 3d a5 df f6 bd
       -0.029081158 0.051219214 0.0997329 -0.120543756

linear2.bias f4 [32]
000000 32 d5 b4 bc d2 8c 25 bd 5c 66 10 3d d5 da dd bd
       -0.022074316 -0.0404175 0.035253868 -0.108327545
000010 1a 20 24 be b9 80 a4 be ca 6c 28 be 0f f5 41 be
       -0.16027871 -0.32129458 -0.1644775 -0.18941139
000020 6c 65 8a 3d a1 4d db bd 2d b3 9e 3c da e8 8a bd
       0.06757626 -0.10708166 0.019372547 -0.06782694
000030 55 fb 83 bd 08 b3 6b 3e aa 68 28 be 9e 78 be be
       -0.06444422 0.23017514 -0.16446176 -0.372014
000040 71 4f 22 3c 9f ee f5 bd 7c 31 34 be 00 d7 77 3b
       0.009906636 -0.12008404 -0.17597002 0.003781736
000050 da 6c 44 3d 45 f7 3b be 50 f4 e8 3d da 17 02 be
       0.04795537 -0.18356045 0.11374724 -0.12704411
000060 39 85 97 3c 69 07 53 3e 85 74 fe 3b 1c a5 1f be
       0.018496143 0.20608296 0.007765355 -0.15590328
000070 9a 6b 0f 3e f9 3d 85 bd 13 1e 99 3d e5 09 59 3a
       0.1400589 -0.06505961 0.07476439 0.00082793675

fc.weight f4 [1, 32]
000000 fc d9 ef bc 46 fa 79 3e 58 ff a2 be 73 f0 48 3d
       -0.029278748 0.24411878 -0.31835437 0.049057435
000010 8a 4d db bc de b1 87 bf f9 d5 b4 bd 04 d0 94 bd
       -0.026770372 -1.0601156 -0.088298745 -0.07266238
000020 b6 bd 7e 3e c8 9c 82 3e 15 41 f7 3d a7 33 df 3d
       0.24877056 0.2551024 0.1207296 0.10898524
000030 ef c2 ad 3c 8c 8d cc be 40 d3 f4 bc 4a 34 0d be
       0.021211116 -0.39951742 -0.029885888 -0.13789478
000040 d2 3a 6c 3d 83 ee f9 bd 25 24 26 be dc 12 1d 3d
       0.057673283 -0.122036956 -0.16224726 0.038348064
000050 ec 50 ad be 7d 6e 66 3b f5 1e b8 3e 0b cf b5 3d
       -0.338508 0.003516107 0.35961118 0.08877381
000060 1e d7 49 3e 3e 47 e9 3e c7 32 66 be b3 7b b5 bd
       0.19710967 0.45562166 -0.22480308 -0.088614844
000070 e2 18 bf 3d 8c 84 22 bd 43 a6 68 bd 2b 80 71 be
       0.09330918 -0.039677188 -0.056799185 -0.23584048
