reinforcement_learning/results/lookahead_actor(icra_2).pt (torch, 21792 bytes, 7 tensors)

linear1.weight f4 [32, 11]
000000 ea a0 fb bd a4 79 13 3e 16 78 05 3e 4d 24 8a bd
       -0.12286551 0.14401871 0.1303409 -0.06745205
000010 6a 93 a8 be f4 93 92 be 67 18 a7 be cb e2 21 bc
       -0.32924968 -0.28628504 -0.32635805 -0.009880732
000020 05 64 9c be 28 cf 86 be 38 c7 90 bd 01 a5 c5 be
       -0.3054506 -0.26329923 -0.07069248 -0.3860245
000030 c1 a2 a9 bd 3d b8 48 be be 9c fa bd 78 de ec 3d
       -0.08282996 -0.19601531 -0.122369274 0.1156587
000040 58 56 42 be 48 4b 63 3d 48 16 51 3b 6b e0 71 bc
       -0.1897825 0.055491716 0.003190415 -0.014762978
000050 be 52 5a bd a0 45 96 bd 9a 0c 10 3e ab b1 59 bd
       -0.053301565 -0.07337499 0.14067307 -0.053147953
000060 5d 2c 7d 3e 3e 81 46 3e 4f b3 98 3e e4 52 25 3e
       0.24723954 0.1938524 0.29824302 0.16144902
000070 bd b0 87 3e 43 ab f1 bb 49 98 e9 bd d9 e4 96 3d
       0.26502028 -0.0073751523 -0.11405999 0.07367868
000080 6c 07 49 3e 51 52 33 3d 65 ef 83 be 5b 7b 57 be
       0.19631737 0.043779675 -0.2576858 -0.2104315
000090 0a 2f c4 be a8 4b fe 3d 1a b7 3d bd df 40 1d 3e
       -0.38317138 0.12416774 -0.046317197 0.15356778
0000a0 27 b9 a6 be c4 86 46 be 14 88 27 3e 16 aa 03 3e
       -0.32563135 -0.19387347 0.16360503 0.12857851
0000b0 c3 0c 9b be de 65 00 3e 29 a6 1e be a2 cb 80 be
       -0.30283174 0.12538859 -0.15493073 -0.2515536
0000c0 65 10 99 be 05 0a 85 bd d4 95 8a 3d 92 bb d9 bb
       -0.2989532 -0.06496052 0.06766859 -0.0066446746
0000d0 27 37 96 3d c5 4c 1e be bb d4 8d bc 18 05 aa bd
       0.07334738 -0.15458973 -0.017313352 -0.08301753
0000e0 1f c8 8a bd 54 77 de bd 28 cb 5b be 1a 31 0b be
       -0.06776451 -0.10862604 -0.21464217 -0.1359295
0000f0 30 fe 8a be 78 64 33 3e d8 a7 ab be 7b 72 19 be
       -0.27147055 0.17518795 -0.33526492 -0.14985077
000100 95 3b 27 be 34 71 d5 3d 7a 22 87 be ca c4 1e 3e
       -0.16331322 0.104219824 -0.2639349 0.15504757
000110 47 ff 62 bd 18 dc 77 be 52 10 27 be 24 90 4e be
       -0.055419233 -0.24205053 -0.1631482 -0.20172173
000120 57 66 19 be 69 02 4b be 2b 6d d2 3d f2 0e 0f 3d
       -0.14980446 -0.19825138 0.102747284 0.034926362
000130 02 a9 ac bd 9d d9 19 be f5 5e 9f 3e de f7 c8 bd
       -0.08430673 -0.15024419 0.31127134 -0.09812902
000140 e4 7b 1e be 0b 3e a0 b9 c8 e2 82 be 13 43 64 3e
       -0.15476948 -0.00030563804 -0.25563645 0.22291212
000150 67 71 fa 3d 6c 23 cd 3d 3a 9b 00 bf 52 bf 8f 3d
       0.12228661 0.10016522 -0.50236857 0.07018913
000160 9b 72 46 be 79 60 b3 be f4 c8 04 3d 7c 68 12 be
       -0.19379656 -0.3503454 0.032418206 -0.1429767
000170 fe ab 5d 3d 5a e6 7b 3d 34 d3 ba be 71 57 f5 3d
       0.054119103 0.061498977 -0.3648926 0.11979569
000180 b8 fb 3e be b9 74 d3 3d 46 a3 f3 be fc ed 55 bd
       -0.1865071 0.103249975 -0.47585505 -0.052228913
000190 d5 2d bd bd ba 99 b1 bc ba 82 e5 bc aa 0c 13 bc
       -0.092372574 -0.021679748 -0.028016437 -0.008975187
0001a0 e4 a0 2e 3c 96 d5 d8 3d 58 89 80 bd 10 40 aa be
       0.0106584765 0.10587613 -0.06276196 -0.33252
0001b0 c8 95 5b bd a4 2d 9a 3c f0 ee 89 bd 31 f2 8f be
       -0.05360964 0.018820591 -0.06735027 -0.28114465
0001c0 9e 03 05 be 4d 24 71 3d ff 21 fb bd f4 06 11 be
       -0.12989661 0.05887251 -0.122623436 -0.14162809
0001d0 a2 73 21 be 6b 04 c3 be 24 a6 b7 be 09 f2 3d be
       -0.15766767 -0.38089308 -0.35868943 -0.1854936
0001e0 fb cf 54 3e bf 36 65 3d ec 2a f4 bd 1f 33 93 bd
       0.20782463 0.055960413 -0.11922249 -0.07187485
0001f0 47 f4 61 be 0d c0 a7 bd a1 bb 29 be c5 80 94 be
       -0.2206584 -0.08190928 -0.16575481 -0.29004493
000200 e0 36 af be 07 1e 45 3d 54 1b 97 3d 09 42 a6 be
       -0.34221554 0.04812434 0.07378259 -0.32472256
000210 57 f6 cf be bc 63 3b be 13 51 ac 3d 57 fe c3 3d
       -0.4061763 -0.18299764 0.08413901 0.09569996
000220 3c 24 68 be be be 62 3d dd f8 04 3e bf 20 82 be
       -0.22670072 0.055357687 0.12985559 -0.25415608
000230 68 33 41 3d f4 7b 7e be ca e0 9b 3d 16 83 97 bd
       0.047168165 -0.24851972 0.076112345 -0.073980495
000240 d2 37 6e bb 00 95 7c bd 1a eb 3d be 72 35 1e be
       -0.003634919 -0.061665535 -0.18546715 -0.15450075
000250 c4 90 8e be 19 e5 4b 3e 0d fb 80 be b1 de a2 be
       -0.27844822 0.19911613 -0.25191537 -0.31810525
000260 a2 dd 66 be e9 24 ec bd bb e0 ac 3d 8d e7 16 be
       -0.22545484 -0.115304776 0.084413014 -0.14736767
000270 c9 b1 e4 be 0d 07 59 3d de a1 59 3e e1 66 c2 bd
       -0.4466689 0.05298524 0.21253154 -0.09492279
000280 85 8f a3 3e a9 ca d7 3e df d2 9a bd 86 e0 11 bd
       0.31945434 0.42146805 -0.07559752 -0.035614513
000290 03 a4 08 3f 74 75 2b be e2 ca 87 bd 67 23 aa be
       0.5337526 -0.16744024 -0.06630494 -0.33230135
0002a0 d4 13 4a 3e 53 45 89 be 22 77 e2 3c be 32 4c bd
       0.19734126 -0.26810703 0.027644698 -0.04985308
0002b0 a7 fe 13 3e 96 24 a7 be f8 76 f2 bc 62 f5 24 be
       0.14452611 -0.326451 -0.029597744 -0.16109231
0002c0 cd 64 ae ba 11 48 8b be 24 9b 6d 3e 96 69 a9 3e
       -0.0013305187 -0.2720342 0.23203713 0.33088368
0002d0 97 7c 0c 3e 7a 13 00 3e af 79 d8 be 29 f1 05 be
       0.13719402 0.1250743 -0.42280337 -0.13080277
0002e0 3f a1 34 be 3e 28 27 3e ea 3d bc bd 36 ed 1a be
       -0.17639636 0.16323945 -0.09191497 -0.15129551
0002f0 d1 77 67 be 3b 6c d1 3d 03 f2 ee bd 74 f6 79 bd
       -0.226043 0.102257214 -0.11667254 -0.06102605
000300 14 d6 46 3e 0d 84 8a be b6 40 9d bd ed aa a5 3c
       0.19417602 -0.27053872 -0.07678358 0.020223105
000310 7d 80 0f bd 89 94 3c be 8f 3a 97 be b8 64 99 be
       -0.035034645 -0.18416037 -0.29536864 -0.29959655
000320 18 db a2 be f1 66 6a be 99 a1 e8 3d 40 7a 40 bd
       -0.3180778 -0.22890832 0.11358947 -0.046991587
000330 8a 17 b8 be 6f 6e 6e 3d 78 4b 10 3e e0 9b bd bd
       -0.3595546 0.058210786 0.14091289 -0.092582464
000340 11 19 6d be 98 1a af 3d ff 6e cb 3d 9b f8 57 be
       -0.23154093 0.08549994 0.0993328 -0.21090929
000350 03 80 9e bd 40 fe af bd 9f 93 48 be f6 65 85 be
       -0.0773926 -0.08593416 -0.19587563 -0.26054353
000360 f4 23 54 be b0 1b a3 3c 56 c2 a2 be af 1b 59 3e
       -0.2071684 0.019910663 -0.31788892 0.21201967
000370 cd 3f 6a be dd fd 78 be 12 a8 f9 bd 3e de 89 be
       -0.228759 -0.24315591 -0.1219026 -0.2692737
000380 00 93 15 be 2d 36 d1 be 21 74 c3 bd b8 4c 2b 3e
       -0.14606857 -0.40861645 -0.09543634 0.16728485
000390 32 78 b6 3d d0 b8 09 be 13 7d 61 be 61 23 ea 3d
       0.08909644 -0.13449407 -0.22020368 0.11432529
0003a0 86 4d 8b bc 47 2f 15 bf 7a c2 f4 bd c7 19 87 3d
       -0.01700474 -0.58275265 -0.11951156 0.065967135
0003b0 f7 00 47 be eb dc 89 be 6f 88 45 be 6b 94 1a be
       -0.19433962 -0.2692636 -0.19290327 -0.1509568
0003c0 5c 66 36 3e 9f 1d 45 bc 2b d2 86 bd 73 56 ea bc
       0.17812485 -0.012030988 -0.06583055 -0.028605675
0003d0 1e 74 ee 3c 32 a3 a8 bd 2c d4 4e bd 25 f6 8f be
       0.029108103 -0.08234252 -0.05049531 -0.2811748
0003e0 c4 ab 0b 3d 81 c0 ef 3d 72 0b a5 be fe 25 e4 3c
       0.034099355 0.11706639 -0.32235295 0.027850147
0003f0 78 ce 3e 3b 2e 06 67 be 76 fa f1 bc 5a 64 73 bd
       0.0029114764 -0.22560951 -0.029538374 -0.059421875

linear1.bias f4 [32]
000000 44 9c be be f5 d9 76 3e fb 00 62 3e 51 e5 e7 be
       -0.37228596 0.24106582 0.22070687 -0.45292142
000010 5f 49 7e be b3 cd ba 3e 98 d2 3d 3e 51 26 a1 be
       -0.24832676 0.3648506 0.18537366 -0.31474546
000020 09 fe ba 3e cc fc 6c be b7 12 b8 3e d9 ea 38 3e
       0.36521938 -0.2314331 0.35951778 0.18058337
000030 8c 8e 0d 3e 82 7e 92 3e ad 62 b8 3e ba 14 49 3e
       0.13823909 0.28612143 0.36012784 0.19636813
000040 62 b5 ef bc 47 df 4c 3e a7 e3 7b 3e 42 31 ba be
       -0.029261295 0.20007049 0.24598561 -0.36365706
000050 1d 25 95 be 34 f1 c3 3e a2 cb 31 3e eb 12 56 3e
       -0.29129878 0.3826996 0.17362836 0.20905654
000060 a2 9b 56 3e 84 8c b5 bd 4e f1 0f 3e 7e aa c4 3e
       0.20957807 -0.08864692 0.14056894 0.38411325
000070 db d6 a1 bd 40 3e 4b 3e 75 06 b7 3e 53 92 a9 be
       -0.079023086 0.19847965 0.35747114 -0.3311945

linear2.weight f4 [64, 32]
000000 14 7a 1a be 83 1c 07 bc 39 6d 45 be 9a ad 48 be
       -0.15085632 -0.008246544 -0.19279946 -0.19597474
000010 79 86 8d 3d 4f 5b b8 bd 68 17 a0 3d cf ad 97 3d
       0.06910414 -0.09001791 0.078169644 0.07406198
000020 a0 9d 7f be d3 f9 36 bd 3b d9 10 3c 2b 16 79 3c
       -0.24962473 -0.044671845 0.008840854 0.015203039
000030 15 44 14 3e ea 00 d2 bc 2a a5 18 be f3 11 d6 bd
       0.14479096 -0.025635201 -0.14906755 -0.10452642
000040 08 0f 86 be 37 c6 7f bd b4 e1 1e be 01 1e a9 3d
       -0.26183343 -0.06244489 -0.15515786 0.08257676
000050 84 19 d3 bd 1c f4 eb 3d 0b 65 6f bb 60 31 14 be
       -0.10307601 0.115211695 -0.0036528732 -0.1447196
000060 ef 4f 9b 3d ae cc 40 3e b8 e6 83 be 80 e4 83 3e
       0.075836055 0.18828079 -0.25761962 0.2576027
000070 29 eb 91 be 30 bb ad 3d 10 f5 c4 bd 72 bb 12 bd
       -0.28499725 0.08482969 -0.096170545 -0.035823293
000080 1c 08 2d be 55 18 87 3d 43 60 21 bf 79 87 ae 3c
       -0.16897625 0.06596438 -0.6303751 0.021304833
000090 52 2f a6 3d 71 ad f6 3d ed ae 6b 3e 51 44 3f 3e
       0.081144944 0.120448 0.23015948 0.18678404
0000a0 6f 5f 85 3c d7 bc bf 3d 0c cc b7 3e 68 23 b0 3e
       0.016280858 0.0936219 0.35897863 0.34402013
0000b0 76 ef 36 3c f1 5a ce 3e de df 4b 3e 3c 84 73 3c
       0.01116549 0.40303758 0.19909617 0.01486307
0000c0 51 e8 f8 be f6 d2 f5 3d 17 7f 85 bd 13 db 85 bc
       -0.48614743 0.12003128 -0.06518381 -0.016339814
0000d0 4b ce 0f 3d f9 c5 9b 3e d8 51 31 3e 66 a2 9e bd
       0.035108846 0.3042448 0.17316377 -0.07745819
0000e0 8c cc a9 3e 3b 20 76 3d 48 e6 2a 3e b8 5c 8a 3d
       0.3316387 0.06008933 0.16689408 0.06755966
0000f0 34 62 0c 3e 00 6a 5e 3e a6 39 c0 3e ea 5a a2 3c
       0.13709337 0.21720123 0.37543982 0.019818742
000100 ca 30 96 be 0b 08 30 3e d4 64 13 bf 5f 1c 71 be
       -0.29334098 0.17190568 -0.57575727 -0.23545979
000110 03 aa 14 be fe 42 08 3d 39 3e a0 3d 7b 83 7f 3c
       -0.1451798 0.033267014 0.07824368 0.015595312
000120 2e a7 4d bd 6d 68 a9 3c a2 6a 10 3f f4 c7 58 3d
       -0.050208263 0.020679677 0.5641271 0.052925065
000130 3e f8 6e 3e 5b d4 81 3e 5f 39 a9 3e fb ea 35 bd
       0.23336884 0.25357327 0.33051583 -0.044413548
000140 d9 d2 bd be 96 42 24 3d 39 51 d0 3d 47 5a ee bd
       -0.37074926 0.040102564 0.10171742 -0.11638313
000150 cd 0e 13 3d d2 33 ad 3c ad e4 12 3e 1c ab ea bd
       0.035902787 0.021142874 0.14345045 -0.11458418
000160 9c c5 b8 3d 7d 7c 8f 3e a9 e6 a1 3d 68 4a c9 3d
       0.09022066 0.28024665 0.07905323 0.09828645
000170 7a 08 22 be 92 12 5e 3a 57 96 28 bd 87 14 66 bd
       -0.15823546 0.0008471395 -0.041159 -0.05617192
000180 48 85 d8 3d a3 bd 9b bc 5c 6f 74 be 98 56 57 be
       0.105722964 -0.019011324 -0.23870605 -0.21029127
000190 58 54 35 bd 2d 30 15 3e 51 69 07 3b 0a d6 3b be
       -0.04426989 0.14569159 0.0020662139 -0.18343368
0001a0 76 b5 47 3e 24 16 46 bd d9 6c 12 3b 4e 47 72 3e
       0.19502816 -0.04836096 0.002234271 0.23660013
0001b0 e9 a3 b0 bc aa ca f3 3c 71 6e 23 be fe cc 70 bd
       -0.021562533 0.029759724 -0.15960099 -0.058789246
0001c0 13 2e 37 be a8 a4 a9 3c 80 15 00 3e 23 37 31 be
       -0.1788867 0.020708397 0.12508202 -0.17306189
0001d0 f4 f9 1d 3e d5 a1 d8 3d ba 89 6d 3c 36 67 f1 3d
       0.15427381 0.10577742 0.014498169 0.11787264
0001e0 31 80 66 bb 31 78 74 be c3 63 12 be fb cb 82 3d
       -0.0035171623 -0.23873974 -0.14295869 0.063865624
0001f0 88 d6 de bc 0b 4b 86 3d 4a 2f e8 bc f7 1d 7b be
       -0.027201906 0.06557282 -0.028342862 -0.2452315
000200 8a 32 8f be 75 17 b0 3d 1a 51 c1 be 9f e9 29 3c
       -0.27968246 0.08598224 -0.37757188 0.010370641
000210 84 db 2c bd 24 92 bd 3d 86 c8 92 bd 80 2c 69 3d
       -0.042201534 0.0925639 -0.07167153 0.056927204
000220 cf 73 0c be b7 df 01 3e ba 7b c1 3e 63 59 98 3d
       -0.13716052 0.12682997 0.37789708 0.07438924
000230 60 a3 76 bb 22 97 32 be ed 7d 42 bb 29 b2 81 3e
       -0.0037634 -0.17440465 -0.0029677108 0.25331238
000240 79 83 79 bc 9b ed 61 3e 04 9d 82 bc 94 4c 6b bd
       -0.015229099 0.22063296 -0.015944012 -0.057446077
000250 3b ba 8b bc 9e a9 3e be 2e b4 97 be ea 0c 42 3d
       -0.017056575 -0.18619391 -0.29629654 0.047375597
000260 f2 95 45 3d 17 8a 46 3e 9c 2c 50 bd fd 62 2f 3c
       0.048238702 0.19388615 -0.050823793 0.010704753
000270 75 60 5e bd 64 f7 1a 3d ba 90 1a be c9 a0 97 3e
       -0.054291207 0.037833586 -0.15094271 0.29614857
000280 3f b6 fa bd 4a 87 0c 3e d4 17 f4 be 63 52 3b 3e
       -0.12241792 0.13723484 -0.4767443 0.18293147
000290 5f 27 d8 3d 3d 72 9a 3e 38 cd 3c 3d 35 e4 95 3d
       0.105543844 0.30165282 0.04609415 0.07318918
0002a0 8e b9 88 bc 1f 45 8e bd 8c c7 8b 3e 53 9e 4a 3e
       -0.016690042 -0.069467776 0.2730068 0.19786958
0002b0 62 b1 08 3e da ec ac 3e 64 f5 2a 3d 2f f9 e6 3d
       0.13348916 0.33774453 0.04173793 0.11277997
0002c0 9e a9 ce be 73 49 e3 3d 24 72 be 3d 83 fa a1 bd
       -0.40363783 0.11097994 0.09299114 -0.079091094
0002d0 d9 ce 49 be f1 30 9d 3e 03 cb 3c 3e 0d 11 9b bd
       -0.19707812 0.30701402 0.18436818 -0.075716116
0002e0 03 2e 09 3e 8a 3c d4 bd ba 33 cf 3e 8e 7f 8c 3d
       0.13396458 -0.103631094 0.40469152 0.068602666
0002f0 87 66 fb bd b0 52 96 3d 5e da 2a 3e e5 a1 aa bd
       -0.12275415 0.0733999 0.16684863 -0.0833166
000300 06 cb 46 be 23 57 db 3d 6f c8 0b 3e 29 e8 c6 bd
       -0.19413385 0.107099794 0.13650678 -0.0971225
000310 36 b2 ce 3d 87 82 ba bd 88 05 1b bd 9b 2c 8c bd
       0.10092585 -0.09106927 -0.037847072 -0.06844445
000320 b0 ad a3 bd 37 74 02 be 5c 66 cd bd ad 29 dc bc
       -0.07992113 -0.12739645 -0.10029289 -0.026875341
000330 e9 d7 44 3e c4 d0 ae bd 03 98 56 3d ab ae 9c bd
       0.19222988 -0.08535913 0.052391063 -0.07650503
000340 14 ec cf 3e fb 10 9b 3a d1 88 32 bd 6c 97 f8 bd
       0.406098 0.0011830622 -0.04358751 -0.121382564
000350 c5 aa 99 3d d4 0a 36 3c 51 c2 27 bd 1e a8 4b bd
       0.07503275 0.01111098 -0.0409568 -0.049720876
000360 1f 8c b5 bc ec bc e9 3d f7 7c 03 3e 8f 01 15 3e
       -0.022161542 0.11412987 0.12840639 0.14551376
000370 da 0d d3 3d 56 b4 b7 bb be 3d bd bd fd c8 44 3e
       0.10305376 -0.0056062145 -0.09240292 0.19217296
000380 50 b1 36 be b7 b9 af 3d 72 5e ff bd ca c4 3d be
       -0.17841077 0.08580344 -0.12469186 -0.185321
000390 95 63 e5 bd 74 68 42 3d 0a b7 5d be 87 67 31 be
       -0.112006344 0.047462896 -0.21651855 -0.17324649
0003a0 d4 fb 93 3d cd 83 80 3d bb 86 2a be 94 04 5d be
       0.07225767 0.06275139 -0.16652958 -0.21583778
0003b0 17 32 41 3d 0e c2 05 be 59 db 4a be c3 68 b2 3c
       0.04716691 -0.13062307 -0.19810237 0.02177847
0003c0 37 47 8d ba 06 8b 21 be 1b 8d 57 3e 87 63 b0 3d
       -0.001077867 -0.1577569 0.21049921 0.08612733
0003d0 de bb 8f bc d7 73 86 3d de a1 26 be ed 81 3c bc
       -0.017545637 0.065650634 -0.16272685 -0.011505586
0003e0 91 3a d3 ba 53 76 24 3e ea 1a 01 be b9 93 8b 3d
       -0.0016115477 0.16060762 -0.12607923 0.06815285
0003f0 3d 10 a7 3c 33 ad fe bd de 89 4e be 79 f1 91 bd
       0.020393485 -0.12435379 -0.2016978 -0.071261354

linear2.bias f4 [64]
000000 81 85 86 bc d6 63 c8 3e e1 b7 51 3e fa 16 11 bd
       -0.016421081 0.3913867 0.204803 -0.035422303
000010 d4 90 85 bd c2 fd 9d 3e 7c 03 c6 be 5b ce aa be
       -0.065217644 0.30857664 -0.38674533 -0.33360562
000020 c8 88 89 3c fb 50 b8 be 5f 5c 83 3d 86 57 3a be
       0.016788855 -0.35999283 0.06414103 -0.1819745
000030 ff 76 39 3e ac 8f c4 bd a5 72 08 be a6 30 26 3e
       0.181118 -0.09597716 -0.13324983 0.16229495
000040 59 d3 7f 3e ff 0b 91 bd 27 5c d1 bd d5 c3 4c be
       0.24982966 -0.07082366 -0.10222655 -0.19996579
000050 81 1d 9a 3d 91 87 97 3e 26 ed 70 3d 29 1f 33 3d
       0.07525159 0.29595616 0.058819912 0.04373089
000060 72 4d bf bd 9b 7f 34 be 5a ef cc bd c5 11 3c 3e
       -0.093409434 -0.17626803 -0.1000659 0.18366154
000070 ca 20 cc 3d cc a3 28 bd 4a 4b 6d bd 80 ce d0 bd
       0.099671915 -0.041171834 -0.05793313 -0.10195637
000080 03 73 a5 3e 20 4e 8f bd b2 61 03 3e 19 93 ab 3e
       0.3231431 -0.06997323 0.12830237 0.33510664
000090 3b f4 84 be c2 38 35 be b5 33 67 3d 2e f9 85 3d
       -0.25967583 -0.17697433 0.056445796 0.06541668
0000a0 b4 09 f7 3d ca 0e 18 3d 75 23 85 3e 8f 8d 4d be
       0.120623976 0.03712348 0.26003614 -0.20073532
0000b0 f3 3b a2 be 89 2f 39 be 35 f2 4f be ef fd c1 bd
       -0.31686363 -0.1808454 -0.20307238 -0.09472262
0000c0 2f 3d cf 3d 2f ed e0 3d a1 b7 4b be c7 19 7e bc
       0.10119092 0.10982739 -0.19894268 -0.0155090755
0000d0 9d fd a8 3d 44 41 8d 3d 9c 13 bc bd 7e c1 62 be
       0.08251498 0.06897214 -0.09183428 -0.22144124
0000e0 5c 73 81 3e 2a 2d 09 be e6 35 c8 bd f1 35 7e 3e
       0.25283325 -0.13396135 -0.09775905 0.24825265
0000f0 3c f2 b8 bd 34 c5 76 3e dc f7 a2 3e a5 8d b2 bd
       -0.090305775 0.24098665 0.31829727 -0.08718423

linear3.weight f4 [32, 64]
000000 1a a0 2d be 76 d3 43 3e a3 9d bf 3e 9e b0 b6 bd
       -0.16955605 0.19123635 0.37424955 -0.08920406
000010 02 4b fd 3d 56 2b b1 bd d5 b4 0f 3e 7b ba bd bc
       0.12367822 -0.08650844 0.14033826 -0.02316021
000020 3c 21 88 be a9 fe e9 3d 7d 11 36 be 9e 1a 6b bd
       -0.26587856 0.11425526 -0.17780109 -0.05739843
000030 d1 04 49 3e 4a 9f c8 bd 1a 45 10 3e 9b 78 49 be
       0.19630744 -0.09796007 0.1408886 -0.19674914
000040 94 0f ad 3e 94 9f 9b bd a9 98 5c 3e b0 51 7f bc
       0.33800948 -0.075987965 0.2154261 -0.015583441
000050 38 d6 c7 be f4 48 a1 bd f9 48 62 3e 61 4d 58 be
       -0.39030623 -0.07875243 0.2209815 -0.21123268
000060 cb 23 96 bd bd 0f 27 3e df 75 d4 bd 83 ea 88 be
       -0.07331046 0.16314597 -0.103740446 -0.26741418
000070 c0 e5 51 be 96 37 32 be de 64 a1 3d 52 a0 15 3d
       -0.20497799 -0.17404017 0.07880567 0.036529846
000080 9f 5c fc 3e 50 63 f8 bc 80 26 27 3e 40 cd 19 3e
       0.49289414 -0.030320793 0.1632328 0.15019703
000090 ec 2b 87 3d 4c 9a 8f bd fb 54 67 bd 21 66 75 be
       0.06600174 -0.07011852 -0.056477528 -0.2396474
0000a0 81 ad fc be e3 ec b9 bc 3b ad 8f 3d ba 45 b4 bc
       -0.49351123 -0.022695964 0.07015463 -0.022005904
0000b0 5b 47 0a 3d 34 20 fa bc 1c ec e7 bd 6f 4c 7b 3d
       0.033759456 -0.030532934 -0.11324331 0.06135219
0000c0 b4 d7 87 be ac 80 23 3e d0 58 fc bc 7a 0e 86 be
       -0.26531756 0.15967053 -0.030804068 -0.2618292
0000d0 cb e0 48 3e 36 2e 4f be 1f 5c b4 3d cf 5a 7c 3d
       0.19617002 -0.20232472 0.08806633 0.06161004
0000e0 85 ea 9e bd 01 3a 91 bc c1 dc d9 bd f6 81 1c bf
       -0.07759575 -0.017727854 -0.106378086 -0.61135805
0000f0 2b 63 b6 be ff 0f bd 3e 72 d0 8b 3e 18 4e 1d be
       -0.35622534 0.36926267 0.2730747 -0.15361822
000100 4c 28 25 bd 97 fb 86 be 84 5b 9c 3d 0f d4 b8 bc
       -0.040321633 -0.26363823 0.07634643 -0.022562055
000110 29 d0 35 bd 9f ae 7f be d8 9b ef 3c 81 01 4e 3d
       -0.04438797 -0.24968956 0.029249117 0.050294403
000120 d2 57 4f 3d c1 93 e6 3c 45 70 63 bd de 1b 9c bc
       0.05062086 0.028146626 -0.05552699 -0.019056257
000130 7c 94 e2 bd be 73 88 3c 8f d4 ea 3c 76 ef e2 bd
       -0.110634774 0.016656753 0.028665809 -0.1108083
000140 46 61 eb bd 80 45 95 3a e8 ca b9 bd 22 e7 34 3d
       -0.11493163 0.001138851 -0.090719044 0.044165738
000150 03 81 fc bc e1 c2 d0 3c d4 61 0c 3d 0e 7f c8 bc
       -0.030823236 0.02548355 0.034272984 -0.024474647
000160 43 55 e9 bd 84 01 9d bd 79 9c 09 3e f2 23 ff bd
       -0.113932155 -0.07666305 0.13438596 -0.12458028
000170 1c 08 99 bd 3d 9a ec bd 11 42 1b bd 18 c7 3b bd
       -0.0747225 -0.11552856 -0.037904803 -0.045844167
000180 ba 12 5b be e4 a4 c6 3d e5 fa 16 bd d4 48 01 bd
       -0.21393862 0.09699419 -0.036860365 -0.031563595
000190 16 c1 2e 3d 20 f3 dc bc 6d 60 db bd 0a c9 26 bd
       0.04266461 -0.0269714 -0.10711751 -0.04071907
0001a0 cf 74 a0 3d e9 8d a2 bd 5d 59 03 bd f6 b0 25 be
       0.078347795 -0.079372235 -0.032067645 -0.16180786
0001b0 39 66 73 3d d0 68 44 3c 62 d5 8a bd 82 6d 28 3d
       0.05942366 0.01198788 -0.06778981 0.04112006
0001c0 2f 23 ba 3c 2d 37 8d 3d 7f f5 af 3d f9 98 3f 3d
       0.022721855 0.068952896 0.085917465 0.046776745
0001d0 98 f2 08 bd 5b 07 3e be 7c 5d 14 be ea 3a 1d 3e
       -0.03343448 -0.18557493 -0.14488786 0.15354505
0001e0 0b 9a 54 be 98 ce 91 3d b3 43 fc bd da 14 02 be
       -0.20761888 0.07119483 -0.123176 -0.12703267
0001f0 ea c9 2e 3c 04 53 a7 bd 53 52 84 3d e0 21 4b bd
       0.010668257 -0.08170131 0.064610146 -0.049592853
000200 1e 2b 48 bd e4 bb a7 bd 82 7a 94 bd 8c 17 21 be
       -0.048869245 -0.08190134 -0.07249929 -0.15731639
000210 48 29 df 3c 56 63 c5 bd 33 42 a6 bd 00 0e 43 3b
       0.027241364 -0.096380875 -0.08118095 0.0029762983
000220 98 6b 81 bc 19 9a bb bc d6 4f 31 bd 85 33 1f be
       -0.015798375 -0.022900628 -0.043289028 -0.15546997
000230 0e 86 c9 bd 47 c1 0c 3d a4 f4 4f bd d6 a1 d2 bd
       -0.09840022 0.03436401 -0.050770417 -0.10284774
000240 48 1e 83 3c e3 0f 9c 3d aa af 37 bb f9 21 24 3d
       0.01600565 0.07620218 -0.0028028288 0.04007146
000250 bc 0f d4 3c cc 1a 4c bc a6 13 ed bd fd 7f 52 bd
       0.025886409 -0.012457561 -0.11576013 -0.05139159
000260 a7 5b 04 be f8 b7 b6 3d f4 fe 48 3c 28 73 a3 bd
       -0.12925588 0.08921808 0.012267817 -0.07980949
000270 b9 b7 ac bd 07 1e ea 3c b5 1c 18 be 24 b2 e5 3d
       -0.0843348 0.028578771 -0.14854701 0.11215618
000280 83 73 d9 bd 88 d6 d4 bd 99 99 3b be 43 84 2d bd
       -0.10617735 -0.10392481 -0.18320312 -0.042362463
000290 52 ad 87 3d 1d be 4d 3d 27 ab 55 bd e9 9c 00 bd
       0.06624855 0.050230134 -0.052165177 -0.03139964
0002a0 bc 2b ab bd 12 4b e0 bd 85 ab f0 bd 13 5f a6 3a
       -0.08357951 -0.109518185 -0.11751465 0.0012693129
0002b0 6a 28 03 bb 80 f9 af 3d 4e ab d0 3d d8 ae b7 3c
       -0.0020013102 0.0859251 0.10188924 0.02242224
0002c0 b9 5f 55 be b0 ea ce bd 7d f4 04 be 30 d1 f8 3c
       -0.20837297 -0.10103357 -0.1298389 0.030373186
0002d0 33 d1 d2 3c 90 b1 c2 bd aa a8 9c 3d 7c 18 4e 3d
       0.02573452 -0.095065236 0.076493576 0.05031632
0002e0 a3 e5 88 bb 2f b7 b7 bd ff f1 25 be 38 ef af bb
       -0.0041777655 -0.089704864 -0.16205595 -0.0053690933
0002f0 4e 93 d0 3c 22 b4 40 be 23 2c 33 be 5b 26 e3 bd
       0.025460865 -0.18818715 -0.17497306 -0.110913
000300 5b 2e 38 3e b1 70 7e 3e e4 7e 9d 3d aa 38 1b 3d
       0.17986433 0.24847676 0.07690218 0.037895836
000310 c7 48 87 3c cb a0 94 3e 58 cd 9d bc e3 46 be 3d
       0.016514195 0.29028925 -0.019262955 0.09290864
000320 40 70 a0 bd 5b 2c d3 bd 95 35 63 bb 4e 0b 9d bd
       -0.0783391 -0.103111945 -0.0034669389 -0.07668172
000330 76 c7 a1 bd b8 16 f7 3d 50 84 19 be dc be cc 3c
       -0.07899372 0.1206488 -0.1499188 0.024993353
000340 14 46 3c 3e 86 99 50 bd 7b 0c 46 be af be 55 3e
       0.18386108 -0.05092766 -0.19340698 0.20873521
000350 08 b2 07 bb af 97 87 bd 86 b5 61 bd db ae 28 3d
       -0.002070548 -0.06620728 -0.055104755 0.04118238
000360 7a 63 2b bd 70 5c 15 bd 4f 88 f4 bd c8 24 e7 be
       -0.041842915 -0.03646511 -0.11940061 -0.4514525
000370 e8 2d 2b 3e 36 74 31 3d 8d 82 59 bd 07 90 a5 3d
       0.1671673 0.043323718 -0.05310302 0.08084112
000380 d7 85 92 3e 8c cc 92 3d ea 9e 0e be 64 d4 80 3e
       0.28617737 0.071679205 -0.13927808 0.2516204
000390 0f 23 3b 3d 9a 7d 47 bc de 73 f2 3d b0 5d eb 3d
       0.04568773 -0.012175942 0.11838506 0.11492479
0003a0 51 8e 34 3e b9 54 52 3d 49 df 3b be 5d 7c c1 bc
       0.17632414 0.05135033 -0.18346895 -0.023618871
0003b0 ea 22 31 be 87 a8 bb bb fa cc 18 3e ce d2 3a 3e
       -0.17298475 -0.005726877 0.14921942 0.18244478
0003c0 c8 88 a5 3d de 66 02 3e 10 6b 0e be f6 c9 e4 3c
       0.080827296 0.12734553 -0.13908029 0.027928334
0003d0 ab 09 f9 bd 1a d3 b4 3d d5 6a 22 be 25 cf 51 bd
       -0.12160047 0.08829327 -0.15861066 -0.05122294
0003e0 68 0c 09 3e 06 da 06 be a2 42 d1 bd b3 eb 80 3d
       0.13383639 -0.13169107 -0.10217787 0.06294956
0003f0 0c 69 a0 bd e4 b5 e6 3c f5 5c 75 3e 6c 46 21 3c
       -0.07832536 0.028162904 0.23961242 0.00984345

linear3.bias f4 [32]
000000 fb c8 8b 3e a1 51 59 be fe a8 94 3c 6d 85 b3 3e
       0.27301773 -0.21222545 0.018146988 0.35062733
000010 2a c9 65 be 86 87 f9 bd 64 f7 2c 3e a1 3c ce 3e
       -0.22440019 -0.12184052 0.16891247 0.4028063
000020 ea 76 12 be 21 61 01 be 34 b5 e6 3d 2e e2 36 3d
       -0.14303175 -0.12634708 0.112650305 0.044649296
000030 0b d3 08 be cd d7 ba 3e af e8 13 bc b9 b2 51 bd
       -0.13361757 0.36492768 -0.009027644 -0.051195834
000040 f3 3a 4f 3d b9 5e c2 bd 17 f4 25 3e 62 b9 81 bd
       0.050593328 -0.09490723 0.16206394 -0.06334187
000050 60 8a fd bc 4d 79 9e bd 73 b3 66 bd 19 ca 65 bd
       -0.030949771 -0.0773798 -0.05632348 -0.05610094
000060 e8 99 a3 bd a0 1b 65 bd 73 b1 0a bd 33 b6 97 bd
       -0.0798834 -0.05593455 -0.033860635 -0.074077986
000070 1f 98 5f be c9 8e f6 bd aa 0d 6a bd ad 28 ba 3e
       -0.21835373 -0.12038953 -0.057141937 0.36359158

fc.weight f4 [1, 32]
000000 f0 e4 23 3e 3e 80 f4 bb a1 f3 a7 bc 2d 65 fc 3d
       0.16005301 -0.0074615767 -0.020501914 0.12323985
000010 85 fe 99 bd 12 9b 0f be 68 64 8f 3e 89 66 50 3e
       -0.07519249 -0.14023998 0.2800629 0.20351614
000020 c9 8b f8 3d a2 f5 98 3c 0a d8 00 bc 26 b8 03 3e
       0.12136037 0.018671814 -0.007864008 0.12863216
000030 64 55 6a 3e 2c b9 91 3d 56 dd 44 bd 12 51 87 3e
       0.22884136 0.07115397 -0.048062645 0.2642904
000040 b9 95 05 3d c8 b6 a2 bc 18 cf 9a 3d be 6e a3 3d
       0.03261349 -0.019862548 0.07559031 0.07980107
000050 9f 7c 0a bb 15 35 4c 3c 82 da 17 3e c7 03 86 3d
       -0.002113141 0.012463828 0.14829448 0.06543689
000060 18 19 94 3d 0d 9b fa bb bb 8f aa bc 1e 7f 1d 3e
       0.07231349 -0.007647878 -0.02082049 0.15380523
000070 18 f3 a4 bd 83 34 86 bd 96 aa 43 bd b0 b0 a8 3c
       -0.08054179 -0.065529846 -0.047770105 0.020592064
