reinforcement_learning/results/lookahead_critic(icra_2).pt (torch, 8802 bytes, 5 tensors)

linear1.weight f4 [32, 12]
00000000: 20fa 93ba 38d5 3dbe 4589 123e 271f 6cbe
00000010: 63ed 0bbf abe4 653c 5391 36be cf85 89be
00000020: f10a a7bd f9f6 e1bc 05b8 dd3f f205 b4be
00000030: fe8c 42be 8c17 213e 9ee8 d83d 1b58 993e
00000040: 773f 2dbe f8ad 503e e406 60be 8511 0ebe
00000050: 8cf5 abbe 8528 c6be f1d7 b03f 4d84 e83b
00000060: 47f1 5fbe 79b0 a5be e918 86bf 3cc3 a5be
00000070: 1293 a2be 8748 9dbe 42a6 2dbf 5a85 a13c
00000080: efc7 69bf 4bf5 2fbf 8072 693e b18d 2d3c
00000090: 2469 613d 2a34 d13d d127 32bc 98f4 963e
000000a0: b1f3 30be f976 f4bd b99b 90be cd88 35be
000000b0: bd64 113e dce6 eabc 9769 513e c640 093f
000000c0: 0225 80be 79db c0be 4600 acbe 3f3b b7be
000000d0: 0585 17be 7e78 d1bd 72d5 2abe e69b f2bd
000000e0: bcb4 653c 9670 88be 1c45 1c3d 603d 023e
000000f0: debe 6a3d da30 7a3d a32c c73d 590b 233e
00000100: 4ced 933d ce40 b63d 0f09 4d3d ddac bebc
00000110: f93b 1bbd a033 6e3e d9e9 05c0 e3db 50bf
00000120: 72a4 563d 6539 733e 2d9e db3d 4b32 323e
00000130: ae48 20be decb 6f3e d160 33be 9053 d3bc
00000140: 00f2 8a3e fc1e e0bd 325c 3240 dfd4 40bf
00000150: 9762 07be 5aaa 2fbd 8356 b5bd f231 8bbc
00000160: 2ccd 3a3d f91e f63d 5a23 2d3e 3f3b 4abe
00000170: 64f0 cf3d 5fa5 283d e9de ff3f 7150 e33e
00000180: d66a ae3d bc6a ca3c 8bbe 17be c9a7 3abe
00000190: 25d1 11ba dcd7 37be 8df8 573d a991 2ebc
000001a0: 5856 dfbd 6509 153d 653b b33e 2cfc a1bf
000001b0: 73a5 4bbe e10c 07bf 632d 0dbe 2dd9 10bf
000001c0: 1a69 aebe f6ad f6be 7359 7dbe bda7 91bf
000001d0: 1422 14be ffc4 b1be 5047 de3f 638d 1bbe
000001e0: 1981 3bbe 1e17 59be 01b9 11be 7be9 d93d
000001f0: be29 983e 1d20 bebd 8eb4 fabe d23b 58be
00000200: d3e4 cdbe e821 37be 521d 18be dca0 8d3d
00000210: 4f52 1cbe 99be 0bbf 897d d4be f5da d0bd
00000220: 16eb 25be 006f c1bd b07d f0bd e0e6 b5bd
00000230: a663 7ebe cd43 a7be 869e 613f 6f1e 37bf
00000240: 88c7 0bbf c7a1 08bf 3e9d 77be a360 07bf
00000250: 1ac7 e8be e3f2 75bd 8c30 a2be d290 7bbe
00000260: bfe5 16be 14aa b1bd 535b f1bf efba 05bf
00000270: 3e62 4dbe 5860 e0bd 2692 2ebe 1dac 1abe
00000280: 7ea9 063e 2a9b cc3c 84db 75bd aa9f 0a3e
00000290: 946b 8bbd fe76 d1bc 34c0 893e 4a87 0cbe
000002a0: 8f9c 1fbf d2c7 09be ec92 253e e5b7 543e
000002b0: c0a8 cc3d 0a61 513c 9746 dcbe afc3 1abe
000002c0: ac49 7c3d 7e26 973e fbb7 443f 71e7 853e
000002d0: b2de 90be e54f 69be 02ff 3fbe 9888 5cbd
000002e0: a79d 80be dc18 07be e3f5 90be b949 1cbe
000002f0: a441 77be eaf8 523e 8864 313d d15f 5ebd
00000300: d5f3 fdbe f549 4c3e 5758 3cbd 077a 89be
00000310: 0054 e1bc 4e7b 4e3e 078b 173f 1f4e 30bd
00000320: 6ddf 83bd 347f 2c3c 45e2 abbe 3536 243f
00000330: 8869 5dbd 7b7b d1bd 585a 38be 89b7 e2be
00000340: d7c3 d8be 0ea9 acbd 0dfb 34bd ef92 0e3e
00000350: 21e0 d4be 0d6b 66bf e375 db3f c792 813d
00000360: 63d5 ff3c 6ec4 1fbd 8320 033d cc67 fa3d
00000370: bbb8 ea38 800b 42be d1d5 b53e bfdf 133e
00000380: 3beb d8bd 0b20 a4be a7d6 bb3f 51ab 7fbf
00000390: 9581 3cbd a77b b9bd 2ccd 30be 7f43 b3be
000003a0: 755a 6abd 6714 753e 22e5 8bbd 7f5f 2dbd
000003b0: ee08 53be 8216 59be 0d11 b33e d87c f83d
000003c0: cfad ec3d b914 b9be 7eda 6abd 9ad7 f83d
000003d0: 99f0 d8be d841 c03c 5421 013e 40df a7be
000003e0: 87f7 f03d bae8 8d3c b14c 5bbf f618 57bf
000003f0: ffd1 0abf b6bb bc3e 07ea 593e f9c8 99be
-0.0011289753 -0.18538368 0.14310177 -0.23058759 -0.546591 0.0140315695 -0.17828874 -0.268599
-0.08156384 -0.027583586 1.7321783 -0.35160786 -0.18999097 0.15731639 0.10591243 0.29950032
-0.16918741 0.20378864 -0.21877629 -0.1387387 -0.33585775 -0.3870279 1.38159 0.0070958496
-0.21869384 -0.323612 -1.0476352 -0.32375515 -0.3175283 -0.30719396 -0.67831814 0.019716907
-0.913207 -0.6873366 0.22797585 0.010592864 0.05503191 0.10215028 -0.010873751 0.29483485
-0.17280461 -0.11936755 -0.28243807 -0.17727967 0.14198585 -0.028674535 0.20450436 0.5361446
-0.25028235 -0.37667444 -0.3359396 -0.3578739 -0.14796837 -0.1022806 -0.16682985 -0.118461415
0.014020141 -0.26648396 0.038151845 0.12718725 0.05731093 0.061081745 0.09725311 0.15922298
0.07222995 0.08899079 0.050057467 -0.023275787 -0.03789899 0.23261881 -2.092398 -0.8158552
0.05240292 0.23752363 0.10723529 0.17401998 -0.15652725 0.23417613 -0.17517401 -0.025796682
0.27137756 -0.1094341 2.7868772 -0.75324816 -0.13221203 -0.04288707 -0.088543914 -0.01699159
0.045605823 0.12017626 0.16908017 -0.19749163 0.10153273 0.041173335 1.9989902 0.4439731
0.08516471 0.024709098 -0.1481878 -0.18228067 -0.0005562476 -0.17953438 0.05272727 -0.010654845
-0.10905141 0.036385912 0.35006252 -1.2655082 -0.19887333 -0.52754027 -0.13786845 -0.56581384
-0.3406456 -0.48179597 -0.24741153 -1.1379315 -0.14466125 -0.3472061 1.7365513 -0.15190654
-0.18310966 -0.21200225 -0.1423073 0.10640236 0.29719347 -0.09283469 -0.48965877 -0.2111657
-0.40213642 -0.17884028 -0.14854935 0.06915447 -0.15265773 -0.54587704 -0.41502026 -0.10198013
-0.1620296 -0.09445 -0.11742723 -0.088819265 -0.248427 -0.32668915 0.8813251 -0.7153081
-0.54601336 -0.5337185 -0.24181077 -0.5288183 -0.45464402 -0.060046088 -0.31677663 -0.24566963
-0.14736079 -0.08675018 -1.8855995 -0.52238363 -0.20057008 -0.10955876 -0.17047939 -0.15104719
0.13150594 0.024976332 -0.0600238 0.1353747 -0.06807628 -0.025569435 0.26904452 -0.13723484
-0.62348264 -0.13455132 0.16169327 0.20773275 0.09993124 0.012779484 -0.43022606 -0.1511371
0.061593696 0.29521555 0.7684323 0.26153138 -0.28294903 -0.22784384 -0.18749622 -0.053841203
-0.2512028 -0.13193077 -0.28312597 -0.15262498 -0.24146134 0.20602766 0.043308765 -0.054290596
-0.49600092 0.19950087 -0.045982685 -0.26850912 -0.027505875 0.20164225 0.59196514 -0.043043252
-0.064390995 0.010528374 -0.33571067 0.64145213 -0.05405572 -0.1022863 -0.18003213 -0.4428065
-0.42336914 -0.08430682 -0.044184733 0.13923238 -0.41577247 -0.90007097 1.7145351 0.06326824
0.03122968 -0.03900569 0.032013427 0.12226829 0.00011192398 -0.189497 0.3551469 0.14440821
-0.10591742 -0.32055697 1.4674882 -0.99870783 -0.046022017 -0.09056788 -0.17265767 -0.35012433
-0.057215173 0.23933564 -0.06830813 -0.0423274 -0.20608875 -0.21199992 0.34973946 0.12133187
0.11556589 -0.36148623 -0.057337277 0.12150498 -0.4237106 0.023468897 0.1261037 -0.32787514
0.11765962 0.017322887 -0.85663897 -0.8402246 -0.5422668 0.36861962 0.2128068 -0.30036142

linear1.bias f4 [32]
00000000: 6dc0 e6be 6b37 30bf cfed e63c 5300 e8bc
00000010: d708 8bbe a2e7 b93e 46ab e83a 0c7e 46be
00000020: 312a 0b3e ddae 5b39 2017 20be c0f4 523e
00000030: c843 243e 6397 50be 27d5 19be 3718 4cbe
00000040: 79e8 24bc ae11 a2bd 6595 dd3d a1c8 a4be
00000050: 0c61 f43d a7a6 af3e c315 0e3e 76d8 cbbd
00000060: 7273 9cbc c0d1 9dbe a18f 70be 3f72 00be
00000070: b87d ffbe d0ad d83b 540c 88be 721a 103f
-0.45068684 -0.6883456 0.028189568 -0.028320467 -0.27155182 0.36309534 0.0017751239 -0.1938402
0.13590313 0.00020950609 -0.15633821 0.20601177 0.16041481 -0.2037025 -0.15022717 -0.19931112
-0.010065191 -0.079135284 0.1081951 -0.32184318 0.11932573 0.34306833 0.13875489 -0.09953396
-0.019098017 -0.3082409 -0.2349229 -0.12543581 -0.49900603 0.006612517 -0.26571906 0.5629035

linear2.weight f4 [32, 32]
00000000: 420b da3b 84d7 a7bd 922f 55be 8ae8 3a3e
00000010: 8a70 5ebf 71de adbd a323 78bd 47ff 9fbf
00000020: 0a7f e93e 38d1 823f 5d1e 6cbe 25cb 873d
00000030: 7d4c 03c0 9220 0fbe 8d16 05bf 5c5a 04be
00000040: 7a5b d9be 71bc 87bd 6895 32be de4b 19be
00000050: e79d 27bf d770 4ebe 682c 33be 78b7 e83d
00000060: 6ebe 13be 5eb4 7c3d 283e 30bf e5f9 843e
00000070: bbb4 b3bd a5d7 99bd 82e7 25bf 34b1 e9be
00000080: c402 103e 8dbe e23d 9093 453e 485c 94be
00000090: 33b2 273c 40ba d2bd e49d 423c 3b0a fcbe
000000a0: 84bc 9a3e 2fab 7abf 6dbf 37be 44fe 583d
000000b0: 921d 5ebe a3d5 bb3d 3a06 45bd 9259 823e
000000c0: 6a28 23be 20c0 48be da73 933b 3119 a43e
000000d0: f6a1 2f3d f97a bc3d baba 1e3e 756a 343e
000000e0: e505 c7bd a8e2 9e3e 14d8 b7bd 01f7 933b
000000f0: 9545 2cbe 944e c8bd 6680 073f 18f3 49bf
00000100: e43c 4abe eb6b 343d 08db a93d e5dc 09bf
00000110: 34b7 0dbf 65fa ea3e f99d a03d 1894 5a3e
00000120: 6746 0abe f6f2 9dbf 7cf8 723e 9205 c33e
00000130: 32ba 9a3e be70 5c3d 3673 143f 788e c8be
00000140: 2ae4 13bf 233f 11bf 09a0 83be 19e5 c1be
00000150: cac4 6d3e 77ca 3ebf 3a1a 20bf 6ebd 233e
00000160: c4e5 a53e 64a2 953b f9de cf3e ec70 2f3e
00000170: 5c42 6dbe 6ed6 a0bc 5d1c 113e b71a e23e
00000180: b530 623e dc46 23be 5abe 003f 1844 22bf
00000190: c0e8 6e3e 01c5 0dbe 7188 a43e 5bf7 d9be
000001a0: a981 16be 2c8e 97bf daff 7ebd b32f 3a3e
000001b0: 9def e9bd c65a 8b3b 089a eebd 5b04 b13e
000001c0: 1d21 d8be f5eb 1d3e 1998 de3e b029 b2be
000001d0: 93bb 913e 3ef2 843e c483 7abd 7608 f83d
000001e0: 38ff 793e 201e 7cbd f94f d13e 678b 99be
000001f0: 5b26 313d aa0a f73e 3608 333e 2327 bdbe
00000200: 3653 0ebf 009f ac3e 3b46 2ebd 3be8 4bbe
00000210: f33f 403e cb75 d3be 76ae ed3d c0cc 81bd
00000220: 35ec 6a3e 14cd 77bf 0f14 5c3e 1c94 2d3d
00000230: cdfa d2be 15b2 97bd 3ad0 923d fa0b 62bd
00000240: 173e f8bd f02e a03e 76fe 80be e1d9 14bd
00000250: 3e5f 87be 1b9d d03d 615d cbbe c711 b73b
00000260: 973c c5bd f412 bf3e da94 cdbe 02d2 93be
00000270: 36ec 6a3d c203 583d 3083 babd 0caf 0cbf
00000280: 0242 47be 7592 1a3e 9501 73bd f14d 463e
00000290: 0c0f e03e b3c9 403e f2f0 743c f092 07bd
000002a0: f4e4 14be f0fb 683d 9d74 303e 17dd 023f
000002b0: a671 8abe bd10 e13c 5496 fcbe c84b aabe
000002c0: 0f13 603e 08d4 153e 17ed ac3e 5a13 3bbe
000002d0: 0620 b2bd a489 ca3e fe28 253e e79d ff3e
000002e0: a109 033f b4a9 023e 5468 84be 7e8c 4abd
000002f0: 0073 9a3e 185d d33d 9297 883e cef1 4abe
00000300: 0d94 2fbf c37d 223d 4411 d0be 1f6d 80be
00000310: 6a88 c83d 4fb9 233e afde 2cbd a096 4a3e
00000320: 403d 57bf 9ff1 323d 7fc1 d1bd 6b76 e13e
00000330: 8ffb 05bf 61ee d3bd be7f 6fbc e63b 273d
00000340: 416c 7fbf 4914 8e3e 740e b53d 173c 7d3d
00000350: 69a2 403e 2af3 6dbe 42da 283e 116f b5bb
00000360: 60d7 15be e003 e13e 6ffd 39bd da48 68be
00000370: c61f 273e 3776 013e 97b9 783d 3313 c9bb
00000380: eddc 35bd b5d6 c03c 3605 39be d725 60be
00000390: ee29 aebc 6d7b d33d 2bf1 993e 0e56 96be
000003a0: 50ae 9eb9 3aa9 1ebf 32f6 3e3e 1524 9d3e
000003b0: 96f9 d6bd eeb6 963d fd39 223e beb0 943e
000003c0: 5ee8 893e 86b0 3c3e c610 34be 12da be3d
000003d0: 2814 443d 0f04 8c3e 3f46 b5bd b5b4 8d3d
000003e0: 0119 d93d 8459 bc3e c025 1dbe be64 cd3d
000003f0: 4246 4cbc 239f a3bd 4996 223e 8d00 1abf
0.006654174 -0.08195403 -0.20818928 0.18252769 -0.8689047 -0.08489693 -0.06058086 -1.249978
0.45604736 1.0220098 -0.23058458 0.066305436 -2.0515435 -0.13977268 -0.51987535 -0.12925094
-0.42452604 -0.06627739 -0.17439806 -0.14970347 -0.65475315 -0.20160232 -0.17497408 0.11363119
-0.14428112 0.06169545 -0.6884484 0.25971904 -0.08774706 -0.07511834 -0.6480638 -0.45643008
0.14063555 0.11071501 0.19294572 -0.28976655 0.010235357 -0.102894306 0.011878464 -0.49226555
0.3022195 -0.97917455 -0.17944117 0.05297686 -0.21690968 0.09171607 -0.04810164 0.25458962
-0.15933385 -0.1960454 0.0044998946 0.3205047 0.042879067 0.09203143 0.15500918 0.17618735
-0.09717921 0.310323 -0.089767605 0.004515529 -0.16823418 -0.097806126 0.52930295 -0.78886557
-0.1974979 0.04404823 0.0829373 -0.53852683 -0.5535767 0.4589416 0.07842631 0.21345556
-0.13503419 -1.2339771 0.23727602 0.38090187 0.3022018 0.053818457 0.579883 -0.39171195
-0.57770026 -0.56736964 -0.25708035 -0.378701 0.232196 -0.74527687 -0.6254002 0.1599023
0.3240186 0.0045664776 0.40599802 0.1713292 -0.23169845 -0.019633498 0.14170976 0.44161007
0.22088893 -0.15945 0.50290453 -0.6338515 0.23330975 -0.13844682 0.32135347 -0.4257153
-0.14697899 -1.1840262 -0.062255718 0.18182258 -0.11422656 0.0042527644 -0.11650473 0.34573635
-0.42212763 0.15422042 0.43475416 -0.3479743 0.2846342 0.25966066 -0.061160818 0.12110989
0.24413764 -0.061552167 0.40881327 -0.29989168 0.04324947 0.48250324 0.17483601 -0.3694392
-0.5559572 0.33715057 -0.042547446 -0.19912808 0.18774395 -0.41300806 0.116055414 -0.06337881
0.22941668 -0.967973 0.21492027 0.042377576 -0.4120697 -0.07407013 0.07168622 -0.055187203
-0.12121218 0.3128581 -0.25194138 -0.036340598 -0.26439852 0.101862155 -0.3971968 0.005586836
-0.09630697 0.37319148 -0.40152627 -0.2887116 0.057354175 0.05273796 -0.09107053 -0.549546
-0.19458774 0.15094931 -0.05932768 0.1936567 0.4376148 0.18826942 0.014950024 -0.033099115
-0.14540464 0.05688089 0.17231984 0.51118606 -0.27039832 0.027473802 -0.4933344 -0.33260942
0.2188227 0.14631665 0.33774635 -0.18269101 -0.08697514 0.39558136 0.16128919 0.49925157
0.5118657 0.12760049 -0.25860846 -0.04945039 0.30165863 0.103204906 0.2667814 -0.19818804
-0.6858528 0.039670717 -0.40638173 -0.25083253 0.09791644 0.15988658 -0.042204555 0.19784021
-0.84077835 0.04368746 -0.102419846 0.44035658 -0.5233697 -0.103482015 -0.014617858 0.040828608
-0.9977456 0.2774985 0.08840647 0.061824884 0.18811955 -0.23237291 0.16489509 -0.005536922
-0.1463294 0.4394827 -0.04540771 -0.2268404 0.16320714 0.12642752 0.060723867 -0.006136322
-0.044400144 0.02353988 -0.18068394 -0.21889435 -0.021260228 0.10326276 0.3006681 -0.2936253
-0.0003026598 -0.6197697 0.18648604 0.3069159 -0.104968235 0.0735911 0.15842433 0.29041094
0.26935095 0.18426713 -0.17584524 0.09318937 0.047870785 0.27346846 -0.08851289 0.06919233
0.10600472 0.36787045 -0.15346432 0.10028981 -0.012467923 -0.07989337 0.15877642 -0.6015709

linear2.bias f4 [32]
00000000: 941c 70bd b8b3 a2bc a465 8fbd 87a5 223e
00000010: 4ca9 1f3e 99f7 e6be 9c13 12bd 192a ed3c
00000020: 46ca b0be 6e31 a4bd be62 3ebe 0224 c2be
00000030: aad1 fd3d 10c8 4abe 9dec 623d be31 c13d
00000040: 043e 71be cf9b 90be 8873 9cbe 81b2 97bc
00000050: f8a1 31bd a1d4 85be 313b 5abe a16d 0ebe
00000060: 9d4d 36be 8de3 34be e2b5 0bbc b190 08be
00000070: 3cb4 f53d 418d 9dbe 93a5 1f3e b1bc 9bbe
-0.058621004 -0.019861087 -0.07001808 0.15883456 0.15591925 -0.45110777 -0.035663232 0.028950738
-0.34529322 -0.080172405 -0.18592355 -0.37918097 0.12393506 -0.1980288 0.055401433 0.09433316
-0.23558813 -0.28243873 -0.30556893 -0.018517734 -0.043367356 -0.26138785 -0.21311642 -0.13909008
-0.17803045 -0.17664929 -0.008527251 -0.13336445 0.119972676 -0.3077183 0.15590505 -0.30417398

fc.weight f4 [1, 32]
00000000: 3904 ab3e 856e 2abe e3ea aabb 5778 36be
00000010: 1f60 36be 0440 473d ee9c bcbd dc19 2cbe
00000020: 5d8b 77bd e8d5 e3be 5f68 07be c362 9abe
00000030: 8b55 153e 2600 20bd 0fc5 183d 42e4 4abe
00000040: ae8f 113e c232 4cbe 7a6c 693c 57fc a73d
00000050: 9158 15bf 156b 953e fe89 6fbe eadf 553e
00000060: fee9 993e 3bb0 d03d dd47 483e 6d5e 2d3d
00000070: 5413 77bd f939 95be cc7f 133e 2734 4f3c
0.3340166 -0.16643722 -0.005215989 -0.17819344 -0.17810105 0.048645034 -0.092096195 -0.1680674
-0.06043564 -0.44499135 -0.13223408 -0.30153474 0.14583413 -0.03906264 0.037297305 -0.19813636
0.14214966 -0.19941238 0.014247054 0.08202427 -0.58338267 0.2918326 -0.23392484 0.20886198
0.30061334 0.10189863 0.19558664 0.04232638 -0.060321167 -0.29145792 0.1440422 0.012646711
