reinforcement_learning/results/lookahead_critic.pt (torch, 9442 bytes, 5 tensors)

linear1.weight f4 [32, 17]
-0.18237014 -0.22241117 -0.29005587 -0.081067465 -0.23035412 -0.13330528 -0.275826 -0.5683446
-0.5457014 -0.42559952 -0.12841848 -0.24339342 -0.5116608 -0.288621 -0.54428965 -0.040005162
0.1796508 -0.014970759 -0.15089805 -0.24926262 -0.12501095 -0.43290326 -0.34714866 -0.20940095
-0.23248194 -0.40414098 -0.49786234 -0.5001153 -0.3635229 -0.36275187 -0.1693585 -0.38837856
-0.2206256 0.20218776 -0.30453646 -0.09460045 0.03554562 -0.102714404 -0.12212282 -0.2074686
-0.010525401 -0.17219399 -0.052337762 -0.41656467 -0.36198398 -0.043335672 -0.26384765 -0.077586584
-0.3239063 0.041350983 0.017901203 -0.12183665 0.090670176 0.16940752 -0.10860001 0.19150917
0.18571433 0.05023327 0.09205845 -0.2012943 -0.21518438 -0.18908407 -0.22231479 -0.05957567
0.14956148 -0.030787531 0.1750785 -0.12617153 0.13446005 0.1075946 0.16971652 -0.15874815
-0.013437785 0.23710608 0.0049677687 -0.13539581 0.17540872 -0.15300785 -0.04626201 -0.1753736
-0.14727034 0.13503851 0.13906282 -0.2720422 0.090645984 -0.13859181 -0.30959323 -0.10661293
-0.07189336 -0.001000856 -0.17135164 -0.1334207 -0.31004372 -0.20867705 -0.39823377 -0.054196414
-0.32504156 -0.41376528 -0.24656206 -0.09196 -0.047269028 0.15347217 -0.25344172 -0.17233452
-0.17881826 -0.079837106 0.1413399 0.050136615 -0.16103007 -0.059798807 -0.27533317 -0.30287296
0.050760712 -0.13843718 -0.048158653 -0.026270213 0.14955941 -0.19948253 -0.044040456 -0.23358779
-0.061899185 -0.2543785 -0.10021592 -0.14740683 0.15743473 -0.24126397 0.16208467 0.086872414
0.19232069 -0.28042123 -0.1817091 -0.005652979 0.11550276 -0.05466276 0.028952502 -0.26606047
-0.014468922 -0.21024212 -0.012264265 -0.43694422 -0.30225998 -0.47447106 -0.43470752 -0.07120098
-0.096125744 -0.42592305 -0.55791515 -0.53865576 -0.18257846 -0.28687787 -0.17421938 -0.20538974
0.15076953 0.14225687 -0.21536912 -0.047263782 -0.041393943 -0.041943878 0.009954692 0.003264714
-0.03080366 0.1778253 0.1909668 0.095149815 0.08260877 0.1395944 0.18013144 -0.17476882
-0.11430737 -0.0908417 0.13919589 -0.17599276 0.0096611045 0.04755208 0.11989245 -0.02968744
0.07199901 0.07680676 0.039362025 -0.030980144 0.18407018 -0.15217789 0.16906363 -0.020698445
-0.060429443 0.09150015 -0.25338727 -0.13043717 0.1424781 -0.015685907 0.008441684 -0.14532645
0.17683294 0.18655346 -0.27371 -0.13702436 -0.07900437 -0.105948165 -0.06876575 -0.13792591
0.17079787 -0.17972356 -0.21641809 -0.0100433845 -0.0090350825 -0.03559117 -0.3702588 -0.15830906
-0.02085818 -0.2825764 -0.23353846 -0.06693274 -0.37555513 -0.38393053 -0.11834138 -0.25564554
-0.32752717 -0.16348499 -0.017645571 -0.0798352 -0.26853523 -0.021179216 0.14865525 -0.18503661
0.017543666 -0.06543848 -0.32633132 0.054160178 -0.32784745 0.031321574 -0.21401699 0.0560989
-0.1009122 -0.3347396 -0.008188049 0.048963066 0.06892705 0.15081832 -0.075995296 0.11209464
-0.14495516 -0.057210084 0.015081678 -0.3022911 -0.38163176 -0.15668401 -0.04228831 -0.35062742
0.067606054 -0.37091702 0.030223366 -0.081514314 -0.35712463 -0.08314909 -0.14054132 0.053224545
00000000: 3dbf 3abe c1bf 63be 3482 94be b306 a6bd
00000010: f3e1 6bbe 2e81 08be 1139 8dbe 087f 11bf
00000020: 16b3 0bbf 2ee8 d9be 2280 03be 203c 79be
00000030: 34fc 02bf 22c6 93be 9156 0bbf 74dc 23bd
00000040: 61f6 373e ea47 75bc 0585 1abe b33e 7fbe
00000050: df02 00be 7fa5 ddbe 78bd b1be 346d 56be
00000060: bf0f 6ebe 91eb cebe d0e7 febe 8e07 00bf
00000070: ac1f babe 9dba b9be 516c 2dbe 8ed9 c6be
00000080: adeb 61be 4f0a 4f3e 34ec 9bbe e1bd c1bd
00000090: 4998 113d ee5b d2bd 871b fabd a672 54be
000000a0: bb72 2cbc 9f53 30be 1f60 56bd f747 d5be
000000b0: f755 b9be bf80 31bd 0a17 87be b7e5 9ebd
000000c0: 0cd7 a5be a65f 293d 8ba5 923c 7e85 f9bd
000000d0: 49b1 b93d 2a79 2d3e af69 debd fb1a 443e
000000e0: e62b 3e3e 67c1 4d3d 2489 bc3d 1820 4ebe
000000f0: 4b59 5cbe 419f 41be 7da6 63be 9e05 74bd
00000100: a526 193e 2236 fcbc c747 333e 1c33 01be
00000110: e5af 093e 8f5a dc3d 2bca 2d3e e08e 22be
00000120: 282a 5cbc f0cb 723e aac8 a23b 33a5 0abe
00000130: 589e 333e 17ae 1cbe 3c7d 3dbd 2395 33be
00000140: 09ce 16be 8947 0a3e 7c66 0e3e 1e49 8bbe
00000150: 9aa4 b93d 03eb 0dbe 0183 9ebe e157 dabd
00000160: d33c 93bd 282f 83ba ce76 2fbe 709f 08be
00000170: 0dbe 9ebe 70af 55be 4ce5 cbbe 0ffd 5dbd
00000180: d96b a6be 0bd9 d3be c47a 7cbe 8655 bcbd
00000190: 2b9d 41bd cf27 1d3e 1dc3 81be 7678 30be
000001a0: 221c 37be a381 a3bd 68bb 103e 0d5c 4d3d
000001b0: 11e5 24be 98ef 74bd 78f8 8cbe 2a12 9bbe
000001c0: 77ea 4f3d 7ac2 0dbe 0242 45bd a134 d7bc
000001d0: 1a26 193e 2645 4cbe c463 34bd a331 6fbe
000001e0: 008a 7dbd e63d 82be 013e cdbd d1f1 16be
000001f0: 9236 213e e70d 77be 86f9 253e 2aea b13d
00000200: b7ef 443e 5f93 8fbe f311 3abe a03c b9bb
00000210: b68c ec3d 0fe6 5fbd cc2d ed3c 1439 88be
00000220: 0f0f 6dbc b649 57be 0ef0 48bc 27b7 dfbe
00000230: d2c1 9abe dfed f2be fc91 debe d2d1 91bd
00000240: 93dd c4bd 9612 dabe 87d3 0ebf 58e5 09bf
00000250: d9f5 3abe a8e1 92be 9166 32be b051 52be
00000260: 5463 1a3e c9ab 113e b989 5cbe ab97 41bd
00000270: b28c 29bd 58cd 2bbd 0119 233c d0f4 553b
00000280: f557 fcbc d617 363e cd8c 433e e8dd c23d
00000290: c92e a93d d6f1 0e3e 6074 383e 99f6 32be
000002a0: fb19 eabd 370b babd 5e89 0e3e 7237 34be
000002b0: 9c49 1e3c f8c5 423d 2c8a f53d 1333 f3bc
000002c0: 3874 933d dd4c 9d3d 133a 213d 12ca fdbc
000002d0: e57c 3c3e 85d4 1bbe 041f 2d3e c98f a9bc
000002e0: dd84 77bd 6e64 bb3d fabb 81be 5291 05be
000002f0: c7e5 113e bb7f 80bc fd4e 0a3c 75d0 14be
00000300: b213 353e df07 3f3e b823 8cbe 1d50 0cbe
00000310: 0bcd a1bd 5afb d8bd 0fd5 8cbd 733c 0dbe
00000320: a3e5 2e3e 7409 38be b49c 5dbe 028d 24bc
00000330: e207 14bc 0cc8 11bd 9092 bdbe c51b 22be
00000340: c6de aabc dbad 90be b524 6fbe 0814 89bd
00000350: c348 c0be 8b92 c4be f75c f2bd f9e3 82be
00000360: a4b1 a7be 9c68 27be 728d 90bc a380 a3bd
00000370: 737d 89be 0980 adbc 1539 183e 3d7a 3dbe
00000380: bcb7 8f3c 9c04 86bd e614 a7be 10d7 5d3d
00000390: 9fdb a7be 0d4b 003d 4527 5bbe f6c7 653d
000003a0: 0eab cebd fd62 abbe 2b27 06bc 7f8d 483d
000003b0: a029 8d3d 1e70 1a3e 6ca3 9bbd e091 e53d
000003c0: 206f 14be 1f55 6abd 2419 773c e6c5 9abe
000003d0: 3d65 c3be c671 20be 8236 2dbd 7085 b3be
000003e0: 0b75 8a3d d6e8 bdbe fe96 f73c faf0 a6bd
000003f0: 0ad9 b6be 124a aabd 10ea 0fbe fb01 5a3d

linear1.bias f4 [32]
-0.05399578 -0.09350777 -0.056320935 -0.2280101 -0.027483517 -0.14720748 -0.014019714 0.013718693
-0.05829648 -0.1521456 0.17988361 -0.0145824365 0.03957776 -0.21893348 0.018502086 -0.0013643528
0.15165152 0.074007586 -0.21552865 0.061359532 -0.16880372 -0.16651365 -0.20192984 0.037945703
-0.083654284 -0.09284608 -0.030724514 -0.0878786 -0.057021566 -0.14677559 0.12234624 -0.19949879
00000000: ae2a 5dbd 0081 bfbd c8b0 66bd 7b7b 69be
00000010: 1d25 e1bc 8fbd 16be f1b2 65bc 5ec4 603c
00000020: 4ac8 6ebd 0ecc 1bbe 6933 383e 2ceb 6ebc
00000030: 4a1c 223d 1930 60be b091 973c 15d4 b2ba
00000040: 894a 1b3e 4a91 973d 8bb3 5cbe 2254 7b3d
00000050: e2da 2cbe 8e82 2abe b2c6 4ebe f46c 1b3d
00000060: f052 abbd 1626 bebd fab1 fbbc b2f9 b3bd
00000070: 728f 69bd 574c 16be aa90 fa3d 6949 4cbe

linear2.weight f4 [32, 32]
-0.09686225 0.14560162 -0.053136006 0.14871293 0.08026735 0.13646023 -0.21779144 -0.14035982
-0.004389209 0.0881378 0.03632474 -0.10220197 0.11600762 -0.013921303 0.15111932 -0.014187717
0.014678112 0.055586983 -0.054993875 -0.008467459 -0.14910607 -0.13198155 -0.18329006 -0.08077712
-0.13086848 0.13576376 0.0724046 -0.18622978 -0.037581183 -0.12582521 -3.4937289e-06 -0.035951264
0.081141375 -0.16243467 -0.07088494 0.17000657 0.09543709 -0.16688624 0.099426374 0.11186218
-0.11225694 0.151901 -0.2257372 0.086844675 0.16486694 -0.00095887354 0.026429916 0.035579074
-0.18885529 -0.11306015 -0.046274867 0.13406244 -0.042324603 -0.0567688 0.14262432 0.06799811
0.068575315 -0.068966545 -0.14626876 0.10449622 0.037997738 0.13219258 -0.15985055 -0.17028826
-0.055073448 0.14606562 0.07867071 0.07108135 0.03934584 0.041562624 0.21139374 -0.03435045
0.06701989 0.032653637 -0.009259051 -0.041019797 0.08966863 -0.021056952 0.07864856 0.09166486
0.09918878 0.01435883 0.2400988 0.0029969637 -0.058599144 0.052306365 0.12431828 -0.093955636
0.08929252 0.2406095 -0.056734618 0.03364289 0.15486066 0.06724881 0.21611178 0.0025427938
-0.19356014 0.015206559 -0.045364764 -0.07304898 -0.003763213 0.1429655 -0.12422739 -0.06463148
-0.20806305 -0.10161403 0.18720244 -0.14049257 0.01347873 -0.0031925512 -0.06003343 0.1432459
0.11007487 -0.06150812 -0.08241125 0.08846936 0.17605467 0.16455306 -0.119142294 -0.079366475
-0.04828149 -0.040168542 -0.117045425 0.013668161 -0.09792853 -0.13347127 0.003177433 -0.116029695
-0.016506245 -0.02399146 0.13068317 0.10337288 -0.11327924 0.0950487 0.08371922 -0.09407096
0.087892085 0.02221554 0.14230278 -0.17181426 0.05789642 0.06809219 0.04730332 -0.001292311
-0.107132725 0.009525132 -0.16966097 -0.16253561 -0.013690455 0.043331724 -0.16982172 -0.017718976
-0.013484712 0.050622772 0.06510805 -0.20613736 0.14072411 -0.16287106 0.16457245 0.041459356
-0.012912228 -0.15623896 0.15233149 -0.0116495285 -0.09132478 -0.2519312 0.0972691 0.073617995
-0.11517026 -0.15686758 -0.28027183 0.0055270065 -0.12116313 -0.07473622 0.15413164 0.09908457
-0.009886143 0.17162803 0.011908454 0.10789569 -0.13705036 -0.045458723 -0.05756674 0.03914615
0.14357045 -0.21988086 -0.02387753 -0.11494437 -0.26532277 0.11040212 -0.043353487 0.07986282
-0.1940042 0.2747782 0.11169802 -0.06582805 -0.22398575 -0.05138333 0.005143453 -0.09493636
0.033038694 -0.05428064 0.070806414 -0.08145065 0.13645455 0.110831186 0.04815627 -0.052745357
0.0010947495 -0.12233389 -0.12149659 -0.23013367 0.07302915 0.069929525 0.03378428 -0.06992163
-0.21988209 0.047122095 0.117255144 -0.06459624 -0.022466844 -0.035664074 -0.10679563 -0.090024404
0.168533 0.14913231 -0.14218822 0.033757232 -0.17760716 0.22794655 0.13504739 0.13092268
-0.12179253 -0.16478585 -0.0174551 -0.12795381 0.08621526 0.15396588 -0.1055803 -0.013604392
-0.22840297 0.06595043 0.03589109 -0.05769315 0.0024921221 -0.064098254 -0.16742432 0.014914188
0.14449267 -0.05363444 0.23128153 0.116325155 0.13394594 0.11066644 -0.0034647847 0.16789167
00000000: b75f c6bd 9718 153e 24a5 59bd 3448 183e
00000010: 3563 a43d 3bbc 0b3e b804 5fbe 7cba 0fbe
00000020: 5bd3 8fbb 9781 b43d 40c9 143d 444f d1bd
00000030: 6795 ed3d 2d16 64bc 06bf 1a3e 9973 68bc
00000040: 777c 703c 2daf 633d 4241 61bd 19bb 0abc
00000050: 43af 18be 2c26 07be 64b0 3bbe 7a6e a5bd
00000060: 6302 06be a805 0b3e dd48 943d 05b3 3ebe
00000070: baee 19bd 53d8 00be ce75 6ab6 a241 13bd
00000080: 732d a63d 4655 26be 202c 91bd 3416 2e3e
00000090: 8574 c33d 3ae4 2abe 0ea0 cb3d 0018 e53d
000000a0: f7e6 e5bd f08b 1b3e a727 67be 9fdb b13d
000000b0: e1d2 283e ea5c 7bba 8d83 d83c 5dbb 113d
000000c0: 4863 41be 148c e7bd b78a 3dbd aa47 093e
000000d0: 905c 2dbd 6786 68bd 1c0c 123e 9842 8b3d
000000e0: 3771 8c3d 553e 8dbd 7ac7 15be 1d02 d63d
000000f0: 84a3 1b3d 7e5d 073e ddaf 23be 0c60 2ebe
00000100: b294 61bd 3a92 153e 1c1e a13d 1993 913d
00000110: 1b29 213d 923d 2a3d 9a77 583e 0fb3 0cbd
00000120: b941 893d d2bf 053d 46b3 17bc 6004 28bd
00000130: 30a4 b73d a17f acbc 7f12 a13d c9ba bb3d
00000140: 7d23 cb3d 4c41 6b3c 76dc 753e b568 443b
00000150: a805 70bd 333f 563d 959a fe3d d06b c0bd
00000160: ffde b63d 5662 763e 8f62 68bd 21cd 093d
00000170: cb93 1e3e beb9 893d 684c 5d3e 00a5 263b
00000180: a134 46be ee24 793c 67d0 39bd b49a 95bd
00000190: 3da0 76bb 8c65 123e ee6a febd 825d 84bd
000001a0: 7b0e 55be 041b d0bd ffb1 3f3e 49dd 0fbe
000001b0: e4d5 5c3c 1f3a 51bb 9de5 75bd 0eaf 123e
000001c0: ef6e e13d f0ef 7bbd 3bc7 a8bd 6c2f b53d
000001d0: ad47 343e 9980 283e e000 f4bd e48a a2bd
000001e0: d0c2 45bd c587 24bd 83b5 efbd 6cf0 5f3c
000001f0: c18e c8bd b1ac 08be 7b3c 503b faa0 edbd
00000200: 1b38 87bc bd89 c4bc cfd1 053e 29b5 d33d
00000210: f2fe e7bd e5a8 c23d fb74 ab3d 47a8 c0bd
00000220: c400 b43d 5dfd b53c d2b7 113e 14f0 2fbe
00000230: cc24 6d3d eb73 8b3d 20c1 413d c362 a9ba
00000240: 6768 dbbd 4d0f 1c3c 9bbb 2dbe bc6f 26be
00000250: ee4d 60bc 9b7c 313d bfe5 2dbe 6327 91bc
00000260: fbee 5cbc d359 4f3d 5f57 853d ac15 53be
00000270: fb19 103e acc7 26be ae85 283e 49d1 293d
00000280: cf8d 53bc 1bfd 1fbe c9fc 1b3e aadd 3ebc
00000290: 7c08 bbbd 20fd 80be 0635 c73d 08c5 963d
000002a0: 63de ebbd e5a1 20be ca7f 8fbe e41b b53b
000002b0: 6024 f8bd 4e0f 99bd afd4 1d3e daec ca3d
000002c0: 7df9 21bc 42bf 2f3e ad1b 433c 6af8 dc3d
000002d0: ee56 0cbe ed32 3abd 1acb 6bbd b757 203d
000002e0: 2204 133e 7328 61be cf9a c3bc f467 ebbd
000002f0: 63d8 87be 821a e23d 6d93 31bd 1e8f a33d
00000300: 09a9 46be baaf 8c3e eec1 e43d dbd0 86bd
00000310: 855c 65be 5477 52bd 698a a83b ff6d c2bd
00000320: 9553 073d 6055 5ebd f402 913d 99cf a6bd
00000330: beba 0b3e 76fb e23d 823f 453d 840b 58bd
00000340: b37d 8f3a 318a fabd 34d3 f8bd 29a8 6bbe
00000350: 4f90 953d 3637 8f3d 6361 0a3d 1233 8fbd
00000360: c528 61be 1903 413d 7723 f03d 094b 84bd
00000370: 630c b8bc 7e14 12bd abb7 dabd b75e b8bd
00000380: ea93 2c3e 24b6 183e ca99 11be 0645 0a3d
00000390: a7de 35be d26a 693e dd49 0a3e 9810 063e
000003a0: 5d6e f9bd 9fbd 28be fffd 8ebc 5306 03be
000003b0: a091 b03d 3ba9 1d3e 7c3a d8bd f5e4 5ebc
000003c0: 78e2 69be 0511 873d 8902 133d a74f 6cbd
000003d0: df52 233b f245 83bd 4871 2bbe a35a 743c
000003e0: e3f5 133e c9af 5bbd 11d5 6c3e e23b ee3d
000003f0: 2029 093e 16a5 e23d 7111 63bb cbeb 2b3e

linear2.bias f4 [32]
-0.036227204 -0.05084658 -0.052860443 -0.031592198 -0.1625536 0.00020453012 0.015327513 -0.076994725
-0.04731704 -0.16489074 -0.04761995 0.060018037 -0.12301774 0.07143796 -0.22793694 -0.013904731
-0.03860693 -0.11283286 -0.017682772 -0.111243084 -0.10616893 -0.044064403 -0.14490706 0.068653315
-0.037831753 -0.11710365 -0.06799137 -0.014212457 0.0003170649 0.0054379506 -0.021118687 -0.13527481
00000000: fa62 14bd 8144 50bd 3184 58bd d266 01bd
00000010: 7374 26be 2377 5639 4020 7b3c 69af 9dbd
00000020: 83cf 41bd 1ed9 28be 230d 43bd 79d5 753d
00000030: baf0 fbbd 114e 923d 4d68 69be abd0 63bc
00000040: 4d22 1ebd ea14 e7bd 76db 90bc 6ad3 e3bd
00000050: 196f d9bd e07c 34bd 8462 14be 1c9a 8c3d
00000060: 78f5 1abd 0ad4 efbd 0f3f 8bbd 5edb 68bc
00000070: bb3b a639 d630 b23b 1901 adbc 7b85 0abe

fc.weight f4 [1, 32]
0.05750968 -0.127206 0.18893775 0.05664531 0.029399281 -0.0062834015 0.012608522 0.081925415
0.043991815 0.02759071 -0.07299514 -0.050837543 -0.06304475 -0.07903799 -0.008038068 0.016634364
-0.03649708 -0.14726701 -0.16932945 0.01210159 -0.095098056 -0.03173163 -0.0002489851 -0.058580592
0.011073943 0.044770215 -0.0060729044 0.037919622 -0.0109599205 0.017623732 0.01731902 -0.04471284
00000000: 458f 6b3d 4a42 02be e678 413e ea04 683d
00000010: c3d6 f03c fee4 cdbb f993 4e3c 83c8 a73d
00000020: c330 343d ea05 e23c 7a7e 95bd 073b 50bd
00000030: 9b1d 81bd abde a1bd 1ab2 03bc ca44 883c
00000040: f67d 15bd 2acd 16be b364 2dbe bf45 463c
00000050: c5c2 c2bd 07f9 01bd 378a 82b9 34f2 6fbd
00000060: 7c6f 353c f960 373d 37ff c6bb 9b51 1b3d
00000070: 3d91 33bc a55f 903c 9ee0 8d3c d024 37bd
